mario_kart/PPO_preTrained/test/PPO_test_0_0.pth (torch, 42754 bytes, 11 tensors)

actor.0.weight f4 [64, 7]
0.13817918 -0.09659526 0.27606526 -0.025894647 0.17074467 -0.05204092 0.16395332 0.4216951
-0.1700303 -0.17587729 -0.010772465 -0.3062205 0.13496818 0.051625077 0.1598056 -0.3046811
-0.009479427 0.3662736 -0.04653457 -0.24949612 -0.32772297 -0.01816895 0.56586486 0.13815774
0.27835545 0.16320942 -0.0647939 -0.03859117 0.13779552 0.02405094 -0.059253108 -0.32074174
0.3376671 -0.26149207 -0.010190643 0.28421158 -0.0709512 -0.40643695 -0.052259594 0.12615907
0.4038482 0.3306583 0.23007338 -0.044876993 -0.06821577 0.06653515 -0.08438732 0.24596176
-0.29814512 0.09587707 -0.22341296 -0.43965453 -0.2664748 -0.18693715 -0.17108043 0.077560976
0.18638702 0.030067423 0.35272568 -0.1129553 0.010588149 -0.040519156 -0.36463076 -0.10034323
-0.21991201 -0.3369127 -0.32939988 -0.38179192 -0.03199843 -0.058430456 0.29296985 -0.13638869
0.199745 0.23256202 0.09466335 -0.42938614 -0.36190885 0.001837683 -0.2303471 0.14040764
0.32478222 -0.34097013 -0.0940064 -0.14664848 0.051772337 -0.081834614 0.3071181 0.4094455
-0.124805845 0.065292 0.07662958 -0.53616506 -0.3714902 -0.21998785 -0.26762453 -0.42789122
0.012683674 -0.035516787 0.0080163395 -0.0758836 0.112695165 0.28419322 0.19463511 0.28180647
0.195873 -0.29546592 -0.15744175 -0.22496793 0.11659755 0.24567056 -0.052792158 0.17340189
0.15208608 -0.07991771 0.09200773 -0.13885306 -0.22888246 0.04862848 -0.21249545 0.21106528
-0.20761667 -0.09895951 0.29442078 -0.017314127 -0.024446063 -0.11941026 0.1175095 0.10011676
0.20882152 -0.24291618 -0.14890303 -0.2511594 -0.23789075 -0.36251613 -0.20438087 0.2974259
-0.092238165 0.1474729 0.24878877 0.37459368 0.58987564 -0.23116705 -0.33367488 0.27190626
0.2737696 0.073913805 -0.043408304 0.024781343 -0.33404714 0.08158708 -0.19273046 0.25944522
-0.20319493 -0.21228136 -0.06466089 0.20469034 -0.11037525 -0.09755894 -0.23662291 -0.09816744
-0.33812374 -0.37554184 0.06950627 -0.18645987 -0.14874603 0.03293717 0.1899048 0.23272133
0.2408195 -0.4036895 -0.3905461 -0.31629366 0.30813468 -0.19513038 -0.070600115 -0.5074256
-0.14073534 0.15154894 0.085153356 0.059170187 -0.08467747 -0.2959755 -0.29725903 -0.26026654
0.13594675 0.04708063 0.059474498 0.2619459 0.25582504 -0.13132378 -0.2281779 0.33176506
0.093251 0.3583342 0.27832752 0.031840138 0.42649102 -0.11559529 0.10703229 -0.1673335
0.18849991 -0.063603595 -0.122444615 -0.15752816 -0.035519935 -0.36551735 0.35124835 0.0840056
0.19259357 0.0026995114 -0.19293505 -0.15311347 0.09188433 -0.3341705 -0.1415474 0.28888857
0.12966716 0.45163622 -0.0241835 0.19596268 -0.46490586 0.28949308 0.033465527 -0.11489733
-0.44959316 -0.31345597 -0.26427373 0.23389056 0.22660685 -0.26436353 0.35003948 0.3392859
0.12919874 -0.16818377 -0.14659125 0.030552447 0.15079176 0.33989155 0.050787844 -0.041797034
-0.0971019 0.3959374 -0.17581297 -0.17892006 -0.32681268 -0.07612847 -0.4786598 -0.299935
0.34635246 0.13891208 -0.028382484 -0.2516925 -0.24474731 -0.15470192 -0.07981168 -0.1674928
00000000: d87e 0d3e bcd3 c5bd 6d58 8d3e 0321 d4bc
00000010: b1d7 2e3e dc28 55bd 61e3 273e 6ce8 d73e
00000020: 6c1c 2ebe 2d19 34be fe7e 30bc efc8 9cbe
00000030: 1935 0a3e d174 533d 14a4 233e 29ff 9bbe
00000040: 994f 1bbc 3788 bb3e 099b 3ebd e97b 7fbe
00000050: 4ecb a7be 0dd7 94bc 85dc 103f 3979 0d3e
00000060: 9b84 8e3e 5f20 273e aab2 84bd c611 1ebd
00000070: 451a 0d3e 7a06 c53c 63b3 72bd 4338 a4be
00000080: b4e2 ac3e 4ae2 85be a8f6 26bc 2e84 913e
00000090: dd4e 91bd 8118 d0be 280e 56bd d82f 013e
000000a0: 31c5 ce3e 0b4c a93e 5b98 6b3e f0d0 37bd
000000b0: b6b4 8bbd 9543 883d 42d3 acbd 66dd 7b3e
000000c0: 7aa6 98be 335b c43d 5ec6 64be 661a e1be
000000d0: 636f 88be 746c 3fbe b52f 2fbe 4ad8 9e3d
000000e0: 3ddc 3e3e f54f f63c 7698 b43e 1c55 e7bd
000000f0: ea79 2d3c 6af7 25bd e2b0 babe c080 cdbd
00000100: 9d30 61be d27f acbe 1aa7 a8be 3b7a c3be
00000110: c910 03bd c654 6fbd 2500 963e 7aa9 0bbe
00000120: f489 4c3e bd24 6e3e dcde c13d 80d8 dbbe
00000130: 1e4c b9be 69de f03a 1ce0 6bbe 05c7 0f3e
00000140: db49 a63e a393 aebe 6d86 c0bd 052b 16be
00000150: 3b0f 543d e898 a7bd 953e 9d3e d7a2 d13e
00000160: 359a ffbd d0b7 853d f8ef 9c3d 1d42 09bf
00000170: f733 bebe 7f44 61be 1506 89be 8f14 dbbe
00000180: 2fcf 4f3c 0d7a 11bd f756 033c dc68 9bbd
00000190: b9cc e63d c681 913e 6d4e 473e f048 903e
000001a0: ef92 483e 4f47 97be 6938 21be fe5d 66be
000001b0: b2ca ee3d 1091 7b3e 973c 58bd 4490 313e
000001c0: 74bc 1b3e e5ab a3bd 8c6e bc3d 7f2f 0ebe
000001d0: 2a60 6abe a82e 473d 6898 59be 7f21 583e
000001e0: 7799 54be 49ab cabd 52be 963e 5bd6 8dbc
000001f0: 1c43 c8bc 5e8d f4bd d2a8 f03d 040a cd3d
00000200: 4fd5 553e 05bf 78be 097a 18be f797 80be
00000210: a299 73be b79b b9be 3849 51be 3548 983e
00000220: 5de7 bcbd 2303 173e 7cc2 7e3e beca bf3e
00000230: 1702 173f 0eb7 6cbe 6fd7 aabe 4c37 8b3e
00000240: 872b 8c3e 1f60 973d e8cc 31bd 3e02 cb3c
00000250: 3a08 abbe 2117 a73d 225b 45be 01d6 843e
00000260: 5512 50be 4960 59be ee6c 84bd 589a 513e
00000270: 6b0c e2bd fbcc c7bd 474d 72be 030c c9bd
00000280: 8e1e adbe 0547 c0be 4e59 8e3d 56ef 3ebe
00000290: e150 18be 20e9 063d 6776 423e 804e 6e3e
000002a0: 6399 763e 64b0 cebe a9f5 c7be 3ef1 a1be
000002b0: d4c3 9d3e 42d0 47be cb96 90bd a5e6 01bf
000002c0: ed1c 10be a52f 1b3e e264 ae3d 705c 723d
000002d0: 626b adbd 1a8a 97be 5632 98be a841 85be
000002e0: a035 0b3e 9ed7 403d 889b 733d c61d 863e
000002f0: 80fb 823e be79 06be 78a7 69be 1cdd a93e
00000300: 61fa be3d 9577 b73e f280 8e3e ce6a 023d
00000310: 085d da3e 39bd ecbd bf33 db3d 7959 2bbe
00000320: 1f06 413e 9a42 82bd 3ec4 fabd 104f 21be
00000330: 5a7d 11bd 1725 bbbe d3d6 b33e 210b ac3d
00000340: 4037 453e 49ea 303b c490 45be c7c9 1cbe
00000350: da2d bc3d 6518 abbe cdf1 10be 34e9 933e
00000360: 78c7 043e dd3c e73e 7a1c c6bc 71aa 483e
00000370: 2408 eebe 7038 943e 2613 093d 4b4f ebbd
00000380: 1331 e6be 4d7d a0be e34e 87be 0281 6f3e
00000390: a00b 683e a85a 87be 6038 b33e e2b6 ad3e
000003a0: ad4c 043e 5e38 2cbe 041c 16be 2049 fa3c
000003b0: 2869 1a3e 4406 ae3e ea06 503d 5e33 2bbd
000003c0: 5cdd c6bd 4fb8 ca3e 5108 34be d236 37be
000003d0: fe53 a7be 3ee9 9bbd e612 f5be 1591 99be
000003e0: 1c55 b13e f83e 0e3e 6282 e8bc d7dd 80be
000003f0: 0a9f 7abe 2e6a 1ebe 4e74 a3bd 3c83 2bbe

actor.0.bias f4 [64]
-0.06133641 0.083659604 0.034904826 0.01740213 -0.29513213 0.19024582 0.10171433 -0.25006187
0.11110969 -0.2603966 -0.1991085 0.22482155 -0.13173765 0.12784293 0.17019102 -0.05690014
0.12475777 0.021998255 -0.22290161 -0.36473015 -0.207499 0.28597888 -0.15152991 0.28170425
0.2579034 -0.22833389 0.08943721 0.30156383 0.048482586 0.35896122 0.29381743 0.27218243
0.16342865 -0.32215473 0.08215737 -0.09092351 -0.31125405 0.35259175 -0.20997733 0.16551961
-0.43708053 -0.37720647 -0.4189119 0.29135063 0.005430401 0.23332928 0.40376937 0.035767063
-0.070698 0.31982428 0.14668725 0.38190967 -0.09919106 0.0781901 -0.058875702 -0.25820294
0.04647199 -0.07900733 -0.18701376 -0.004739899 -0.5000517 0.0072704167 -0.07859786 0.20980163
00000000: e33b 7bbd ba55 ab3d 5df8 0e3d e98e 8e3c
00000010: 8f1b 97be cdcf 423e 9a4f d03d 1c08 80be
00000020: 7a8d e33d b452 85be 19e3 4bbe 9f37 663e
00000030: 3ce6 06be 42e9 023e 8e46 2e3e 1f10 69bd
00000040: 0081 ff3d af35 b43c 5240 64be e9bd babe
00000050: 9e7a 54be d36b 923e a82a 1bbe 8a3b 903e
00000060: ea0b 843e 5cd0 69be db2a b73d 9366 9a3e
00000070: ad95 463d c4c9 b73e 3d6f 963e 7f5b 8b3e
00000080: d759 273e 77f1 a4be 2042 a83d 1b36 babd
00000090: b15c 9fbe e886 b43e 4c04 57be f97d 293e
000000a0: 05c9 dfbe 3521 c1be 9f7b d6be e92b 953e
000000b0: 81f1 b13b dfed 6e3e dcba ce3e 7c80 123d
000000c0: 1dca 90bd 02c0 a33e 2f35 163e aa89 c33e
000000d0: af24 cbbd 2222 a03d a627 71bd 2d33 84be
000000e0: 6a59 3e3d 98ce a1bd 8980 3fbe 2851 9bbb
000000f0: 6303 00bf ad3c ee3b eaf7 a0bd 3dd6 563e

actor.2.weight f4 [64, 64]
0.0032087483 -0.061528325 0.15146144 -0.12670414 0.0507957 -0.008855238 0.07547714 -0.014584792
0.10004413 0.060491487 0.07344913 0.01102199 -0.07652334 -0.038941097 -0.1021771 0.02099932
-0.032194093 -0.09431052 0.10615907 0.063516915 -0.03220969 0.044710137 0.086203806 -0.043950148
-0.03410251 -0.15432923 -0.067249596 0.0030655528 0.17422856 0.057782453 -0.019749345 0.06350099
0.009280427 0.09444142 -0.12789305 0.037757393 -0.01356214 0.055524673 -0.06437452 -0.10692797
0.025583776 -0.09644397 0.009496338 -0.05522184 0.015205556 0.1517683 0.04029907 0.0053932383
-0.12221835 0.12180801 -0.09071618 -0.07495119 -0.021172535 0.014310641 -0.09883336 0.044015925
0.1274221 0.042415835 0.0850749 0.05267261 0.010734113 0.14463426 0.033858445 0.14110586
-0.09214186 -0.027321422 -0.17900884 0.069662124 0.14396691 -0.11121776 -0.04656083 0.070861734
0.0017038416 -0.036617283 -0.085660525 0.14829761 0.022743994 -0.032992594 0.087175675 0.055287838
-0.12748243 0.04690268 -0.06420514 -0.070036195 0.066893205 0.08134778 -0.036216486 -0.019686628
0.086153306 0.14200707 0.11238575 -0.068208806 -0.24264836 -0.07003861 -0.05712853 0.05075573
0.005296373 -0.124929085 0.12086853 0.09547579 -0.13417163 -0.055092186 0.13915646 0.08836294
-0.09737104 0.004625791 0.021233933 0.105242714 0.15534392 0.050924893 -0.037690338 -0.060646344
0.02203782 -0.12418696 -0.06625795 -0.07157662 5.6459453e-06 -0.050922778 -0.0015657241 0.03985785
-0.07432138 -0.07185124 -0.087285995 0.13325845 0.18354657 -0.111334585 -0.091248 -0.05073766
0.108162664 -0.07490797 0.09824832 0.031845625 -0.06052686 0.026363926 0.076716155 -0.03996661
-0.09582766 -0.104023255 0.062285103 0.11693596 -0.029985748 -0.0069905166 0.10577104 0.08109123
0.12768528 -0.09915467 -0.09774275 -0.085900754 -0.10017697 0.23360582 0.0032309915 -0.14909664
-0.074176565 -0.17080092 0.06199056 0.07004522 0.09202182 0.111567415 0.09515393 -0.019664576
-0.014463678 0.16548632 -0.07509741 0.052740287 0.067228734 -0.0049823215 -0.037321605 -0.04224771
0.082293734 0.077971175 0.16199863 -0.15644354 0.08677907 0.026877046 0.13148284 -0.085162856
-0.12732252 0.06505894 0.0009964879 0.102371804 0.109799825 -0.04111107 -0.085465 -0.02824756
0.007506087 -0.02071159 0.050387785 -0.037033588 -0.12122577 0.06210491 0.02587459 0.035761774
-0.0713723 -0.10149551 0.1535218 0.06983155 -0.046447027 -0.12842658 0.10894221 0.08809672
0.0706596 -0.042850822 0.0607825 0.009493526 -0.02998007 -0.10855537 0.060139596 -0.050044525
-0.09024605 -0.1646477 -0.041618377 -0.01611396 -0.066246405 -0.047537602 0.06834649 0.010849844
-0.094108686 -0.10206853 -0.10201056 -0.08512957 0.07318063 -0.018068638 0.04476747 0.038310263
-0.16405822 -0.01738494 -0.15902174 -0.036485303 0.10523509 -0.008375892 -0.19746102 0.109392315
-0.059879344 0.078148544 -0.044411138 -0.15884584 -0.0195322 0.043364707 0.05399088 0.01792966
-0.19474126 0.0057664816 -0.050652105 0.076506004 0.0056394287 0.12546389 -0.0072340593 0.031975836
-0.0843314 0.13697843 0.083357476 -0.012817413 -0.015036188 -0.017211612 -0.0790393 0.040006824
00000000: dd49 523b 2005 7cbd b518 1b3e bbbe 01be
00000010: 270f 503d 8f15 11bc c293 9a3d 0df5 6ebc
00000020: f0e3 cc3d ecc5 773d 7f6c 963d 9495 343c
00000030: 45b8 9cbd b380 1fbd 3a42 d1bd c406 ac3c
00000040: f4dd 03bd e025 c1bd ed69 d93d 2815 823d
00000050: 4fee 03bd fa21 373d 9f8b b03d 1205 34bd
00000060: 13af 0bbd 7b08 1ebe 28ba 89bd 71e7 483b
00000070: f968 323e 4bad 6c3d 61c9 a1bc cf0c 823d
00000080: ef0c 183c 816a c13d 65f6 02be 7fa7 1a3d
00000090: bd33 5ebc d76d 633d cad6 83bd 0dfd dabd
000000a0: 1195 d13c 6b84 c5bd 8796 1b3c 4c30 62bd
000000b0: b920 793c 2669 1b3e a310 253d c3b9 b03b
000000c0: 9d4d fabd 7a76 f93d 68c9 b9bd 0280 99bd
000000d0: 0672 adbc 2e77 6a3c 2569 cabd 0b4a 343d
000000e0: f07a 023e 3abc 2d3d c03b ae3d 3cbf 573d
000000f0: 22de 2f3c 011b 143e 27af 0a3d 0e7e 103e
00000100: dfb4 bcbd 2dd1 dfbc 184e 37be 04ab 8e3d
00000110: 106c 133e 23c6 e3bd 92b6 3ebd f51f 913d
00000120: 7053 df3a 01fc 15bd c96e afbd 54db 173e
00000130: 9d51 ba3c 3e23 07bd 2989 b23d 8075 623d
00000140: c18a 02be 061d 403d fc7d 83bd 236f 8fbd
00000150: 4eff 883d aa99 a63d bd57 14bd da45 a1bc
00000160: 2571 b03d 4d6a 113e 802a e63d 0fb1 8bbd
00000170: d078 78be 6770 8fbd 9bff 69bd 3ee5 4f3d
00000180: 328d ad3b d2da ffbd eb89 f73d d088 c33d
00000190: 4a64 09be 58a8 61bd 087f 0e3e a1f7 b43d
000001a0: 786a c7bd f393 973b c9f2 ad3c 7e89 d73d
000001b0: 7a12 1f3e 9f96 503d 2f61 1abd 4d68 78bd
000001c0: a988 b43c bc55 febd 40b2 87bd c396 92bd
000001d0: 4d72 bd36 6794 50bd fc38 cdba fc41 233d
000001e0: cf35 98bd be26 93bd 00c3 b2bd e774 083e
000001f0: a2f3 3b3e 6303 e4bd 3be0 babd 4bd2 4fbd
00000200: 6384 dd3d 5a69 99bd 6a36 c93d 8f70 023d
00000210: 03eb 77bd 29f9 d73c 5c1d 9d3d 07b4 23bd
00000220: 4b41 c4bd 250a d5bd aa1e 7f3d 1f7c ef3d
00000230: aca4 f5bc b410 e5bb 7d9e d83d 2913 a63d
00000240: eebf 023e 9b11 cbbd 5a2d c8bd bcec afbd
00000250: 9529 cdbd 5d36 6f3e 0bbf 533b caac 18be
00000260: e2e9 97bd 70e6 2ebe d0e9 7d3d de73 8f3d
00000270: f075 bc3d 757d e43d 10e0 c23d 9b17 a1bc
00000280: 10f9 6cbc 3f75 293e accc 99bd 3306 583d
00000290: 38af 893d be42 a3bb 8ade 18bd ef0b 2dbd
000002a0: 9e89 a83d 5aaf 9f3d f8e2 253e bc32 20be
000002b0: 3ab9 b13d 402d dc3c 70a3 063e dd69 aebd
000002c0: d660 02be 9f3d 853d 969c 823a 4fa8 d13d
000002d0: bbde e03d 1564 28bd 4608 afbd 6d67 e7bc
000002e0: 9ff5 f53b 5aab a9bc 6c63 4e3d 88b0 17bd
000002f0: 3745 f8bd b861 7e3d f3f6 d33c f07a 123d
00000300: a42b 92bd e1dc cfbd d234 1d3e d803 8f3d
00000310: 3d3f 3ebd 4282 03be 181d df3d 0e6c b43d
00000320: fbb5 903d 5884 2fbd 12f7 783d bc8a 1b3c
00000330: c498 f5bc 4752 debd f054 763d 7dfb 4cbd
00000340: ecd2 b8bd 6899 28be 0878 2abd 6c01 84bc
00000350: 32ac 87bd cab6 42bd 3ff9 8b3d 8bc3 313c
00000360: 0ebc c0bd 4e09 d1bd eaea d0bd 6958 aebd
00000370: badf 953d ae04 94bc 185e 373d 39eb 1c3d
00000380: e1fe 27be dd6a 8ebc 98d6 22be 9d71 15bd
00000390: 7f85 d73d 0a3b 09bc 3933 4abe 1409 e03d
000003a0: 0b44 75bd 580c a03d 74e8 35bd 7ca8 22be
000003b0: fe01 a0bc 319f 313d 8a25 5d3d 39e1 923c
000003c0: 416a 47be c1f4 bc3b 9578 4fbd 2eaf 9c3d
000003d0: f5ca b83b 9b79 003e b00b edbb 18f9 023d
000003e0: f1b5 acbd 1344 0c3e 53b7 aa3d 2000 52bc
000003f0: 585a 76bc 5eff 8cbc 5bdf a1bd 32de 233d

actor.2.bias f4 [64]
-0.03001131 -0.032745104 -0.09944969 0.0009808342 0.040813003 0.08138767 0.06742175 -0.039396666
0.10053551 -0.122992374 0.017546332 -0.024434673 0.096604116 -0.06470597 -0.07652978 0.11299076
0.11941142 0.037480697 0.06298716 -0.042203914 0.082661375 0.04080458 -0.05571902 -0.0682508
-0.062269766 -0.027209412 -0.05520592 0.050156534 0.035543296 0.079937465 -0.13729583 -0.044315446
0.023590844 -0.06907591 -0.02290507 -0.057425562 -0.06401722 0.115616225 -0.015982624 0.029439978
-0.123755135 -0.024799628 -0.02490076 -0.08876154 -0.014714877 0.11013193 0.014920734 -0.074417666
0.0951614 -0.037470974 0.002335646 -0.0033410727 0.12837504 -0.06317106 0.105976544 -0.09468102
-0.028444422 -0.10541283 -0.017660545 0.07502866 -0.066816814 -0.063430645 0.00780399 0.014944424
00000000: 47da f5bc bb1f 06bd 47ac cbbd 568f 803a
00000010: 892b 273d 94ae a63d 6a14 8a3d 665e 21bd
00000020: 90e5 cd3d 6de3 fbbd 53bd 8f3c 392b c8bc
00000030: 61d8 c53d 9084 84bd a5bb 9cbd b367 e73d
00000040: f98d f43d 5c85 193d 6aff 803d 03de 2cbd
00000050: 5e4a a93d b422 273d a139 64bd 13c7 8bbd
00000060: 950e 7fbd 46e6 debc 9a1f 62bd f070 4d3d
00000070: d995 113d 41b6 a33d 4797 0cbe 1d84 35bd
00000080: 9641 c13c ac77 8dbd 6aa3 bbbc 1137 6bbd
00000090: 761b 83bd 33c8 ec3d feed 82bc 1c2c f13c
000000a0: 5573 fdbd 9728 cbbc aefc cbbc 9cc8 b5bd
000000b0: ab16 71bc d98c e13d 1876 743c 4a68 98bd
000000c0: fbe3 c23d 2a7b 19bd a311 193b e6f5 5abb
000000d0: bf74 033e d45f 81bd 3b0a d93d 1fe8 c1bd
000000e0: 4704 e9bc afe2 d7bd d9ac 90bc a0a8 993d
000000f0: 41d7 88bd ede7 81bd 9db8 ff3b 75d9 743c

actor.4.weight f4 [2, 64]
-0.08912301 0.034185454 -0.40071967 -0.062527 -0.16625953 0.13997798 -0.09379097 -0.113652095
-0.114672504 0.046623398 -0.008313946 0.104790725 -0.10135723 0.07921767 -0.10661326 0.11028667
0.16611668 -0.071964145 0.21738167 -0.108758435 0.21588744 0.12731954 -0.20341673 -0.020573614
-0.15902388 0.14183782 0.07044949 0.13313451 -0.0440572 0.021477966 -0.31007814 0.19356139
0.1101343 -0.091500275 -0.11887053 0.049674373 0.03897051 -0.04357074 -0.13246392 0.05814004
0.16708006 -0.36125928 -0.15836473 0.06472372 0.14627898 -0.048107486 0.13328117 -0.248075
-0.09711631 -0.13037567 0.12099101 -0.30745235 0.19819881 0.18777345 -0.2280717 -0.10089072
0.06979952 0.11350653 -0.040225614 -0.1590887 0.14814892 0.12288917 0.17348675 -0.08398461
0.24656571 -0.21947503 0.14875275 0.25395504 0.07591033 -0.14423773 -0.0018080692 -0.030852377
-0.11610783 -0.25595462 0.079465576 0.08502699 -0.11877437 0.5090857 0.29255152 -0.06392268
-0.1200721 0.26469192 0.14612868 0.05943196 -0.36155513 0.05431853 0.15142615 0.32812572
-0.016380887 -0.048822008 -0.2355621 -0.16837177 0.06412568 -0.051777422 0.3749365 -0.18220735
-0.3178383 -0.25291637 0.3466053 -0.06796538 -0.10165852 -0.25625068 0.08241243 -0.29864365
0.29740992 -0.37373075 0.4351258 -0.08707687 0.10256568 0.1045501 0.060770694 -0.27901775
0.16417003 0.32101038 -0.12138645 0.2279529 -0.063922025 0.06557184 -0.11028063 0.21413742
-0.109838784 0.114718705 0.38107198 0.006372378 -0.5625657 -0.23193039 0.40741462 -0.13520005
00000000: 2086 b6bd 0c06 0c3d 212b cdbe 280e 80bd
00000010: f03f 2abe 6356 0f3e 7b15 c0bd 6ec2 e8bd
00000020: 6bd9 eabd 2df8 3e3d 3837 08bc 859c d63d
00000030: 6194 cfbd e03c a23d 0e58 dabd fadd e13d
00000040: 7e1a 2a3e f061 93bd 4d99 5e3e bebc debd
00000050: 9911 5d3e 0e60 023e 7a4c 50be ff89 a8bc
00000060: 28d7 22be ef3d 113e d247 903d 6a54 083e
00000070: 5375 34bd 8ff2 af3c 90c2 9ebe f534 463e
00000080: 188e e13d 7f64 bbbd 6472 f3bd 5b77 4b3d
00000090: 8b9f 1f3d 3b77 32bd 9fa4 07be 4024 6e3d
000000a0: 0917 2b3e faf6 b8be 5d2a 22be df8d 843d
000000b0: 28ca 153e 5b0c 45bd dc7a 083e 5f07 7ebe
000000c0: eae4 c6bd 3381 05be 22ca f73d 656a 9dbe
000000d0: a1f4 4a3e af47 403e a18b 69be cb9f cebd
000000e0: 0df3 8e3d 1d76 e83d 9dc3 24bd 26e8 22be
000000f0: 5ab4 173e 51ad fb3d 83a6 313e 2000 acbd
00000100: b97b 7c3e 10be 60be a452 183e 6506 823e
00000110: e076 9b3d 0eb3 13be bcfc ecba 20be fcbc
00000120: f1c9 edbd 7c0c 83be d9be a23d a122 ae3d
00000130: fa3f f3bd 7153 023f 50c9 953e e5e9 82bd
00000140: 5ce8 f5bd b385 873e c2a2 153e ed6e 733d
00000150: c11d b9be 1b7d 5e3d 750f 1b3e 1800 a83e
00000160: 3631 86bc 96f9 47bd 3137 71be a669 2cbe
00000170: 5354 833d 9014 54bd adf7 bf3e 9094 3abe
00000180: b4bb a2be 417e 81be 4076 b13e 6f31 8bbd
00000190: 5832 d0bd 4a33 83be d9c7 a83d d2e7 98be
000001a0: 1d46 983e a359 bfbe cfc8 de3e 5c55 b2bd
000001b0: f50d d23d 5d1e d63d b1ea 783d 6adb 8ebe
000001c0: 301c 283e 795b a43e 7699 f8bd 7c6c 693e
000001d0: 8de9 82bd 874a 863d d0da e1bd d746 5b3e
000001e0: 28f3 e0bd a4f1 ea3d de1b c33e 62cf d03b
000001f0: 4e04 10bf 297f 6dbe a698 d03e e271 0abe

actor.4.bias f4 [2]
-0.012837342 0.00925451
00000000: b753 52bc 3aa0 173c

critic.0.weight f4 [64, 7]
-0.31798276 3.1763809 0.032536387 0.009116548 0.019458884 -0.06365014 0.07775459 -0.69475824
0.20447932 -0.21854626 0.08938018 -0.32444605 0.06869018 -0.08411747 0.26124316 -0.7922049
0.18463698 -0.20064299 0.18481228 0.18654582 -0.06370477 1.1254953 0.6360832 -0.17452414
0.15032136 0.2927249 -0.0703195 -0.06970308 -0.7220013 -1.5876261 0.11609513 -0.24297415
-0.025809111 -0.013039198 0.11688751 0.59514874 0.22340012 -0.009071123 -0.3969525 -0.04391736
-0.0649216 -0.08948278 -0.44364744 0.85941064 0.31272554 0.14503692 0.4087526 -0.1505696
-0.39020905 -0.37032068 1.279041 0.11835243 -0.024126777 0.22194491 -0.3703031 -0.11057623
0.38644022 1.119452 -0.19848932 0.18264556 0.17520787 0.28719366 0.4802701 -0.5298288
1.1451455 -0.174726 0.21953924 0.18316096 -0.40268758 -0.011050338 -0.10142921 0.30603644
0.11004805 0.03951641 0.3932424 0.017075775 -0.34606528 -0.11565974 0.9895098 -0.05373515
0.31669375 0.39553156 0.123359576 0.030887516 0.19203912 -0.44078586 0.18066582 0.18033515
0.023200858 0.0042882734 0.15485758 -0.21191382 0.14159717 0.14180514 -0.10671877 -0.24007577
0.13665643 -0.36118972 0.5063853 0.0012552313 0.044569716 0.26752093 0.19483276 0.07639816
-0.07334192 -0.6473756 1.2962713 0.021074953 0.3379842 0.38862407 -0.18906961 0.05400569
-1.3025936 -0.16246964 -0.18115146 -0.13025278 -0.15156771 0.2374758 0.061512962 -0.6657059
0.66155267 0.006204139 0.09912243 0.22891656 0.08628929 -0.24389751 -1.1743279 0.97204226
-0.15219583 -0.15699404 0.14888392 -0.2215538 -0.028173875 -0.31145146 -0.06784319 0.36905324
0.23567414 0.35102794 0.46410245 0.04120641 0.7935775 0.2555733 -0.18924128 0.29624295
0.275367 0.004554997 0.1627538 0.36637062 0.13549769 -0.1739686 0.10279951 -0.4234156
-0.03575319 0.07292883 1.0859263 0.45566538 0.051870055 0.0427495 -0.006518219 0.08526783
0.03832976 -0.5867359 0.5599141 0.22343859 0.2628956 0.26003376 -0.22257331 -0.21505298
-1.0757225 1.8466545 -0.3291579 0.057441756 -0.1850311 0.31180546 -0.15807462 0.25124833
-0.80819666 0.15159649 -0.21581872 -0.07042676 0.06374163 -0.36862007 -0.7956709 0.1393175
-0.0915258 0.097450964 -0.2881652 -0.110699765 -0.15883474 0.08438749 -0.28214872 0.22063926
0.021481842 0.58233297 0.32323518 0.28911594 -0.40104648 0.971417 0.16060074 0.2007896
-0.1207335 -0.151485 -0.17327912 0.039538305 1.412079 0.10355254 0.06981191 0.017660916
-0.013987438 0.1380131 0.20321219 0.012765571 0.20461312 -0.04076278 0.12597093 0.4204295
-0.19654661 0.8022965 -0.9039606 -0.35897312 0.2127172 -0.083940625 -0.31369287 -0.39730072
0.1430795 0.32363167 -0.24480252 -0.4226261 -0.13937901 -0.08432455 0.03672546 0.35146034
0.10646231 0.21698332 -0.46647695 -0.15928961 -0.32251188 -0.027691023 -0.5177598 0.4713089
0.20006965 -0.19362013 0.3469629 -0.120812364 0.04816581 0.23687322 -0.4355926 -0.29067534
0.386327 -0.032269966 0.06466022 0.13551793 -0.28554252 -0.20204832 -0.20318578 0.19465387
00000000: a3ce a2be d349 4b40 e044 053d 935d 153c
00000010: 3d68 9f3c 015b 82bd cc3d 9f3d addb 31bf
00000020: 0763 513e 97ca 5fbe f50c b73d cb1d a6be
00000030: 70ad 8c3d c845 acbd aac1 853e f1cd 4abf
00000040: 7a11 3d3e 5b75 4dbe 6e3f 3d3e de05 3f3e
00000050: a577 82bd 3b10 903f 59d6 223f 75b6 32be
00000060: d8ed 193e 0ae0 953e ac03 90bd 7dc0 8ebd
00000070: 14d5 38bf 5537 cbbf 49c3 ed3d 37ce 78be
00000080: a16d d3bc 5ca2 55bc b862 ef3d ab5b 183f
00000090: 00c3 643e 0c9f 14bc 5c3d cbbe b1e2 33bd
000000a0: 9ef5 84bd bf42 b7bd c225 e3be 5602 5c3f
000000b0: 901d a03e 8f84 143e 0548 d13e eb2e 1abe
000000c0: 7bc9 c7be ac9a bdbe 9eb7 a33f c262 f23d
000000d0: 85a5 c5bc 8745 633e 5e98 bdbe ca75 e2bd
000000e0: 7edb c53e 344a 8f3f c940 4bbe 7007 3b3e
000000f0: b169 333e 0c0b 933e f6e5 f53e dca2 07bf
00000100: 2194 923f 5feb 32be e5ce 603e 8c8e 3b3e
00000110: 112d cebe 7a0c 35bc 1eba cfbd cfb0 9c3e
00000120: df60 e13d f6db 213d 1157 c93e 7fe2 8b3c
00000130: 782f b1be 04df ecbd 8450 7d3f 6319 5cbd
00000140: af25 a23e 1d83 ca3e f2a3 fc3d d107 fd3c
00000150: e7a5 443e afae e1be 7600 393e c7a9 383e
00000160: ba0f be3c a584 8c3b fc92 1e3e f0ff 58be
00000170: d9fe 103e 5e35 113e 5f8f dabd 6cd6 75be
00000180: aaef 0b3e dced b8be 78a2 013f 9386 a43a
00000190: bc8e 363d 81f8 883e 3d82 473e a376 9c3d
000001a0: 4a34 96bd 68ba 25bf 38ec a53f 61a5 ac3c
000001b0: 440c ad3e bcf9 c63e 779b 41be 1235 5d3d
000001c0: 63bb a6bf 715e 26be c57f 39be fc60 05be
000001d0: 9134 1bbe db2c 733e 04f5 7b3d b46b 2abf
000001e0: 845b 293f 174c cb3b b300 cb3d 1a69 6a3e
000001f0: 70b8 b03d 45c0 79be 6050 96bf c3d7 783f
00000200: 39d9 1bbe 0cc3 20be 0775 183e 00df 62be
00000210: e6cc e6bc 9176 9fbe 5ff1 8abd 8cf4 bc3e
00000220: 9054 713e efb9 b33e d69e ed3e 0dc8 283d
00000230: e527 4b3f 81da 823e 77c8 41be 28ad 973e
00000240: e7fc 8c3e 1642 953b efa8 263e ee94 bb3e
00000250: e8bf 0a3e d324 32be 8d88 d23d eec9 d8be
00000260: f071 12bd b65b 953d a2ff 8a3f f94c e93e
00000270: b275 543d 1a1a 2f3d c996 d5bb e6a0 ae3d
00000280: abff 1c3d 5334 16bf 8856 0f3f 16cd 643e
00000290: 419a 863e 2523 853e 42ea 63be d936 5cbe
000002a0: 46b1 89bf 2d5f ec3f 6287 a8be 0c48 6b3d
000002b0: cb78 3dbe f7a4 9f3e 50de 21be 9fa3 803e
000002c0: fae5 4ebf 1c3c 1b3e 95ff 5cbe e83b 90bd
000002d0: f98a 823d c5bb bcbe 17b1 4bbf 3fa9 0e3e
000002e0: e171 bbbd 5f94 c73d 648a 93be 8fb6 e2bd
000002f0: 93a5 22be 59d3 ac3d cc75 90be 42ef 613e
00000300: b0fa af3c c613 153f 157f a53e 0107 943e
00000310: f755 cdbe c9ae 783f 8574 243e ca9b 4d3e
00000320: 2043 f7bd e21e 1bbe 1570 31be ebf2 213d
00000330: 01bf b43f 5b13 d43d 8cf9 8e3d a0ad 903c
00000340: 912b 65bc 4e53 0d3e db16 503e af26 513c
00000350: 1a86 513e dff6 26bd 86fe 003e 8942 d73e
00000360: 8443 49be 4e63 4d3f f669 67bf 53cb b7be
00000370: 8ad2 593e 10e9 abbd 5a9c a0be 006b cbbe
00000380: 6f83 123e 0db3 a53e 83ad 7abe 7362 d8be
00000390: 5fb9 0ebe 5ab2 acbd 706d 163d 9cf2 b33e
000003a0: e908 da3d e030 5e3e 11d6 eebe d11c 23be
000003b0: 4720 a5be 49d8 e2bc e88b 04bf 664f f13e
000003c0: 0fdf 4c3e 5b44 46be 1fa5 b13e 796c f7bd
000003d0: 8349 453d e58e 723e fe05 dfbe 66d3 94be
000003e0: a7cc c53e 832d 04bd 946c 843d 36c5 0a3e
000003f0: a132 92be c1e5 4ebe ef0f 50be 5853 473e

critic.0.bias f4 [64]
-0.8376348 -0.1165845 0.34838453 0.075996816 0.46215835 -0.35883924 -0.31599432 -0.42144558
-0.4895003 -0.5258168 -0.4918745 -0.57773834 0.40684333 -0.078271925 -0.4303815 -0.594911
0.25265616 -1.3127599 -0.35851604 0.3214926 -0.40462613 0.47996068 -0.102866895 0.05830649
0.15697522 0.47921097 -0.13417077 0.4107013 -0.832962 0.0035350048 -0.29405278 -0.2500081
-0.3839319 -0.18212053 0.10715052 0.047579717 0.27962616 0.52254933 0.18246305 -0.01308031
-0.34376737 -0.29940438 -0.21646358 -0.06077221 0.5647671 -0.26886824 -0.33334732 0.16721211
-0.0134316245 0.13473396 0.054355714 0.0056425966 -0.10910676 -0.15889986 0.16871332 -0.2677058
-0.54358804 0.12367968 0.623061 0.17128776 0.6891445 -0.47361243 -0.21753201 -0.0649613
00000000: 3c6f 56bf dbc3 eebd 755f b23e 38a4 9b3d
00000010: 05a0 ec3e c7b9 b7be 02ca a1be b7c7 d7be
00000020: c99f fabe ee9b 06bf f9d6 fbbe a9e6 13bf
00000030: c54d d03e 084d a0bd f75a dcbe 164c 18bf
00000040: 265c 813e 8408 a8bf 6a8f b7be ae9a a43e
00000050: 282b cfbe 68bd f53e e1ab d2bd c9d2 6e3d
00000060: 1dbe 203e 245b f53e 1064 09be 7147 d23e
00000070: ff3c 55bf 8aab 673b 168e 96be 1001 80be
00000080: b992 c4be ce7d 3abe bb71 db3d f3e2 423d
00000090: 292b 8f3e cbc5 053f 98d7 3a3e cc4e 56bc
000000a0: 4702 b0be 884b 99be a1a8 5dbe 48ec 78bd
000000b0: 9494 103f 19a9 89be 80ac aabe a739 2b3e
000000c0: 5110 5cbc b3f7 093e 19a4 5e3d 88e5 b83b
000000d0: 5d73 dfbd a5b6 22be 2fc3 2c3e bc10 89be
000000e0: 9628 0bbf c64b fd3d ed80 1f3f 0f66 2f3e
000000f0: c66b 303f 547d f2be b6c0 5ebe 6e0a 85bd

critic.2.weight f4 [64, 64]
-0.18540978 0.23235942 -0.018104043 -0.32313195 -0.17977221 -0.11448636 0.11948426 -0.07688089
0.028691035 -0.12603332 -0.0018433538 0.019216996 -0.22798143 0.054507844 -0.12990943 0.04239603
-0.016386783 -0.08656626 0.048934586 0.006936075 -0.056169905 0.35983998 -0.08268203 0.07251198
0.011805395 0.10843148 0.017477205 -0.23660848 -0.12750953 0.06730703 -0.05403798 0.036919404
0.1843131 0.22223309 0.033576492 -0.06826816 -0.06551001 -0.11966296 0.031751927 -0.008114818
0.0471279 -0.34354976 -0.2639848 -0.0232468 0.28466472 -0.11755303 -0.13725027 -0.017691901
0.21758083 -0.052207798 0.025316436 0.114588745 -0.03787962 0.016533162 0.049926642 0.22042747
-0.09428658 0.13092102 -0.09266375 0.028109394 0.00040809548 -0.140508 0.121062614 0.051123198
0.34086666 0.0059124376 -0.18450937 0.024733694 0.1946906 0.037225857 -0.07523803 0.3259186
0.088073894 0.031506184 0.35367435 0.14102094 0.12755346 -0.15218039 0.0066004614 0.18303926
-0.309013 0.4754205 -0.018346943 0.04498197 0.015112657 -0.1754195 -0.1201124 0.21697246
-0.2261721 -0.044789206 -0.1041802 0.04065825 -0.04614646 0.06789309 0.04222132 -0.037333127
0.048036166 -0.21508436 -0.041652475 0.11628017 -0.024848847 -0.02018662 -0.18099096 -0.113342166
-0.031520855 0.17473522 0.072526224 0.013233702 0.2567998 0.0304633 0.15037353 0.14837985
-0.254745 -0.007056301 0.17080197 -0.14736433 -0.20583455 -0.18066454 -0.21728091 0.09257276
0.13976017 -0.07980446 -0.38153538 0.05336408 -0.14024091 0.13878287 0.14254959 0.09210744
0.099764526 0.045129802 -0.029480593 -0.09442759 0.08232155 0.046255127 -0.09049355 0.073964074
-0.20552139 0.026505614 -0.1732723 -0.04642387 0.018382711 -0.03836925 -0.02636428 -0.036509942
0.06113256 -0.08857742 0.10107581 -0.062395252 0.023509618 0.08361538 -0.24463879 -0.07741808
0.023551749 -0.10977032 0.09161055 -0.01823616 -0.06375021 -0.12932603 -0.17182083 0.10133431
-0.001197227 -0.004725013 -0.063421644 -0.12841254 0.006301483 -0.0017484503 0.008063493 -0.050110735
-0.065312825 -0.08999042 -0.02316693 -0.18143956 0.0360036 -0.13603921 -0.028095927 -0.018576017
0.07165757 -0.10717829 -0.014095269 0.09776378 0.0066812034 0.0942697 0.092916965 0.09463235
0.12763718 0.008026548 0.17703816 0.025602078 -0.062859125 -0.22727562 0.13572069 0.16984211
0.02606846 0.045684874 -0.10719846 -0.080387354 -0.09441715 -0.23502253 -0.053404108 -0.10685535
0.09779722 0.28341293 0.22662988 0.10210306 -0.094556905 -0.037981976 0.021622315 0.23341562
0.117277965 0.15896639 0.014169907 0.1245558 0.067740895 -0.26464203 -0.21796 0.16806036
0.46822062 0.057753704 -0.03111993 -0.027182614 0.35220867 0.21362759 0.04650731 -0.09221232
0.011417399 0.079361446 -0.0046668304 0.1624932 0.16313076 0.03068583 -0.13259183 -0.5724862
0.026001047 0.049160317 -0.39593834 -0.0068836743 -0.02559586 0.104296826 0.11834857 0.021262813
-0.071821816 -0.08529063 0.10486265 -0.18630256 -0.13518462 0.021840056 -0.13242449 0.17904875
-0.04424065 -0.14784247 -0.10778207 -0.022763023 -0.030983819 -0.027282605 0.297807 0.11800446
00000000: 10dc 3dbe a1ef 6d3e ee4e 94bc 8d71 a5be
00000010: 3516 38be d377 eabd 2ab4 f43d ba73 9dbd
00000020: 7609 eb3c e10e 01be b19c f1ba f66c 9d3c
00000030: f773 69be 9e43 5f3d fa06 05be 76a7 2d3d
00000040: 933d 86bc a749 b1bd a26f 483d 0448 e33b
00000050: 6a12 66bd f23c b83e 3255 a9bd 2981 943d
00000060: 6a6b 413c 5311 de3d 5b2c 8f3c 7e49 72be
00000070: dc91 02be 45d8 893d ee56 5dbd cd38 173d
00000080: 93bc 3c3e 1291 633e 8187 093d 2dd0 8bbd
00000090: 1d2a 86bd db11 f5bd 4f0e 023d 03f4 04bc
000000a0: 2f09 413d c1e5 afbe 0429 87be 1370 bebc
000000b0: 93bf 913e a5bf f0bd 568b 0cbe 9bee 90bc
000000c0: 82cd 5e3e d8d7 55bd 6a64 cf3c 81ad ea3d
000000d0: a927 1bbd 8e70 873c e17f 4c3d bdb7 613e
000000e0: 5319 c1bd 2910 063e 7ec6 bdbd ac45 e63c
000000f0: a6f5 d539 54e1 0fbe adef f73d 8f66 513d
00000100: 1386 ae3e 1fbd c13b 06f0 3cbe 519e ca3c
00000110: f95c 473e 247a 183d 6516 9abd cede a63e
00000120: 1660 b43d a10c 013d ce14 b53e cb67 103e
00000130: 609d 023e 2dd5 1bbe af48 d83b a56e 3b3e
00000140: f436 9ebe 516a f33e 544c 96bc 043f 383d
00000150: 149b 773c 2ba1 33be 7dfd f5bd 072e 5e3e
00000160: a999 67be e374 37bd 6e5c d5bd 4489 263d
00000170: 1204 3dbd 880b 8b3d 43f0 2c3d 9fea 18bd
00000180: 92c1 443d 133f 5cbe c99b 2abd 4c24 ee3d
00000190: cf8f cbbc 695e a5bc b255 39be f01f e8bd
000001a0: 031c 01bd caed 323e a188 943d 2bd2 583c
000001b0: 437b 833e 2c8e f93c 85fb 193e e3f0 173e
000001c0: f06d 82be 8b38 e7bb b6e6 2e3e ade6 16be
000001d0: 4bc6 52be 2000 39be e37e 5ebe ca96 bd3d
000001e0: 4a1d 0f3e 8570 a3bd 9b58 c3be 4b94 5a3d
000001f0: 509b 0fbe 191d 0e3e 85f8 113e d3a2 bc3d
00000200: 5851 cc3d 07da 383d 4981 f1bc 4163 c1bd
00000210: 3398 a83d 0476 3d3d af54 b9bd 7a7a 973d
00000220: 3374 52be 4d22 d93c 4b6e 31be f526 3ebd
00000230: 5797 963c 1329 1dbd e7f9 d7bc 738b 15bd
00000240: 2366 7a3d 1468 b5bd d600 cf3d 2a92 7fbd
00000250: 3e97 c03c 8a3e ab3d 9782 7abe 5f8d 9ebd
00000260: 99ef c03c 43cf e0bd 509e bb3d 0064 95bc
00000270: 788f 82bd 0b6e 04be cdf1 2fbe 5d88 cf3d
00000280: 46ec 9cba 48d4 9abb 35e3 81bd 947e 03be
00000290: ac7c ce3b 422c e5ba be1c 043c ea40 4dbd
000002a0: bbc2 85bd e64c b8bd 93c8 bdbc 4bcb 39be
000002b0: 8378 133d dd4d 0bbe 6e29 e6bc bb2c 98bc
000002c0: 34c1 923d 4b80 dbbd d8ef 66bc 6038 c83d
000002d0: ffed da3b 7910 c13d 404b be3d 9bce c13d
000002e0: 52b3 023e c881 033c 7e49 353e 73bb d13c
000002f0: 49bc 80bd f1ba 68be 5dfa 0a3e 17eb 2d3e
00000300: 868d d53c 1020 3b3d de8a dbbd 20a2 a4bd
00000310: c75d c1bd bfa9 70be 44be 5abd fad6 dabd
00000320: e949 c83d 801b 913e aa11 683e 691b d13d
00000330: 0da7 c1bd fd92 1bbd 4821 b13c 8104 6f3e
00000340: 6e2f f03d 16c8 223e e628 683c 1c17 ff3d
00000350: bdbb 8a3d 297f 87be e830 5fbe 0418 2c3e
00000360: 9dba ef3e 268f 6c3d 39ef febc 13ae debc
00000370: b254 b43e 31c1 5a3e 737e 3e3d d0d9 bcbd
00000380: 0b10 3b3c 4188 a23d 36ec 98bb 9e64 263e
00000390: c00b 273e da60 fb3c 27c6 07be 758e 12bf
000003a0: 2600 d53c 545c 493d 6eb8 cabe 7290 e1bb
000003b0: 69ae d1bc 9399 d53d bc60 f23d 5a2f ae3c
000003c0: 5117 93bd dbac aebd 3bc2 d63d 19c6 3ebe
000003d0: d66d 0abe ebe9 b23c 499a 07be 8e58 373e
000003e0: af35 35bd 0464 17be d9bc dcbd 8579 babc
000003f0: c7d1 fdbc c57f dfbc 297a 983e 53ac f13d

critic.2.bias f4 [64]
-0.08941768 0.15148416 -0.07783485 0.14386769 -0.12994742 0.03502264 -0.084939726 -0.15653196
0.023526736 -0.1253628 -0.077000245 -0.1375209 -0.01121094 -0.11177745 0.05286189 -0.14091395
-0.026759606 0.037788685 -0.12177325 0.043412905 -0.019703714 0.030747944 0.022634368 0.13483666
-0.0009968156 -0.112152904 -0.013542885 0.1120698 0.04077507 -0.059938356 -0.07173545 0.089480534
0.09929381 0.037673753 0.046719737 0.054294575 -0.047940757 0.07551143 -0.08062436 0.03371402
0.2079693 0.05864924 0.014306182 0.15657818 0.007595123 -0.049213123 0.1323358 -0.056938156
0.0124758305 -0.061251022 -0.08183709 0.09642074 -0.07048889 -0.06805178 0.21361734 -0.18708293
0.18103804 0.058159545 0.00070828776 -0.07344921 0.07582679 -0.08720731 -0.17227986 -0.07380343
00000000: 9e20 b7bd aa1e 1b3e e167 9fbd 0d52 133e
00000010: f010 05be e673 0f3d e1f4 adbd ea49 20be
00000020: 24bb c03c 1b5f 00be 4eb2 9dbd 47d2 0cbe
00000030: 17ae 37bc 93eb e4bd b685 583d bf4b 10be
00000040: f636 dbbc 4fc8 1a3d 4164 f9bd bbd1 313d
00000050: af69 a1bc 1de3 fb3c b66b b93c 9f12 0a3e
00000060: 95a7 82ba 6cb0 e5bd fae2 5dbc da84 e53d
00000070: c303 273d ec81 75bd 09ea 92bd 9241 b73d
00000080: 8e5a cb3d cb4f 1a3d 325d 3f3d fd63 5e3d
00000090: 875d 44bd bda5 9a3d 621e a5bd b617 0a3d
000000a0: e7f5 543e 2f3a 703d 7a64 6a3c 0856 203e
000000b0: 82e0 f83b b393 49bd 0983 073e fc37 69bd
000000c0: 6d67 4c3c 5ae2 7abd 349a a7bd 3d78 c53d
000000d0: 7b5c 90bd bb5e 8bbd 81be 5a3e ab92 3fbe
000000e0: 0962 393e b438 6e3d 63ac 393a 8a6c 96bd
000000f0: 134b 9b3d bf99 b2bd 226a 30be 4126 97bd

critic.4.weight f4 [1, 64]
-0.00018480132 -0.26734525 0.09164615 -0.2493276 -0.052735787 0.26651222 -0.12956971 0.33298486
-0.39159253 0.3073203 -0.25399858 0.29195252 -0.11772483 0.45981628 0.5824108 0.208023
-0.2938434 -0.6233898 -0.10386683 -0.021229472 0.06354394 -0.2755575 0.2596584 -0.36612493
-0.46800408 -0.26943234 -0.33889255 -0.168402 0.055298578 -0.059731938 -0.0682937 -0.35408187
-0.38274974 -0.29473618 -0.25984424 -0.60831875 0.13521452 -0.29824623 -0.037012555 -0.23547491
-0.17006686 0.15503965 -0.1614049 -0.22333725 0.2995439 -0.24999012 0.08789339 0.084764004
0.09595814 -0.07786658 0.24601996 -0.12878026 0.35923606 -0.08008135 -0.22654052 -0.06902199
-0.43101123 -0.26248085 -0.25804242 -0.0987551 -0.21636884 -0.19687226 0.3262395 0.027423756
00000000: 3ac7 41b9 7ae1 88be fab0 bb3d bc4f 7fbe
00000010: 7b01 58bd 4a74 883e ecad 04be fe7c aa3e
00000020: d17e c8be 1659 9d3e 1a0c 82be cd7a 953e
00000030: b719 f1bd 0a6d eb3e e018 153f fb03 553e
00000040: a472 96be 7996 1fbf 22b8 d4bd 6ee9 adbc
00000050: 5323 823d df15 8dbe f2f1 843e ba74 bbbe
00000060: 3b9e efbe 09f3 89be 5383 adbe 9371 2cbe
00000070: c380 623d 7aa9 74bd 91dd 8bbd 384a b5be
00000080: c6f7 c3be a9e7 96be 4e0a 85be c7ba 1bbf
00000090: ad75 0a3e bbb3 98be 7a9a 17bd 5620 71be
000000a0: 0226 2ebe b7c2 1e3e 5347 25be 85b2 64be
000000b0: d15d 993e 69fd 7fbe 7301 b43d c098 ad3d
000000c0: b485 c43d 8378 9fbd a8ec 7b3e f9de 03be
000000d0: caed b73e b101 a4bd 3dfa 67be 675b 8dbd
000000e0: 81ad dcbe e463 86be 231e 84be 1d40 cabd
000000f0: cb8f 5dbe e298 49be dd08 a73e c9a7 e03c
