mario_kart/runs/ppo_2025-03-27_20-08-02/ppo_2025-03-27_20-08-02.pth (torch, 42994 bytes, 11 tensors)

actor.0.weight f4 [64, 7]
0	0xbe9519f3	-0.2912136
1	0x3e9916bd	0.2990016
2	0xbe1b3688	-0.15157521
3	0x3e452e2e	0.19255897
4	0x3d04e389	0.032443557
5	0x3e03de9a	0.12877885
6	0xbeaeb3bb	-0.34121498
7	0xbf19b299	-0.60038143
8	0xbd06a8bd	-0.032875765
9	0x3e88016b	0.26563582
10	0x3e48b1ea	0.19599119
11	0x3c3c7dec	0.0115046315
12	0xbd51e679	-0.051245186
13	0xbe20f11e	-0.15716979
14	0xbe9157e7	-0.28387377
15	0x3e4d852b	0.20070331
16	0xbe6a9192	-0.22907093
17	0x3e3fb947	0.18723021
18	0xbbbdde33	-0.0057943105
19	0xbe157c6c	-0.14598244
20	0x3ed2ad33	0.41147766
21	0x3e980025	0.2968761
22	0xbe5d6d84	-0.21623808
23	0x3ecc9b94	0.39962447
24	0xbea51405	-0.32241836
25	0xbeaac608	-0.3335421
26	0x3e99bb0c	0.30025518
27	0x3ce9c020	0.028533995
28	0x3e8d56cc	0.27605283
29	0x3e49aa82	0.1969395
30	0xbe761ef5	-0.24035247
31	0xbe468461	-0.19386436
32	0xbe817d55	-0.25290933
33	0xbe98ca3c	-0.29841793
34	0x3ec544d5	0.38529077
35	0x3ee830c1	0.45349696
36	0x3ef11b84	0.47091305
37	0x3e3fc191	0.18726183
38	0xbdc74b80	-0.09731197
39	0xbdfa382a	-0.12217744
40	0x3ce0b699	0.02743082
41	0x3e3163aa	0.17323175
42	0x3d4b7165	0.04966869
43	0xbf145512	-0.57942307
44	0xbe12f7c5	-0.14352329
45	0xbe9c35c2	-0.30509764
46	0xbe155e77	-0.14586817
47	0x3eadcca9	0.33945206
48	0x3eb3a82e	0.35089248
49	0x3ec33eef	0.38133952
50	0x3e806f1b	0.25084767
51	0x3e859ac4	0.2609464
52	0x3e6842f5	0.22681792
53	0xbdc84be6	-0.097801015
54	0xbed74513	-0.42044887
55	0xbe878c82	-0.26474386
56	0xbde6c3c9	-0.11267812
57	0x3e3844c7	0.17994986
58	0x3e5ed2d8	0.21760118
59	0x3e568413	0.2094882
60	0x3e4cdd72	0.2000635
61	0x3e7fd4f6	0.24983582
62	0xbe534c80	-0.20634651
63	0x3e085fed	0.13317843
64	0xbd858a17	-0.06520479
65	0x3ee734d9	0.45157507
66	0x3eb5022f	0.35353228
67	0x3e76c359	0.24097957
68	0xbd8c5d58	-0.068537414
69	0xbd62b4bf	-0.055348154
70	0x3eac3fb8	0.33642364
71	0xbd8ff72a	-0.07029565
72	0x3e063612	0.13106564
73	0xbd4ee979	-0.050515626
74	0x3e33bda8	0.17552817
75	0xbe9606d9	-0.293021
76	0xbe482d3d	-0.19548507
77	0xbe0b6398	-0.13612211
78	0xbdd98680	-0.10621357
79	0x3ebf7764	0.37395775
80	0x3ea23d6e	0.31687492
81	0x3e8544b9	0.26028994
82	0x3eab6017	0.33471748
83	0x3e0cf229	0.13764252
84	0xbe72f4fd	-0.23726268
85	0xbe2538e8	-0.1613499
86	0xbe2b8ea8	-0.16753638
87	0x3ea5263d	0.32255736
88	0xbba254bc	-0.004953949
89	0xbe3bd587	-0.18343173
90	0x3ebad7b1	0.36492684
91	0x3d550146	0.052003168
92	0xbf84e846	-1.0383384
93	0xbe76e402	-0.24110416
94	0x3e90cf18	0.28283
95	0xbd69c4b0	-0.05707234
96	0xbe102d99	-0.14079894
97	0xbe5fc357	-0.2185186
98	0x3ed7f130	0.421762
99	0xbefc3cc0	-0.492651
100	0x3d83d611	0.06437314
101	0x3d9b7f5c	0.07592651
102	0x3df6b330	0.12045896
103	0xbe9ba33a	-0.3039797
104	0xbdecad9a	-0.11556549
105	0x3e155cb3	0.14586143
106	0x3e060fb2	0.13091925
107	0x3df6476c	0.120253414
108	0xbe50d7eb	-0.20394866
109	0x3e3bd841	0.18344213
110	0xbe2288e3	-0.1587253
111	0xbe4317f4	-0.19052106
112	0x3dbf040a	0.09326942
113	0x3e533fee	0.20629856
114	0xbdf0b675	-0.11753551
115	0xbe81f45b	-0.2538174
116	0x3e2a9639	0.16658868
117	0x3dbdc222	0.092655435
118	0x3ddc3100	0.107515335
119	0xbe9535bf	-0.29142568
120	0xbe28a413	-0.1646884
121	0xbe3792f8	-0.17927158
122	0x3eb3f25c	0.35145843
123	0x3ec47ccf	0.3837647
124	0xbe6b1541	-0.22957326
125	0x3eb8fc42	0.36129957
126	0x3dcb1c55	0.09917513
127	0x3e9b34df	0.30313775
128	0xbe348beb	-0.176315
129	0x3e37e342	0.17957786
130	0x3ee02b3e	0.4378299
131	0x3ed69331	0.41909173
132	0x3e0a93e3	0.13532977
133	0x3cd86715	0.02641634
134	0x3df770c5	0.12082056
135	0x3e0cd26f	0.13752149
136	0x3ed382b4	0.41310656
137	0x3e892dd7	0.26792786
138	0xbc4731f4	-0.012157906
139	0xbe08ef1e	-0.13372466
140	0xbeca8bc0	-0.39559746
141	0x3f00394e	0.5008744
142	0xbe9f4138	-0.31104445
143	0xbe4757d1	-0.19467093
144	0x3e9ae852	0.3025537
145	0x3e9c184c	0.30487287
146	0x3e84f630	0.25969076
147	0xbd843eab	-0.064572655
148	0x3ddad225	0.10684613
149	0xbdd7fcf9	-0.105462976
150	0x3d96c6ab	0.07362112
151	0xbe1ce74d	-0.15322609
152	0x3df21890	0.11821091
153	0x3e20592a	0.15659013
154	0x3d8f4a8d	0.06996641
155	0x3d7b4f05	0.061354656
156	0x3df053b3	0.11734714
157	0xbc8d6ad6	-0.017262857
158	0x3d1a99c4	0.0377443
159	0xbe1473bb	-0.14497273
160	0x3e8487d5	0.25884882
161	0x3e83e9ed	0.2576441
162	0xbd1fb0be	-0.038986914
163	0xbe48d4eb	-0.19612472
164	0xbeb7f28c	-0.35927236
165	0x3e5f9202	0.21833041
166	0xbe3c9561	-0.18416359
167	0xbcbf8b10	-0.02338174
168	0xbe963dfd	-0.29344168
169	0x3e7d27b1	0.24722172
170	0xbe9d2eb7	-0.30699703
171	0x3e8299c5	0.25507942
172	0x3e1123ac	0.14173764
173	0xbd126c7c	-0.03574799
174	0xbe82d85d	-0.25555697
175	0xbe8c0154	-0.27344763
176	0xbe5a7305	-0.21332939
177	0xbe8d996d	-0.27656117
178	0x3e818880	0.25299454
179	0xbcdc788e	-0.026912954
180	0xbe1b9784	-0.15194517
181	0xbe73e170	-0.23816466
182	0x3dc52882	0.09626867
183	0xbea98900	-0.33112335
184	0x39ce38df	0.00039333754
185	0x3eb496e7	0.3527138
186	0xbeb373a8	-0.35049176
187	0xbd553abd	-0.05205797
188	0x3c439909	0.011938342
189	0xbe7dcd22	-0.24785283
190	0xbe177126	-0.14789256
191	0xbeab568e	-0.33464473
192	0xbe152eeb	-0.14568679
193	0x3dfe1511	0.12406362
194	0x3e8d9465	0.2765228
195	0x3ecb82a8	0.3974812
196	0xbe3addf9	-0.18248738
197	0x3d8eef1c	0.069792
198	0x3e968b73	0.29403266
199	0xbe70a8fb	-0.23501961
200	0x3eb5d01e	0.35510343
201	0x3e68bc88	0.22728169
202	0x3e1c4a44	0.15262705
203	0xbe48288c	-0.19546717
204	0x3e9de609	0.30839565
205	0x3c9543ce	0.018220808
206	0xbe7b44e5	-0.24538
207	0x3eccc8aa	0.39996845
208	0x3e949e88	0.290272
209	0x3c142abe	0.009043394
210	0x3e1547c7	0.14578162
211	0x3e970a49	0.29500034
212	0x3e57e794	0.21084434
213	0xbe495261	-0.19660331
214	0xbec1642b	-0.37771735
215	0x3e73f70a	0.23824707
216	0x3ec3ae10	0.38218737
217	0xbec7564c	-0.38933027
218	0xbebc2f27	-0.36754724
219	0xbebf9f8d	-0.37426415
220	0xbdd35f97	-0.10320967
221	0x3e68bcde	0.22728297
222	0xbc94a128	-0.018143252
223	0x3eaf95b8	0.34293914
224	0x3e3e73af	0.18598817
225	0xbdc840d9	-0.09777994
226	0xbe3dff8a	-0.18554512
227	0x3dd8ec92	0.10591997
228	0x3e51426a	0.20435491
229	0x3dd790f4	0.105256945
230	0x3eb44768	0.3521073
231	0xbbd91f29	-0.006626029
232	0x3e014e3d	0.12627502
233	0x3e94658f	0.28983733
234	0xbd85b49b	-0.065285884
235	0xbd9036fc	-0.070417374
236	0xbda69ec7	-0.08135753
237	0xbdf27227	-0.11838179
238	0x3e64c08e	0.22339079
239	0xbeb3b29f	-0.35097215
240	0xbeaf46fc	-0.34233844
241	0xbeb5f0d9	-0.35535315
242	0xbde11d4f	-0.10991918
243	0x3e8d805f	0.27637002
244	0x3e80a159	0.25123098
245	0x3e3eee5d	0.18645616
246	0xbeb73257	-0.35780594
247	0x3ecb67e2	0.39727694
248	0xbd30955f	-0.0431112
249	0xbe92b73f	-0.2865543
250	0xbec8530d	-0.39125863
251	0xbee03510	-0.43790483
252	0x3ea48be2	0.32137972
253	0x3dba9db4	0.09112111
254	0xbed64aa5	-0.41853824
255	0xbd46a0b0	-0.048493087

actor.0.bias f4 [64]
0	0xbe55609f	-0.2083764
1	0xbee0c27b	-0.43898377
2	0x3d42e501	0.047581676
3	0x3e0115fa	0.1260604
4	0xbda1203f	-0.078674786
5	0x3ea766d9	0.32695654
6	0x3e91a0ba	0.28442937
7	0x3ea54d9d	0.32285777
8	0x3d516afa	0.05112741
9	0x3e29279c	0.16519016
10	0xbd0b5375	-0.034015138
11	0xbe7459ae	-0.23862335
12	0x3cf9f1e4	0.03051085
13	0x3e916770	0.2839923
14	0x3bfdb883	0.007742943
15	0xbde4a8ee	-0.11165033
16	0xbe2823b4	-0.1641987
17	0x3e002c5e	0.12516925
18	0x3e3c9f9c	0.18420261
19	0x3e00be5b	0.12572615
20	0xbeb4f6cc	-0.3534454
21	0x3e425b54	0.18980151
22	0x3e110450	0.14161801
23	0x3ebc9f71	0.36840394
24	0xbe730b75	-0.2373484
25	0x3dc9b6f8	0.09849352
26	0xbd03d0e5	-0.03218164
27	0x3ea5933c	0.32338893
28	0x3c9c8b23	0.019109314
29	0xbc40981c	-0.011755016
30	0x3d56ccaa	0.052441277
31	0xbeb3db5a	-0.3512829
32	0xbe24293f	-0.16031359
33	0xbe922d27	-0.28550074
34	0x3d4871b2	0.048936553
35	0x3e937e7b	0.28807434
36	0x3e4233f7	0.18965136
37	0x3e6c69f9	0.230873
38	0xbd8116e5	-0.06303195
39	0xbc09137c	-0.008366462
40	0xbda0cb0e	-0.078512296
41	0x3e0ec463	0.13942103
42	0x3ea61b21	0.32442573
43	0x3e71e4bc	0.23622411
44	0xbea8e1b3	-0.32984695
45	0x3ebcc07d	0.36865607
46	0xbd65150e	-0.055928282
47	0xbe33ce71	-0.1755922
48	0xbdbc21d9	-0.091861434
49	0x3eac684a	0.33673316
50	0xbe909fdf	-0.28246972
51	0xbe4f71ca	-0.20258251
52	0x3cce6d56	0.02519862
53	0xbe0d6832	-0.13809279
54	0x3e2f17ab	0.17098872
55	0xbeb4f4b6	-0.3534295
56	0x3e00519f	0.12531136
57	0xbca9ae02	-0.020712856
58	0xbd8c3af7	-0.06847184
59	0x3e85dcb2	0.2614494
60	0xbe2be9a0	-0.1678834
61	0x3e8e2d48	0.27768922
62	0x3eabf6c8	0.33586717
63	0xbcd292ed	-0.025704825

actor.2.weight f4 [64, 64]
0	0x3d833d26	0.064081475
1	0x3a8e478f	0.0010855066
2	0xbc9d2631	-0.01918325
3	0x3cac56ce	0.021037485
4	0xbdab6282	-0.08368398
5	0x3e202464	0.15638882
6	0x3d59a209	0.053133044
7	0xbc4ca11d	-0.012489584
8	0x3c922d22	0.017843787
9	0x3dea52f6	0.11441605
10	0x3de9da9b	0.11418649
11	0x3c7a44bc	0.015275177
12	0xbde63192	-0.112399235
13	0x3db49271	0.08816994
14	0x3e3379d1	0.17526938
15	0x3cb4a407	0.02205087
16	0x3d8938b8	0.06700271
17	0xbda54052	-0.08068909
18	0x3d1eedf9	0.038801167
19	0xbbc5fbc7	-0.006041977
20	0x3c8c5c4d	0.017133856
21	0x3d6be47f	0.057590958
22	0x3dc38563	0.09546926
23	0x3df5dcfc	0.1200504
24	0xbd1cd6f3	-0.03829093
25	0xbdc7cc6e	-0.09755789
26	0xbbe219c8	-0.006900046
27	0x3d16a2ba	0.036776282
28	0x3d4e9551	0.050435368
29	0x3d916014	0.070984036
30	0xbdcb94f9	-0.09940524
31	0xbdd5faef	-0.104482524
32	0xbc37c864	-0.01121721
33	0xbc4575b5	-0.012051989
34	0xb94a620a	-0.00019300744
35	0xbdb20d54	-0.086939484
36	0xbd5f0720	-0.054450154
37	0x3d4b8d93	0.049695563
38	0x3d568859	0.052376125
39	0x3d655a60	0.05599439
40	0x3d3636d9	0.0444859
41	0xbc12762b	-0.008939306
42	0x3ddec899	0.10878105
43	0xbe069031	-0.13140942
44	0xbd7dae7d	-0.061933983
45	0xbdb74b5f	-0.08949923
46	0x3df3ef11	0.11910833
47	0xbd31660a	-0.043310203
48	0xbda813fd	-0.082069375
49	0xbda54a3b	-0.08070799
50	0xbd8c3d7d	-0.068476655
51	0xbdb5f012	-0.088836804
52	0xbd8515ca	-0.064982966
53	0xbe461709	-0.19344725
54	0xbd29d960	-0.04146707
55	0x3de45e6a	0.111508206
56	0x3da4883f	0.080337994
57	0x3dd2be6b	0.102902256
58	0xbce9f72f	-0.02856025
59	0xbd8e7557	-0.069559745
60	0x3dc86896	0.09785573
61	0xbdb2829b	-0.08716317
62	0x3de820e5	0.11334399
63	0xbcf64822	-0.030063692
64	0xbe4785a0	-0.19484568
65	0xbd91610c	-0.07098588
66	0x3dcaaed6	0.098966286
67	0x3d930935	0.071794905
68	0x3dc3c666	0.09559326
69	0xbd3bd9c0	-0.04586196
70	0x3dc036bd	0.093854405
71	0x3b22719b	0.0024786952
72	0xbd9a5f18	-0.07537669
73	0x3d5e2da2	0.054242738
74	0x3daedaac	0.08537802
75	0x3dcecfe0	0.10098243
76	0xb9aee9bc	-0.00033362012
77	0xbb217a3e	-0.0024639512
78	0x3d7eab63	0.062175166
79	0xbcf429e7	-0.029805137
80	0xbb4812e0	-0.0030528829
81	0xbc2af9b1	-0.010435508
82	0x3ce11790	0.027477056
83	0xbdd50221	-0.10400797
84	0x3d1874e8	0.037220865
85	0x3d7bb7cb	0.061454576
86	0xbbf746ad	-0.007546267
87	0xbd7ec8b8	-0.06220314
88	0x3af42306	0.001862616
89	0x3d4e6fc1	0.050399546
90	0x3d98589d	0.07438777
91	0xbdaf5602	-0.085613266
92	0xbe04ebe8	-0.12980616
93	0x3d2209a0	0.03955996
94	0x3cd01b3f	0.025403617
95	0xbd8e256d	-0.06940732
96	0x3c14b97e	0.009077428
97	0xbde59bc4	-0.112113506
98	0x3db7e283	0.089787506
99	0xbe179feb	-0.14807098
100	0xbd995043	-0.07486012
101	0x3d8130d7	0.063081436
102	0xbc9c8201	-0.01910496
103	0x3e0d90d5	0.1382478
104	0xbc9e0767	-0.01929064
105	0x3d8fd0d6	0.07022254
106	0xbbfcc4e9	-0.007713903
107	0x3e0468ad	0.12930556
108	0xbd304d38	-0.04304239
109	0x3db10d45	0.08645109
110	0xbc2fa03c	-0.010719355
111	0x3dc70d16	0.09719293
112	0xb93486f1	-0.00017216407
113	0x3e0bf50b	0.13667695
114	0xbd5dfd3d	-0.054196585
115	0x3dcb79a2	0.09935309
116	0x3d3fadc1	0.046796564
117	0x3d785386	0.06062653
118	0x3d81abdd	0.063316084
119	0x3e0611ee	0.13092777
120	0xbd7b28bd	-0.061318148
121	0xbdabe9c2	-0.08394195
122	0xbc80d79b	-0.015727809
123	0x3d648742	0.055793054
124	0x3b3f5921	0.0029197412
125	0x3d0a3508	0.03374198
126	0xbd86185a	-0.065476134
127	0x3de1a626	0.110180184
128	0x3dad995c	0.084765166
129	0xbd93c7b8	-0.07215828
130	0x3e093e4f	0.13402675
131	0xbdc0a566	-0.09406547
132	0xbda2d742	-0.079512134
133	0xbd46a361	-0.048495654
134	0x3d6f2463	0.05838431
135	0x3dfbf7f4	0.12303153
136	0x3ddc42ef	0.10754954
137	0xbdcd7f11	-0.100340016
138	0x3d81ae1c	0.06332037
139	0x3daedaf7	0.08537858
140	0x3cf85c1a	0.030317355
141	0xbdb866ce	-0.090039834
142	0x3bb11fe7	0.0054054144
143	0xbc525944	-0.012838665
144	0x3e506a30	0.20353007
145	0xbdd8a009	-0.10577399
146	0x3e032cc4	0.12810045
147	0xbda60e86	-0.08108239
148	0x3cb8df93	0.022567546
149	0xbd902a7f	-0.070393555
150	0xbdfbbcf7	-0.122919016
151	0xbda2e78e	-0.07954322
152	0x3d198242	0.03747774
153	0x3df499a0	0.11943364
154	0x3d2521b8	0.04031536
155	0x3cf5a2b1	0.029984804
156	0xbda071fb	-0.0783424
157	0xbe159a1c	-0.1460957
158	0x3dbf37a8	0.093367875
159	0x3d18f8af	0.03734654
160	0x3d4055fb	0.046956997
161	0x3db50907	0.088396125
162	0xbe055d0f	-0.1302378
163	0x3de5e789	0.112258025
164	0x3d1de051	0.038544003
165	0xbe146fdf	-0.144958
166	0x3d6987d9	0.05701432
167	0xbd68c911	-0.056832377
168	0x3d8d299b	0.06892701
169	0xbdd15bdc	-0.10222599
170	0xbcf6425e	-0.030060943
171	0xbdad8757	-0.0847308
172	0x3d69d4e5	0.057087798
173	0x3d9b88fa	0.075944856
174	0xbd372670	-0.04471439
175	0x3d12c88f	0.0358358
176	0xbdd315c3	-0.10306885
177	0xbdfdabc0	-0.12386274
178	0x3d0b69da	0.034036495
179	0xbda3ddb2	-0.080012694
180	0x3dee312e	0.11630474
181	0x3d3e8656	0.04651483
182	0x3d6bc7df	0.05756366
183	0xbe3c21ea	-0.18372312
184	0xbd79f3da	-0.06102357
185	0x3dc215af	0.09476792
186	0x3dacaab2	0.08430995
187	0xbcbc1674	-0.022959925
188	0x3d0c49cd	0.03425007
189	0x3dc1fe3f	0.09472322
190	0x3cfba677	0.030719025
191	0xbe07685b	-0.13223402
192	0x3c82cab3	0.015965795
193	0xbcc154a9	-0.02359994
194	0xbc9f0403	-0.019411093
195	0x3d80e16f	0.06292998
196	0x3de0d8c2	0.10978843
197	0x3e5f979f	0.21835183
198	0x3e1676bc	0.14693731
199	0x3e2a0d1c	0.16606563
200	0xb7e06703	-2.675085e-05
201	0xba908097	-0.0011024651
202	0xbcbaaa6d	-0.022786343
203	0x3cd1e7d1	0.025623234
204	0x3dc71745	0.09721235
205	0xbdad1087	-0.08450418
206	0x3dc1f2ba	0.094701245
207	0xbd93098e	-0.07179557
208	0x3d0c7dbc	0.034299597
209	0x3d541c82	0.051785
210	0x3cb5db65	0.022199342
211	0x3d3d9f81	0.046294693
212	0xbe2220d8	-0.15832841
213	0x3cfcf04c	0.030876301
214	0x3ca09a39	0.01960479
215	0x3c2f6619	0.010705494
216	0x3d9b40cb	0.07580718
217	0x3dc8bedc	0.098020285
218	0xbd8d6ccf	-0.06905519
219	0xbd8f3fe8	-0.06994611
220	0x3db5659b	0.0885727
221	0x3d8c8905	0.06862072
222	0xbe1caaaf	-0.15299486
223	0xbdd90d7f	-0.10598277
224	0x3de74727	0.11292868
225	0xbde41023	-0.1113589
226	0x3e471619	0.19442023
227	0x3d2eed56	0.04270681
228	0x3cde3305	0.027123937
229	0x3e024004	0.12719733
230	0xbd2c016a	-0.041993536
231	0x3da0b5d6	0.078471825
232	0xbbca22a2	-0.0061686793
233	0xbcdfb233	-0.027306652
234	0x3a953d91	0.0011386146
235	0xbd44bca0	-0.04803145
236	0xbd437ca2	-0.04772628
237	0xbc556893	-0.013025421
238	0xbcceaeed	-0.025229895
239	0xbe08da48	-0.13364518
240	0xbddec48f	-0.10877334
241	0x3dc8cec1	0.0980506
242	0x3dc23ff0	0.09484851
243	0xbe27c693	-0.16384344
244	0x3dafe1f7	0.08588021
245	0xbe64b8d1	-0.22336127
246	0xbdf9cbe5	-0.12197093
247	0x3d986e41	0.07442904
248	0x3db59b08	0.088674605
249	0x3dcc794e	0.099840745
250	0xbe0bbd5d	-0.13646455
251	0x3cf5aab9	0.029988633
252	0x3d4134c0	0.047169447
253	0x3d7b6ec5	0.061384935
254	0x3e0dfd64	0.13866192
255	0x3d8e9fb7	0.06964057

actor.2.bias f4 [64]
0	0x3cfd9064	0.03095264
1	0xbb26ce1d	-0.0025452443
2	0xbd454522	-0.048161633
3	0x3ce21efb	0.027602663
4	0xbdbe9a99	-0.09306831
5	0x3ddc92cd	0.107701875
6	0x3dd4f9b9	0.10399193
7	0xbdbceb97	-0.09224623
8	0xbd78c2a5	-0.060732502
9	0xbd8c591e	-0.06852935
10	0xbd44e03e	-0.048065417
11	0xbdc48f53	-0.095976494
12	0x3ddc1136	0.1074547
13	0x3d0561d0	0.032563984
14	0x3d9a929b	0.07547494
15	0x3d32e993	0.043679785
16	0x3c3fd8d7	0.0117094135
17	0x3df7ab38	0.12093204
18	0xbe040c00	-0.12895203
19	0xbd73ecda	-0.05955205
20	0xbda7ab04	-0.081869155
21	0xbb5e38c6	-0.0033908351
22	0xbcdd979e	-0.027049836
23	0xbd69f441	-0.057117704
24	0xbd8b2be6	-0.06795482
25	0x3c937a1d	0.018002564
26	0xbd9e91a1	-0.0774262
27	0x3ccc11e4	0.024910875
28	0xbdb3a16d	-0.08771024
29	0x3d998f3e	0.074980244
30	0xbcd78ab8	-0.026311263
31	0x3da646af	0.081189506
32	0x3d18bd16	0.0372897
33	0x3c891f84	0.01673866
34	0x3d219612	0.03944976
35	0xbdb15853	-0.08659425
36	0xbdc8134e	-0.09769307
37	0x3dcde616	0.10053651
38	0x3ddacf6d	0.106840946
39	0x3be97a35	0.007125164
40	0x3d2a2b23	0.041545045
41	0x3da18459	0.078865714
42	0x3c82212b	0.015884956
43	0xbde56369	-0.112006016
44	0xbded7802	-0.11595155
45	0xbda7bc0c	-0.08190164
46	0x3de949cf	0.11391031
47	0xbdd6c431	-0.10486639
48	0xbbd907af	-0.0066232304
49	0xbd4c7ac2	-0.04992176
50	0x3d8759ee	0.066089496
51	0x3d9f10dc	0.077668875
52	0xbdc7bc89	-0.09752757
53	0xbc84ce70	-0.016211718
54	0xbde702da	-0.11279841
55	0x3bcb33ef	0.0062012593
56	0xbd818d95	-0.06325833
57	0x3da680de	0.08130048
58	0xbe0980d1	-0.13428046
59	0x3d434ae1	0.047678832
60	0xbd0e4647	-0.03473499
61	0x3cc7cc7e	0.024389502
62	0x3d0a13ab	0.033710163
63	0xbd98106d	-0.07425008

actor.4.weight f4 [2, 64]
0	0xbdd86bbe	-0.10567425
1	0xbe1ce5b6	-0.15322003
2	0x3e9278c7	0.2860777
3	0xbe90eef8	-0.2830732
4	0x3e53c49e	0.20680472
5	0xbd10f4d1	-0.035389725
6	0xbd15ff51	-0.03662044
7	0x3de5edc8	0.11226994
8	0x3de561f4	0.11200324
9	0x3da2fb18	0.079580486
10	0x3cbad722	0.022807661
11	0x3e04a94a	0.12955204
12	0x3debb34b	0.11508807
13	0xbc67df2c	-0.014152329
14	0x3e03634b	0.12830846
15	0xbd84a07f	-0.06475925
16	0x3e466bb7	0.19377027
17	0xbe8b0c9e	-0.27158064
18	0x3e0eb94b	0.13937871
19	0x3e3681e8	0.17822993
20	0xbe1bbc25	-0.1520849
21	0xbd64ea77	-0.055887666
22	0x3e53a9bd	0.20670219
23	0x3ddaef87	0.106902175
24	0x3d99e7fd	0.075149514
25	0x3dc36033	0.09539833
26	0xbe893632	-0.2679916
27	0xbe847734	-0.25872195
28	0xbe47f83e	-0.1952829
29	0x3e701e57	0.23449074
30	0xbd1d6114	-0.03842266
31	0x3e570721	0.20998813
32	0x3e30fabb	0.17283146
33	0x3e9bba74	0.3041569
34	0x3e41374e	0.18868753
35	0xbd57a63e	-0.052648775
36	0xbe62033e	-0.2207155
37	0xbd94470d	-0.07240114
38	0xbe0d40b5	-0.13794215
39	0x3e161dac	0.14659756
40	0xbe2a6550	-0.1664021
41	0x3d37fe1f	0.044920083
42	0xbcebbfa0	-0.028777897
43	0x3e017a47	0.12644301
44	0x3e9786e8	0.29595113
45	0x3e413633	0.18868332
46	0xbe01745a	-0.12642041
47	0xbd10ab99	-0.0353199
48	0x3d6b72d8	0.05748257
49	0xbe2b90c4	-0.16754442
50	0xbe4a56e0	-0.19759703
51	0x3ccf72db	0.025323322
52	0xbcb6ddbc	-0.022322528
53	0x3e38f599	0.18062438
54	0x3e8f3d14	0.27976286
55	0x3d557215	0.05211075
56	0x3d027eee	0.03185933
57	0x3d9d6e9a	0.07687111
58	0xbe44e3dc	-0.19227546
59	0x3ebd4a66	0.36970824
60	0xbe4a5f02	-0.19762805
61	0xbd721997	-0.059106436
62	0xbdcf6d0c	-0.10128221
63	0x3e0333c3	0.12812714
64	0xbe16055d	-0.14650483
65	0x3d4913ec	0.049091265
66	0xbe281b44	-0.16416651
67	0xbe93f5e7	-0.28898546
68	0xbe2479bd	-0.16062064
69	0xbe68a399	-0.22718658
70	0xbeaf301e	-0.34216398
71	0x3d30eae5	0.043192763
72	0xbeb60fa6	-0.35558814
73	0xbd944a5c	-0.072407454
74	0x3e18495f	0.14871739
75	0xbdad1bef	-0.084525935
76	0x3e091843	0.13388161
77	0xbd5ffdc4	-0.05468537
78	0xbe1f5782	-0.15560725
79	0x3c40e2a4	0.011772785
80	0x3e16cc24	0.14726311
81	0x3e92ba64	0.2865783
82	0xbda160db	-0.07879802
83	0xbd992587	-0.07477861
84	0xbde53229	-0.11191208
85	0x3c9fe2fc	0.019517414
86	0x3d7617a7	0.06008115
87	0xbe77a7db	-0.24185126
88	0x3e4e12ff	0.20124434
89	0xbe6423b1	-0.2227924
90	0x3e09242c	0.13392705
91	0x3c476352	0.012169676
92	0xbeef7873	-0.46771583
93	0x3cda604a	0.026657242
94	0x3e3d0746	0.18459806
95	0x3db91e1a	0.090389445
96	0xbe6a5e4c	-0.22887534
97	0x3e150e57	0.14556251
98	0xbe9c3ca9	-0.3051503
99	0xbe4d9081	-0.20074655
100	0xbe30987f	-0.17245673
101	0xbe49aea2	-0.19695523
102	0x3d90bee9	0.07067663
103	0xbe1f9e5e	-0.15587756
104	0x3d8c482a	0.06849702
105	0xbdcafc8c	-0.09911451
106	0xbd877f3c	-0.06616065
107	0x3e168981	0.14700891
108	0xbdf53160	-0.11972308
109	0x3dbe276d	0.092848636
110	0x3c767caf	0.015044375
111	0x3e80dbde	0.25167745
112	0xbedac135	-0.4272553
113	0x3d8b4ddc	0.0680196
114	0xbc372687	-0.011178619
115	0xbd62743e	-0.05528664
116	0xbe4b084b	-0.19827382
117	0x3e738fd4	0.23785335
118	0xbe18b0dc	-0.14911216
119	0xbdddf888	-0.10838419
120	0x3e86f3b8	0.26357818
121	0xbe375079	-0.17901792
122	0x3da3a980	0.07991314
123	0x3deb8f6a	0.115019634
124	0xbd544fb5	-0.051833827
125	0xbe631c10	-0.22178674
126	0x3e688601	0.22707368
127	0xbde4c592	-0.11170496

actor.4.bias f4 [2]
0	0x3d5082ba	0.05090592
1	0xbcc55cdc	-0.02409213

critic.0.weight f4 [64, 7]
0	0x3f4d48e9	0.8018938
1	0xbeea0fd5	-0.45715204
2	0xbdbb50d5	-0.09146277
3	0x3e1b21c7	0.15149604
4	0xbd30b3c0	-0.043140173
5	0x3cccdb72	0.025006983
6	0xbda3f62c	-0.08005938
7	0x3e63c583	0.22243313
8	0x402b24cb	2.6741207
9	0x3ea3c320	0.31984806
10	0x3d9e80cc	0.0773941
11	0xbe9ecb50	-0.3101449
12	0xbc5cd150	-0.013477638
13	0x3eb90ab4	0.36140978
14	0xbea84bb8	-0.3287027
15	0xc043fef8	-3.062437
16	0x3dfa4c46	0.12221579
17	0xbe0d1c99	-0.1378044
18	0x3cf6e5f1	0.030138941
19	0xbe094ffd	-0.1340942
20	0x3ea8a506	0.32938403
21	0x3eecf386	0.46279544
22	0xbd7c237a	-0.06155727
23	0x3e802f6a	0.25036174
24	0xbe92404b	-0.28564677
25	0x3e7eb10e	0.24872229
26	0xbe441bbf	-0.1915121
27	0x3eb583cc	0.35452116
28	0xbf0b9339	-0.5452152
29	0xbff20b2d	-1.890966
30	0x3ddb3bed	0.10704789
31	0x3ce117a4	0.027477093
32	0xbdec076f	-0.11524855
33	0x3e973630	0.2953353
34	0xbe82fda4	-0.25584137
35	0xbe233cfc	-0.15941232
36	0x3ce1c0c7	0.027557744
37	0x3e4bff56	0.19921622
38	0xbed36163	-0.41285238
39	0xbddec346	-0.10877089
40	0xbb8db752	-0.004324832
41	0xbe986219	-0.29762343
42	0xbe5e8e7c	-0.21734041
43	0x3ecd8012	0.40136772
44	0xbe4a3394	-0.19746238
45	0xbed0a466	-0.40750426
46	0x3d44cc06	0.048046134
47	0xbed28ada	-0.4112156
48	0x3c486b77	0.012232653
49	0xbe787b0c	-0.24265689
50	0x3eed1d94	0.4631163
51	0xbced4832	-0.02896509
52	0x3d6d9d0a	0.058011092
53	0xbe7080a3	-0.23486571
54	0x3ee4a4f4	0.446571
55	0xbe11a09d	-0.14221425
56	0xbd7eb62b	-0.062185448
57	0xbeafdaaf	-0.3434653
58	0x3d7b7b93	0.061397146
59	0xbe06f359	-0.13178767
60	0x3e18a0c0	0.14905071
61	0x3ea43c5c	0.320773
62	0xbeb04015	-0.3442389
63	0xbeda5679	-0.42644098
64	0x3f012ea8	0.50461817
65	0xbec4b0b1	-0.38416055
66	0xbedc6bf0	-0.430511
67	0xbe8f9c78	-0.28049064
68	0xbda2f9fb	-0.07957836
69	0x3e0e5f83	0.13903622
70	0xbde18959	-0.11012525
71	0xbe4c88f7	-0.19974123
72	0x3e01ffa1	0.12695171
73	0xbe4f6543	-0.20253472
74	0x3ce0a0c0	0.027420402
75	0xbe8282e9	-0.25490502
76	0xbec7d6f0	-0.39031172
77	0x3ea4548b	0.3209575
78	0xbcfe7f51	-0.031066569
79	0xbe7708cb	-0.24124448
80	0x3ec3cb34	0.3824097
81	0x3ea62ee4	0.3245765
82	0x3ede40fb	0.4340895
83	0x3e07b224	0.13251549
84	0x3e783683	0.24239545
85	0xbe9672c0	-0.29384422
86	0xbe9a75e7	-0.30168077
87	0x3e0d17c9	0.13778605
88	0x3da8eb51	0.08248008
89	0xbc285671	-0.0102745155
90	0x3ed8db60	0.4235487
91	0x3df45830	0.11930883
92	0xbe10a814	-0.14126617
93	0xbd9500f4	-0.072755724
94	0x3e28e442	0.16493323
95	0xbccadce9	-0.024763541
96	0x3e515544	0.20442683
97	0x3ee238b0	0.44183874
98	0xbf74272a	-0.9537226
99	0x3f495c91	0.7865687
100	0x3e957424	0.2919017
101	0x3ccc17ba	0.024913657
102	0x3e562d0d	0.20915623
103	0x3b2d0727	0.0026401968
104	0xbd562b62	-0.052287467
105	0x3e86b259	0.26307943
106	0xbe22c721	-0.15896274
107	0xbd0c3d42	-0.034238108
108	0xbd645b95	-0.055751402
109	0x3e96b0b4	0.2943169
110	0x3e9d8f4a	0.30773383
111	0x3e9077bd	0.28216353
112	0x3f08345b	0.5320489
113	0xc030d698	-2.7630978
114	0xbd98f5c4	-0.07468751
115	0x3c16bbee	0.009200079
116	0xbc06b019	-0.008220696
117	0xbddcd3d4	-0.107825905
118	0x3dc32fef	0.09530627
119	0xbf207874	-0.62683797
120	0x3f07a88e	0.5299157
121	0x3ec164bc	0.37772167
122	0x3e7b1062	0.24517968
123	0x3e674dfc	0.22588342
124	0xbd0a90b7	-0.033829417
125	0xbde5e4f2	-0.112253085
126	0x3f4f6789	0.8101736
127	0xbf004782	-0.5010911
128	0xbe3fc7cd	-0.18728562
129	0xbda813b1	-0.08206881
130	0x3e587b18	0.21140707
131	0xbe6d340e	-0.23164389
132	0xbcab8a4b	-0.020939967
133	0xbef0931f	-0.46987244
134	0x3eeb30f4	0.45935786
135	0x3eb84385	0.35989013
136	0xbd529bbe	-0.05141806
137	0x3e226bc6	0.15861425
138	0xbe039131	-0.12848355
139	0xbc091174	-0.008365978
140	0x3f4d4b4a	0.80193007
141	0xbd7527e7	-0.059852507
142	0xbe71f092	-0.23626927
143	0xbecf17b9	-0.40447786
144	0xbc8d0556	-0.017214458
145	0x3df148f8	0.11781496
146	0x3cdb2916	0.02675299
147	0x3f2efce6	0.6835464
148	0xbe850d4c	-0.25986707
149	0xbd158a99	-0.03650913
150	0x3e7951bf	0.2434759
151	0xbe5742e7	-0.21021615
152	0x3e0fceb2	0.14043692
153	0x3e55bbee	0.2087247
154	0x3da19b60	0.078909636
155	0x3cb74d62	0.022375766
156	0xbe992606	-0.29911822
157	0xbe938a10	-0.2881627
158	0xbea1321d	-0.31483546
159	0xbec862a1	-0.39137748
160	0x3c881cc2	0.016615275
161	0xbe9a20b8	-0.30103087
162	0x3fb81826	1.438237
163	0xbe1a366d	-0.15059824
164	0x3e582a1f	0.21109818
165	0xbc848c4c	-0.01618018
166	0xbe1b5378	-0.1516856
167	0x3eb3d77c	0.3512534
168	0xbf1188e6	-0.56849515
169	0xbe82b6be	-0.25530046
170	0x3e2ebfd3	0.17065363
171	0xbe69a816	-0.22818026
172	0xbe964ad6	-0.2935397
173	0xbd10965c	-0.035299644
174	0x3ecab96b	0.39594588
175	0x3e12c726	0.14333782
176	0xbf35a275	-0.70951015
177	0xbe677aa6	-0.2260538
178	0x3e5c15cd	0.21492691
179	0x3e6a4fde	0.2288203
180	0x3e9fa42b	0.31179938
181	0x3d4b9bed	0.04970925
182	0x3f46a1f8	0.77590895
183	0x3f372d1f	0.71553224
184	0xbd00bc8d	-0.031429816
185	0x3afb2eac	0.001916369
186	0x3db77d04	0.08959392
187	0x3e94d8d9	0.29071692
188	0xbe9df312	-0.3084951
189	0xbdfb3c49	-0.12267358
190	0x3eae96df	0.3409948
191	0xbe203f3b	-0.1564912
192	0xbddd58b0	-0.108079314
193	0xbe903fc2	-0.28173643
194	0xbd37f057	-0.04490694
195	0x3d2d2e24	0.04228033
196	0x3da748de	0.08168195
197	0x3f4d8f70	0.80296993
198	0x3e95dd8a	0.29270583
199	0xbd83bb5a	-0.06432219
200	0x3e3d824f	0.1850674
201	0x3dcca3f6	0.099922106
202	0xbe55453a	-0.20827189
203	0xbfc8efc4	-1.5698171
204	0x3e1627bc	0.14663595
205	0xbea9ddaa	-0.3317693
206	0xbb3e3d12	-0.00290281
207	0xbe6cd083	-0.23126416
208	0x3d1bfbea	0.03808204
209	0x3e2b753c	0.1674394
210	0x3e1d5091	0.15362765
211	0x3eee020a	0.4648593
212	0xbde90e08	-0.113796294
213	0xbe91d5c7	-0.28483412
214	0x3d328526	0.04358401
215	0xbebd3fa8	-0.36962628
216	0xbe49637e	-0.1966686
217	0x3de7c669	0.113171406
218	0x3f185f9a	0.59520876
219	0xbeafa5b4	-0.3430611
220	0x3b80aa19	0.003926527
221	0x3ed76901	0.420723
222	0xbe1edc0b	-0.15513627
223	0xbe719214	-0.2359088
224	0x3e678ef7	0.2261313
225	0xbf804df0	-1.0023785
226	0x3d274d39	0.04084513
227	0x3d85f425	0.065407075
228	0x3e716747	0.23574553
229	0xbe686f4f	-0.22698711
230	0xbe92ccec	-0.28671968
231	0x3d9bd21d	0.07608435
232	0xbc73cce1	-0.01488039
233	0xbd16ac20	-0.036785245
234	0x3e45efe1	0.19329788
235	0x3e6b9cfd	0.23009105
236	0x3e5b3672	0.21407488
237	0x3e300dde	0.1719279
238	0x3f30539f	0.68877596
239	0xbf845cbc	-1.03408
240	0xbdeab105	-0.11459545
241	0x3e58f848	0.21188462
242	0x3e0e973b	0.13924877
243	0xbe819989	-0.2531245
244	0xbeab274d	-0.33428422
245	0x3eaaec91	0.3338361
246	0xbf9a54f2	-1.2057173
247	0xbe21933b	-0.1577882
248	0xbeb20f5a	-0.34777337
249	0x3e9da6e7	0.307914
250	0xbcf6b906	-0.030117523
251	0x3d6a179d	0.057151426
252	0x3d37f912	0.044915266
253	0x3f4bcd7b	0.79610413
254	0x3e3767b9	0.17910661
255	0xbdc7f612	-0.09763731

critic.0.bias f4 [64]
0	0x3e34168f	0.1758673
1	0x3eebc259	0.46046713
2	0x3ebc5c74	0.36789286
3	0x3e9aaf0e	0.3021168
4	0x3e612bdf	0.21989392
5	0x3eaee7ed	0.3416132
6	0xbe24d0db	-0.16095297
7	0xbc376711	-0.011194007
8	0x3ee56f8a	0.4481166
9	0xbeb02f73	-0.344112
10	0xbe7a6527	-0.24452649
11	0x3ebda7dd	0.37042132
12	0xbe6ccf69	-0.23125996
13	0x3e1b6ea9	0.15178932
14	0xbea4ca22	-0.32185465
15	0x3e8500fe	0.2597732
16	0x3f2f5f79	0.68505055
17	0xbe84c68c	-0.2593273
18	0xbd2bcc9f	-0.04194319
19	0xbef6b1a5	-0.48182407
20	0x3e9b2ecc	0.3030914
21	0x3db13a17	0.08653658
22	0x3e22eb65	0.15910108
23	0x3f0a5132	0.54030144
24	0x3eb4bb26	0.35299033
25	0xbdb1a7a3	-0.08674552
26	0x3e4206fc	0.18947977
27	0xbeb4ea05	-0.35334793
28	0xbe081ba3	-0.13291793
29	0xbc3996b5	-0.011327435
30	0xbe753092	-0.2394431
31	0x3e2f70eb	0.17132919
32	0xbe394be3	-0.18095355
33	0x3e7bccec	0.2458989
34	0xbe76dc62	-0.24107507
35	0xbf04d5fe	-0.51889026
36	0xbe039af7	-0.12852083
37	0xbf15e6e7	-0.58555454
38	0x3da0d094	0.07852283
39	0x3ea6f065	0.3260528
40	0x3e788e24	0.24272972
41	0xbd1b4bb3	-0.03791399
42	0x3ec1b1c7	0.37830946
43	0xbda92d59	-0.082606025
44	0x3ceaf9f1	0.028683634
45	0xbeafb296	-0.34315938
46	0xbe9cefd3	-0.3065172
47	0xbdc8398a	-0.097766
48	0xbfc00097	-1.500018
49	0xbe700468	-0.23439181
50	0x3e96e54d	0.29471818
51	0xbfbb5bfc	-1.4637446
52	0x3effbad1	0.49947217
53	0x3e9ff731	0.3124328
54	0x3d4d764e	0.050161652
55	0x3eaf3af6	0.3422467
56	0x3f3337ac	0.70006824
57	0x3e644bf7	0.22294603
58	0x3e380d2e	0.17973778
59	0xbdc960bc	-0.09832904
60	0x3d991667	0.07474976
61	0xbe87516a	-0.26429302
62	0x3e287b33	0.16453247
63	0x3efdf092	0.49597603

critic.2.weight f4 [64, 64]
0	0x3dfba080	0.12286472
1	0x3db6a72f	0.089186065
2	0xbe910ee2	-0.28331667
3	0xbcda009b	-0.026611617
4	0xbdb81869	-0.08989031
5	0x3cdc44cb	0.026888272
6	0x3dba3097	0.09091299
7	0xbd378ca8	-0.044811875
8	0xbdc840c5	-0.09777979
9	0x3d96f36a	0.07370646
10	0x3dc2c6c4	0.09510568
11	0xbe19b48a	-0.15010276
12	0xbcbdf2c0	-0.023187041
13	0xbdf3fcdf	-0.11913466
14	0xbd84507a	-0.06460662
15	0xbe20d2a3	-0.15705352
16	0xbe861466	-0.26187438
17	0xbc86ba46	-0.016446244
18	0xbd91ada3	-0.07113197
19	0xbc0344dd	-0.008012024
20	0x3af0233b	0.0018321046
21	0x3d7e4636	0.062078677
22	0x3dd5a5d2	0.10432018
23	0x3d1e5982	0.03865958
24	0x3d846208	0.064640105
25	0xbc87e922	-0.016590659
26	0xbd8e69a2	-0.069537416
27	0x3e02a604	0.12758642
28	0xbd201db1	-0.039090816
29	0x3e269b5d	0.16270204
30	0x3da92b48	0.08260208
31	0x3ceb4f12	0.028724227
32	0x3d6e0ce4	0.058117762
33	0xbc4fbe6b	-0.0126796765
34	0xbdb0fb32	-0.08641662
35	0xbcbd62f2	-0.02311847
36	0xbcfb53a3	-0.03067953
37	0xbe2919f9	-0.16513814
38	0xbc4e92a6	-0.012608206
39	0x3c46c181	0.012131096
40	0xbe072d48	-0.13200867
41	0x3c8b2e33	0.016989803
42	0x3d86166e	0.06547247
43	0x3d928951	0.07155097
44	0x3d4e235c	0.05032669
45	0x3dea4097	0.11438101
46	0xbda5ed71	-0.08101929
47	0xbdc14215	-0.09436432
48	0xbe4d61fb	-0.20056908
49	0xbd42f65e	-0.047598235
50	0x3e08e828	0.1336981
51	0xbe12dcb6	-0.14342007
52	0x3e15b53b	0.14619915
53	0x3cddb412	0.027063403
54	0xbddece65	-0.108792104
55	0x3d5b33c2	0.053516157
56	0xbe087574	-0.13326055
57	0xbe03cf2f	-0.12872003
58	0xbc279eed	-0.010230762
59	0x3db627c0	0.088943005
60	0xbd8613d6	-0.06546752
61	0x3e193b26	0.1496397
62	0x3ea9eeac	0.33189905
63	0x3e0ba95d	0.13638826
64	0xbe14b3f9	-0.14521779
65	0x3db67935	0.08909837
66	0x3cd1b2e5	0.025597999
67	0x3ce56f02	0.028007034
68	0xbd375528	-0.044758946
69	0xbd1f6fb4	-0.038924888
70	0x3cc223ca	0.023698706
71	0x3e6fed1f	0.23430298
72	0xbe2457b9	-0.16049089
73	0x3d898324	0.06714466
74	0x3ce1b3cb	0.027551552
75	0xbe0c1e67	-0.13683473
76	0x3dbda494	0.092599064
77	0x3d9fd670	0.078045726
78	0x3d14486d	0.036201883
79	0x3af29b5d	0.0018509437
80	0xbe3bab87	-0.18327151
81	0x3c225a98	0.009909295
82	0xbddefa19	-0.10887546
83	0xbe49a139	-0.19690408
84	0xbdc49f15	-0.09600655
85	0x3dfd4376	0.12366383
86	0x3d960661	0.073254354
87	0xbcdc8ce2	-0.026922647
88	0x3d914fa0	0.070952654
89	0xbdf236d4	-0.11826864
90	0xbd3e4e92	-0.04646165
91	0x3de3818b	0.11108693
92	0x3d97aa81	0.07405568
93	0x3d746b03	0.059672367
94	0xbd9136ec	-0.07090554
95	0xbc413fda	-0.011795009
96	0xbdb1e68c	-0.086865515
97	0x3d432ef2	0.047652192
98	0xbe732577	-0.2374476
99	0xbe4c500b	-0.19952409
100	0xbd12bbc0	-0.035823584
101	0xbc2aa9ce	-0.010416461
102	0xbc503ed0	-0.012710288
103	0xbda76e3d	-0.08175323
104	0xbd35317a	-0.044236638
105	0x3e009b30	0.125592
106	0x3d9a38d4	0.0753037
107	0xbdd6dbf1	-0.10491169
108	0xbe08d76c	-0.13363427
109	0x3d9cbafd	0.07652853
110	0xbe2d5412	-0.16926602
111	0x3c9c58f4	0.019085385
112	0xbe6866b3	-0.22695427
113	0xbda62921	-0.081133135
114	0xbd8537df	-0.06504797
115	0x3c62a02b	0.013832132
116	0x3dc20f5f	0.09475588
117	0x3d3610a2	0.044449456
118	0xbd3d1313	-0.04616077
119	0x3c59df92	0.013297932
120	0xbcfde465	-0.030992696
121	0xbe1f9975	-0.15585883
122	0xbc8c9930	-0.01716289
123	0x3d6f5878	0.05843398
124	0xbc281dd0	-0.010261014
125	0x3d8b74cc	0.068093866
126	0x3d09d611	0.033651415
127	0x3e63a80e	0.22232077
128	0x3bd7b16c	0.0065824296
129	0x3dc7011f	0.09717011
130	0xbeb2a8a4	-0.34894288
131	0xbc1ba156	-0.009498915
132	0x3e018e4f	0.12651943
133	0x3dd745fc	0.10511395
134	0xbd66c9bc	-0.056344733
135	0x3e7cd4e4	0.24690586
136	0xbcedc017	-0.02902226
137	0xbcb32c22	-0.02187163
138	0x3e15b1c8	0.146186
139	0x3dcd9a80	0.10039234
140	0xbdfa2f83	-0.122160934
141	0x3e01cdee	0.12676212
142	0xbd777f86	-0.06042435
143	0x3d25fa91	0.040522162
144	0xbaf62e9a	-0.0018782199
145	0x3d80ed15	0.0629522
146	0x3bd1aa8d	0.006398505
147	0xbb590248	-0.0033112932
148	0x3e23a73a	0.1598176
149	0x3d44fc38	0.048092097
150	0xbdc709a9	-0.097186394
151	0xbe95b670	-0.2924075
152	0x3d1469f9	0.036233876
153	0x3d7f1bba	0.0622823
154	0x3d82d480	0.063881874
155	0x3dc3d6a3	0.09562423
156	0x3c165572	0.009175645
157	0x3da31500	0.0796299
158	0xbdcfb4e8	-0.10141927
159	0xbdb0d827	-0.08634978
160	0xbe3a0c6b	-0.181688
161	0x3dc96425	0.09833554
162	0xbe676c8b	-0.226
163	0xbd3550b6	-0.044266425
164	0xbd07aede	-0.03312575
165	0x3daef682	0.085431114
166	0xbdf7a0cb	-0.12091216
167	0xbdb501a2	-0.08838202
168	0x3d44cc0a	0.04804615
169	0xbdb9c882	-0.09071447
170	0x3dc2dd5b	0.095148765
171	0xbc2157af	-0.009847566
172	0xbe8ae6a7	-0.271291
173	0xbd0299e7	-0.031885054
174	0xbbd1d8b7	-0.0064040083
175	0xbdd858d6	-0.10563819
176	0xbe03465f	-0.12819813
177	0x3cce9c2d	0.025220955
178	0x3d00d055	0.03144868
179	0x3dc7f290	0.09763062
180	0x3dc60415	0.09668747
181	0xbd4e83af	-0.050418552
182	0xbe01fcf9	-0.12694158
183	0xbd6521f8	-0.0559406
184	0x3de5b156	0.11215465
185	0xbddc1597	-0.107463054
186	0xbd772fd8	-0.06034836
187	0xbd15598c	-0.03646235
188	0x3d1e7715	0.038687784
189	0x3d6489fd	0.05579566
190	0x3d8b7b12	0.06810583
191	0xbcced12b	-0.025246223
192	0xbd7fed36	-0.06248208
193	0xbda4c8ac	-0.080460876
194	0xbe5cf407	-0.21577464
195	0x3dce04dd	0.10059521
196	0x3e5bdecf	0.21471713
197	0x3d4d4834	0.050117686
198	0x3dd3606c	0.103211254
199	0x3e6fd551	0.23421218
200	0xbd9c243d	-0.076240994
201	0x3dda1e96	0.10650365
202	0x3be42d16	0.0069633825
203	0xbe329760	-0.17440557
204	0xbccd188b	-0.025036117
205	0xbda3dc7a	-0.08001037
206	0xbdf94850	-0.12171996
207	0xbe1a4b27	-0.15067731
208	0xbeafdf30	-0.34349966
209	0x3d6c518d	0.05769496
210	0xbd3375eb	-0.043813627
211	0x3dc111d4	0.094272286
212	0xbae962be	-0.0017805917
213	0x3c5521c5	0.01300854
214	0xbd736103	-0.05941869
215	0xbe250eae	-0.16118881
216	0x3e0232cd	0.12714691
217	0xbdc6b93c	-0.097032994
218	0x3c9eed48	0.019400254
219	0x3dd68ce7	0.10476094
220	0x3cef9e24	0.029250212
221	0x3cd2c214	0.02572731
222	0x3e2b6be1	0.16740371
223	0x3d3492f6	0.044085465
224	0x3dd8a223	0.105778
225	0xbe0f481d	-0.13992353
226	0xbe167bc1	-0.14695646
227	0x3df76342	0.12079479
228	0x3dacd8ae	0.08439766
229	0xbd024838	-0.031807154
230	0xbdc306c0	-0.09522772
231	0x3d0f746f	0.03502315
232	0xbb9ce937	-0.0047885436
233	0xbe2f1417	-0.17097507
234	0xbdddd54d	-0.108316995
235	0x3da3d935	0.08000413
236	0xbddff604	-0.10935596
237	0x3dc48e7f	0.095974915
238	0x3de863b4	0.11347142
239	0x3d2199fa	0.039453484
240	0x3d734235	0.05938931
241	0xbdbad006	-0.091217086
242	0xbda9f3bb	-0.08298441
243	0x3d0ba524	0.034093037
244	0xbe6608b8	-0.22464263
245	0x3e202ec6	0.15642843
246	0xbcdaed7e	-0.026724573
247	0x3d94c8fa	0.07264896
248	0x3dded555	0.108805336
249	0xbcecf56f	-0.028925626
250	0x3dbe398c	0.0928832
251	0x3bff0a46	0.007783207
252	0xbe322340	-0.1739626
253	0x3dfc4e68	0.12319642
254	0x3cbb2549	0.022844927
255	0xbe82f230	-0.255754

critic.2.bias f4 [64]
0	0xbc880c8d	-0.016607547
1	0x3db28873	0.08717432
2	0x3dbf3de3	0.09337976
3	0xbe04507f	-0.12921332
4	0xbe147a58	-0.14499795
5	0xbda7c201	-0.081913
6	0xbd793caf	-0.060848888
7	0xbe309f6e	-0.17248318
8	0x3d92d597	0.07169645
9	0x3db427d7	0.08796661
10	0xbc33ecfa	-0.010981793
11	0x3cb3c39e	0.021943863
12	0xbd5de97a	-0.05417774
13	0xbe38d02c	-0.18048161
14	0xbe316565	-0.17323835
15	0xbe32b3c5	-0.17451389
16	0x3d15fa3c	0.036615595
17	0xbd0eaffa	-0.034835793
18	0xbc803705	-0.015651235
19	0x3d5f8037	0.054565635
20	0x3d9c19c7	0.07622104
21	0x3bbd4e10	0.005777128
22	0x3c8a1eb4	0.016860344
23	0x3d18ec8f	0.037334975
24	0x3e1db1ad	0.15399809
25	0xbd8300f4	-0.06396666
26	0xbdd7e742	-0.10542156
27	0xbdfae05f	-0.12249827
28	0x3c7d5afd	0.015463588
29	0x3b492c80	0.003069669
30	0x3dc73f13	0.09728827
31	0x3e033400	0.12812805
32	0x3d67a024	0.056549206
33	0xbc094eb0	-0.008380577
34	0xbcaefe94	-0.021361627
35	0x3d72842e	0.059208088
36	0x3cdb1503	0.026743418
37	0x3c4f5387	0.012654192
38	0x3dfb5aa2	0.12273146
39	0xbc9c3480	-0.019068003
40	0x3d00625a	0.031343795
41	0xbd1953e8	-0.037433535
42	0x3d5ea016	0.05435189
43	0x3d8146ed	0.06312356
44	0xbdc19420	-0.09452081
45	0xbd949e86	-0.072567984
46	0x3d6711e9	0.056413565
47	0xbdf05842	-0.11735584
48	0x3e2e9476	0.17048821
49	0x3dfc9f4d	0.12335072
50	0xbd6680ee	-0.0562753
51	0x3df40f18	0.119169414
52	0xbdb68cd8	-0.089135826
53	0xbb69ddbc	-0.0035685143
54	0xbd20af65	-0.03922977
55	0x3db37cf9	0.08764071
56	0xbdb2a766	-0.08723335
57	0x3c8f797e	0.017513987
58	0xbe11ea42	-0.14249519
59	0xbdccfc76	-0.100090906
60	0xbc9dcbac	-0.019262157
61	0x3d9138b8	0.07090896
62	0x3d6cd847	0.057823446
63	0x3c13db6f	0.009024485

critic.4.weight f4 [1, 64]
0	0xbe700220	-0.2343831
1	0xbe1e932c	-0.15485829
2	0xbe1156c1	-0.1419325
3	0x3e2dfaf1	0.16990258
4	0x3e212343	0.15736108
5	0x3e09d0bf	0.13458537
6	0xbe8556d6	-0.26042813
7	0x3ef638a6	0.48090094
8	0x3e2419e0	0.16025496
9	0xbecc2941	-0.39875224
10	0xbd93c83b	-0.07215925
11	0x3d11d11b	0.03559981
12	0xbe02ec72	-0.12785509
13	0x3e161143	0.14655022
14	0x3e648bab	0.22318904
15	0x3ebcd2d0	0.36879587
16	0x3e172697	0.14760815
17	0xbe3cade4	-0.18425709
18	0xbd8efb32	-0.069815055
19	0x3e3e3d86	0.18578157
20	0x3e2beaf9	0.16788854
21	0xbe4682f0	-0.19385886
22	0xbe8578ab	-0.26068625
23	0x3deab336	0.11459963
24	0xbe7e3b8a	-0.248274
25	0xbeb1e570	-0.3474536
26	0xbe9ee282	-0.31032187
27	0x3e71a201	0.23596956
28	0x3e156a18	0.14591253
29	0x3d8aca6f	0.067768924
30	0x3d2f561b	0.042806726
31	0xba9dbdd3	-0.0012034721
32	0x3eb5a6b3	0.35478744
33	0xbe0ab08d	-0.13543911
34	0x3db8dfcd	0.090270616
35	0xbd514bb5	-0.05109759
36	0x3e36c28f	0.17847656
37	0xbd172c69	-0.036907587
38	0xbe4472c7	-0.19184409
39	0x3dee7e33	0.11645164
40	0x3e5a0de3	0.2129436
41	0x3dcd11cb	0.10013159
42	0xbd0879f6	-0.033319436
43	0x3b65f171	0.0035086537
44	0x3d8efe33	0.069820784
45	0xbdfc2746	-0.12312178
46	0xbe2e56d2	-0.17025307
47	0x3e2008f9	0.15628423
48	0xbeaed102	-0.34143835
49	0x3eb27e57	0.34862015
50	0x3cf919f2	0.03040788
51	0xbe54abc1	-0.20768644
52	0x3efa19df	0.48847863
53	0xbd3c3eb7	-0.045958247
54	0xbc3e44a5	-0.011613046
55	0xbe903d12	-0.28171593
56	0x3d317f11	0.04333407
57	0x3eaf372f	0.3422179
58	0x3d7d604c	0.061859414
59	0x3dce060c	0.10059747
60	0x3e5009b5	0.20316203
61	0x3e077fbe	0.13232324
62	0x3e0824d8	0.13295305
63	0xbe51378e	-0.20431349
