mario_kart/runs/ppo_2025-03-25_16-58-58/ppo_2025-03-25_16-58-58.pth (torch, 42994 bytes, 11 tensors)

actor.0.weight f4 [64, 7]
000000 4d 26 65 3e 2f b7 23 be 42 66 43 3d 5b 4c db 3d
       0.22377892 -0.15987848 0.047704943 0.10707923
000010 36 8b 25 be 6b f9 c3 3e 22 33 81 bd b4 77 46 3d
       -0.16166386 0.38276228 -0.06308581 0.048454
000020 27 7d 99 bd 85 8c 9c be 1b 25 19 be 64 c9 80 3e
       -0.07494574 -0.30575958 -0.14955561 0.2515365
000030 c3 c7 2c 3e 51 6d 10 3e d9 ca a8 bd 8d 7c 3e 3e
       0.16873078 0.14104201 -0.08241815 0.186022
000040 e4 76 1e be f1 66 81 3e fd c9 fb bd 58 74 a7 3c
       -0.1547504 0.2527385 -0.122943856 0.02044122
000050 c1 3a 5a 3e 19 31 4c 3e f8 1b ce 3e 23 47 07 be
       0.21311475 0.19940604 0.40255713 -0.1321073
000060 87 7f c3 3e c7 8b 93 3e a0 d9 24 be d4 94 a1 3e
       0.38183233 0.2881758 -0.16098642 0.3155886
000070 0b aa 61 be ee 1a 25 be 4d c9 6a be 27 9d 6d 3e
       -0.22037522 -0.16123554 -0.22928353 0.2320448
000080 9c 47 ab 3d 0f 7b e6 3e b4 e8 36 3e bf 28 47 be
       0.08363268 0.4501576 0.17862207 -0.19449137
000090 a0 52 35 be fe 8f 7c be ad ff 20 3e 1f 42 83 3d
       -0.177073 -0.24664304 0.15722533 0.06409096
0000a0 03 89 82 3e 1a 42 e8 3e 15 73 5e bd 34 1e 8c be
       0.25495157 0.4536293 -0.05430897 -0.27366793
0000b0 3c c2 69 3e c2 e3 90 3e c8 93 9c 3e 96 ee aa be
       0.22828001 0.28298765 0.30581498 -0.33385152
0000c0 ea ee 22 bd 46 c6 9f be 73 d6 a7 3d 02 58 4b 3e
       -0.039778627 -0.31205958 0.081952 0.19857791
0000d0 70 a8 87 3e d3 dc 96 be 99 21 ac 3e ff c8 45 be
       0.26495695 -0.2946535 0.33619383 -0.19314955
0000e0 45 9a 83 3e f8 0f cb 3e 42 ee ac be 4d fc 80 3e
       0.25703636 0.3966062 -0.33775526 0.2519249
0000f0 20 67 a8 be 88 5a ba be a5 cd 57 3d 27 09 a0 be
       -0.32891178 -0.36397195 0.052686352 -0.31256983
000100 57 49 37 be f9 3d 4c be db 7f a7 3e f3 ca a9 be
       -0.1789907 -0.19945516 0.32714733 -0.3316265
000110 4f b7 b6 3d 09 87 15 bd 8b 77 4d be 91 eb be 3d
       0.08921682 -0.036505733 -0.20065133 0.093222745
000120 71 4d f1 3b 7b c7 bb be 71 6b ba be e7 93 b6 be
       0.007363968 -0.3667563 -0.36410096 -0.35659716
000130 5f 44 3f 3c 89 14 c5 3e d1 bc 89 3e 1a d4 6f be
       0.011674016 0.3849223 0.26901868 -0.23420754
000140 30 87 b4 3d 38 01 5e be 31 19 9d be d4 52 92 3e
       0.088148475 -0.21680152 -0.30683282 0.28578818
000150 a9 77 ea 3d 1f c7 85 be 89 16 a5 be e3 3d b5 3d
       0.114486046 -0.2612848 -0.32243755 0.088496946
000160 ce e7 ef bc 5f 85 76 3e 12 4f a6 3e c8 fc 81 3e
       -0.029285338 0.24074315 0.324822 0.2538817
000170 04 f3 d3 3d 6c 19 bb bd 98 46 f5 bb 65 38 ae be
       0.10349086 -0.09135708 -0.007485222 -0.340274
000180 0d 22 62 3e 15 ec 1d 3e 88 85 90 be 1a e1 a8 be
       0.22083302 0.1542209 -0.28226876 -0.3298424
000190 cb b2 a6 be f9 78 51 3e 17 9b 07 3e 38 24 c6 3d
       -0.32558283 0.20456304 0.13242756 0.09674877
0001a0 89 40 37 3e b2 2d 75 3c 45 8e 59 3e 81 69 e7 bc
       0.17895712 0.014964508 0.21245678 -0.02824855
0001b0 de 2c fb 3c ea 91 a6 3e ab dc 51 3e 91 5f 61 bd
       0.030661043 0.325332 0.20494334 -0.05502278
0001c0 c5 ca a3 bd b9 f6 ad be eb 0d 65 be 08 ab cc bd
       -0.079976596 -0.33977297 -0.2236859 -0.09993559
0001d0 0f 28 5e be ec 66 ad 3e e7 a9 cb 3d 43 84 c1 be
       -0.21694969 0.33867586 0.09944516 -0.3779622
0001e0 bb 5e e3 3e 29 3e a5 3e 1c 20 89 3e d7 09 b7 be
       0.4440821 0.32273987 0.2678231 -0.35749695
0001f0 e5 18 83 3e 55 30 b9 bc d7 91 c2 3e 19 fc 94 3e
       0.2560493 -0.022606054 0.38001892 0.29098585
000200 cd 67 3e 3e 0a a6 c5 be 99 2a fb 3c f9 67 85 3e
       0.18594284 -0.3860324 0.03065996 0.26055887
000210 04 17 6d be 46 28 cd be aa 6f 42 3e 28 dd 9f 3d
       -0.23153311 -0.4006979 0.18987909 0.07805854
000220 31 3a 83 3e de 55 90 3e 24 e2 a5 be 25 8b c7 be
       0.25630334 0.2819051 -0.32399094 -0.38973346
000230 f6 cf 00 be 09 3f f5 3d 67 db 76 be e4 66 d2 3c
       -0.12579331 0.119749136 -0.24107133 0.025683828
000240 59 e3 9a 3e b8 c5 e7 3d 14 52 76 3e 96 a0 5f 3e
       0.30251577 0.11317009 0.24054748 0.21838602
000250 f6 69 d9 3e 82 46 a8 be ac 21 89 3e 9b 4f e1 3d
       0.42463654 -0.32866293 0.26783502 0.11001512
000260 c4 98 84 3e 77 fd aa 3e d0 53 a6 3e e9 b1 6b 3e
       0.258978 0.33396503 0.3248582 0.23017086
000270 a5 de 79 be f0 87 0b bd c1 27 16 be 6f 81 1c 3c
       -0.24401338 -0.034065187 -0.14663602 0.009552344
000280 59 96 c3 3e 54 d7 0e 3e d1 29 d5 bc e5 e9 65 3e
       0.38200644 0.13949329 -0.026020916 0.22452505
000290 e9 0b 2e 3e 24 75 bf bd e9 3a 67 be a4 29 9f be
       0.16996731 -0.09348515 -0.22581066 -0.31086457
0002a0 a4 b0 6b 3d 9c 0e 24 3e bf 7b c1 be cb d0 a8 3e
       0.057541505 0.16021198 -0.37789723 0.32971796
0002b0 6d 07 cc 3d 1a 12 2e 3e 5f 03 1c bc ed 8b bc bd
       0.09962354 0.16999093 -0.009522288 -0.09206376
0002c0 c3 59 9b be a7 23 91 3e c9 b9 b1 3e fb b0 70 3e
       -0.3034192 0.28347513 0.34712055 0.23505013
0002d0 5a 84 d4 3e 74 88 1d be 15 46 25 3d f6 7c 0f be
       0.41507226 -0.15384084 0.04035004 -0.14012513
0002e0 e0 5f 11 3e 71 e9 bf 3e c2 2e af be 21 1d 86 3d
       0.1419673 0.3748279 -0.3421536 0.06548525
0002f0 73 26 38 3e 82 12 92 be ac da bf 3e 61 2d 8b 3e
       0.17983417 -0.28529745 0.3747152 0.2718306
000300 64 bb 2a 3e 46 70 a6 bd 48 c0 1f 3e 4f 41 78 be
       0.16673046 -0.08126883 0.15600693 -0.24243663
000310 72 4f 9c 3e f9 13 0d bc 06 af c9 3d bd 03 54 be
       0.30529362 -0.008610719 0.09847836 -0.20704551
000320 14 32 a2 bc 4f f1 b8 3e 51 43 98 be 2c 8d 49 3e
       -0.01979927 0.36121604 -0.29738858 0.19682759
000330 b7 0c b7 bd 9f 47 43 be 00 42 87 be 79 fa cc bd
       -0.08937972 -0.1907029 -0.26417542 -0.10008711
000340 4a a2 84 be 9d 45 c7 3e 19 15 04 be d2 c0 5a bd
       -0.25905067 0.38920298 -0.12898673 -0.053406544
000350 bb fd c9 3d c3 aa bc bb 73 e3 41 3d 2e 6e 76 be
       0.09862848 -0.005757661 0.047336053 -0.24065468
000360 43 dd a5 be 7f 40 ee 3c 76 fb 32 bd 35 69 05 3d
       -0.32395372 0.029083489 -0.043696843 0.032571036
000370 7a 21 98 3d e5 dc ab 3e 49 c8 a4 be a4 a6 9b 3e
       0.0742826 0.33566967 -0.32184055 0.30400574
000380 c1 92 3e be 0e 78 04 3d b8 2e 1b 3e 89 a3 6f 3e
       -0.1861067 0.032341056 0.1515454 0.23402227
000390 e5 f2 a8 be a2 2b 9f 3e f8 50 c2 3d 54 03 fd bc
       -0.32997814 0.31087977 0.094881 -0.030885376
0003a0 ac 16 c1 bc 63 77 41 be 03 e7 05 3e b9 1b 8b 3e
       -0.023570381 -0.18893199 0.13076405 0.27169588
0003b0 9e a7 aa 3d 52 5d cb be 63 33 1d 3d 19 8c ab 3e
       0.08332752 -0.39719635 0.038379084 0.33505324
0003c0 09 af 6d 3e ff 07 8f be 65 ee bc 3e e4 59 c5 bc
       0.23211302 -0.27935788 0.3690063 -0.024090715
0003d0 8e c1 c2 be 56 58 3f bd 75 c7 52 bd e4 ae ed bd
       -0.38038296 -0.046715103 -0.05145975 -0.11605623
0003e0 6e ac ce bd 67 2a cf bd ea 77 97 3e 89 5c 92 3d
       -0.10091482 -0.101155095 0.29583675 0.07146556
0003f0 96 31 a5 3e c5 ea 44 3e 06 65 18 3e 9f a9 b2 3e
       0.32264394 0.19230182 0.14882287 0.34895036

actor.0.bias f4 [64]
000000 19 f2 46 be 7d a9 a4 3e 0e e0 9d 3e e0 fb b0 be
       -0.1942829 0.3216056 0.30835003 -0.34567165
000010 64 a8 a5 3d 3b e5 58 be 42 cc c6 3d 80 10 83 3d
       0.080887586 -0.21181194 0.09706928 0.063996315
000020 eb b9 db 3d 53 2a 04 be f1 bf ae be 22 03 b0 be
       0.107288204 -0.1290677 -0.34130815 -0.3437739
000030 d2 8e a4 be a7 df 63 be 2c 2b 5a bb 98 f3 03 3e
       -0.32140213 -0.22253285 -0.0033289893 0.12885892
000040 8e e5 b1 3d 5d f6 9a be 43 5a 90 3e 9b 7b 0e be
       0.08686362 -0.30266085 0.28193864 -0.13914339
000050 dd fa 78 be 93 5a 46 3e 2b 8b 60 3e 59 ca 2d be
       -0.24314447 0.19370489 0.21928088 -0.16971721
000060 82 de 81 be 62 e1 54 3e f9 78 9f 3e 43 74 64 bd
       -0.25365072 0.20789102 0.31146982 -0.05577494
000070 78 a9 59 bd ab ea 92 be 8f 53 97 be e6 81 f0 bd
       -0.053140134 -0.28694662 -0.29555938 -0.11743526
000080 4a bb 84 bc 12 24 c7 bd 41 c2 b7 be c1 5c ab 3e
       -0.016202588 -0.09723677 -0.3589039 0.33469203
000090 d8 61 cc be d7 c9 82 be d7 06 46 3e 7d 49 85 3e
       -0.399184 -0.25544617 0.19338547 0.2603263
0000a0 e9 44 b3 be 8d 24 43 3e 67 25 9e 3e fb 78 23 be
       -0.35013512 0.19056912 0.3088791 -0.15964119
0000b0 dc 5c 86 be cf 6b b5 3e c6 ac 68 bc 8b 96 b8 3e
       -0.2624272 0.35433814 -0.014201349 0.36052355
0000c0 d2 90 9a 3e 8b 6a 0b bd 50 8d 12 be d7 47 b9 be
       0.30188614 -0.034037154 -0.14311719 -0.36187622
0000d0 2b 8b ce bd 47 86 8a be 25 2a af bc 16 cd a0 3d
       -0.10085138 -0.2705557 -0.0213824 0.07851617
0000e0 01 d2 8c 3e a3 15 7e 3e 48 12 80 be ec c3 85 3e
       0.2750397 0.24812941 -0.25013947 0.2612604
0000f0 d9 ca 45 be 24 72 56 3e c0 f8 9a be c3 fc a9 be
       -0.19315661 0.20941979 -0.30267906 -0.33200654

actor.2.weight f4 [64, 64]
000000 53 ee a1 bd 85 f9 8f bd 22 8e de bd 24 e8 94 3d
       -0.07906785 -0.07030014 -0.108669534 0.0727084
000010 f4 ac d8 3d ec cf 26 3d 32 82 97 3d 29 29 f3 bd
       0.10579863 0.040725634 0.0739788 -0.11873085
000020 a7 ef fe bd 8c f5 93 3c 28 62 8b 3d 5b 38 be 3d
       -0.12448054 0.018061422 0.06805831 0.09288093
000030 81 24 56 3c 00 86 2b 3d 5c 70 f3 3d 4f 64 be 3a
       0.013070227 0.04187584 0.11886665 0.0014525744
000040 d0 51 0f 3e bf f0 b1 3c ed 61 c8 bd dd a2 b0 bc
       0.13996053 0.021721242 -0.09784303 -0.021562034
000050 2c 8f 0b 3d 94 5b f4 bd 9a e0 69 bc d4 32 d2 3d
       0.034072086 -0.1193153 -0.014274741 0.10263601
000060 95 4a 01 3e 72 c8 7e ba 44 45 c8 3d a1 fe 8f 3d
       0.12626107 -0.00097192 0.09778836 0.070309885
000070 c1 c6 a7 3c 71 7f ea 3d 71 c6 30 bd 96 f2 f8 bd
       0.020480515 0.11450089 -0.043158 -0.121556446
000080 8d 4b 17 3d 5f 84 a2 3d 7f d3 5a bc 67 d4 f8 3d
       0.036937285 0.07935404 -0.013356089 0.121498875
000090 7a 3d 27 3d 07 08 11 bd 8c f0 53 bd 71 de 01 3e
       0.040830113 -0.035408046 -0.051743075 0.12682511
0000a0 60 0f fc bd 67 73 8a 3d f9 71 29 3d 2c 40 3d 3d
       -0.1230762 0.067602925 0.04136846 0.046203777
0000b0 e2 48 cd 3d 26 83 de 3d 89 b3 20 bd ad e1 e5 3d
       0.10023667 0.10864858 -0.039233718 0.11224685
0000c0 a8 8f d9 bd 4e 1a 1a bc 75 da 18 3d 7f ea b8 3d
       -0.106231034 -0.009405686 0.03731771 0.090291016
0000d0 87 dc 9a 3d 79 07 34 3d 0b 8b 24 bd aa 68 25 3d
       0.075615935 0.04395244 -0.040171664 0.04038302
0000e0 43 95 60 3d 2f 74 f0 bc 94 92 7c bd 15 ec 96 3d
       0.054829847 -0.029352276 -0.061663225 0.07369248
0000f0 a1 bc c6 3d 07 00 cd 3c 62 47 47 bd b9 35 9e 3d
       0.09703947 0.025024427 -0.04865206 0.077250905
000100 65 e5 5b 3d a8 3e d2 3d 01 e8 59 bd e8 4d d3 3d
       0.053685565 0.10265857 -0.05319977 0.10317594
000110 de e3 d4 bb 44 81 0a bd 05 b5 da 3d 14 97 3e bb
       -0.0064968904 -0.033814684 0.10679058 -0.0029081749
000120 37 44 8f bd 0b ab 32 bd ab 00 1b 3d 0a e5 b4 bd
       -0.06995433 -0.04362015 0.037842434 -0.08832748
000130 45 63 be 3a 9f 67 da bd 0a db 7e 3d a2 78 e3 bb
       0.0014525434 -0.106642954 0.06222061 -0.006941871
000140 e3 7e 5d 3d 2c aa 89 3d 4c 3d 4b 3d 10 e8 d3 bd
       0.054076087 0.06721911 0.049619004 -0.10346997
000150 3e 18 de bd 11 53 ce 3d 32 60 e1 bd 9a 17 ab 3c
       -0.108444676 0.100744374 -0.11004676 0.020885278
000160 09 3c 68 bd ba 50 58 3d 0d 94 06 3d d5 f1 b1 bd
       -0.05669788 0.05281136 0.032856036 -0.08688704
000170 eb 7f bf bd 39 93 62 3d 3b 4e 4b 3c 13 32 c5 3d
       -0.0935057 0.055316184 0.012408788 0.096286915
000180 5e 8c f0 3d 31 ab f8 3d 02 0c a9 bc a2 8c 6c 3d
       0.11745523 0.12142027 -0.020635609 0.057751305
000190 6a 7a c7 3d 69 be b2 3d a5 ff 17 bd 53 ca 00 bc
       0.097401455 0.08727724 -0.037109036 -0.007860738
0001a0 cb b0 00 bd ff 52 ae 3d 2f e3 1e 3b 35 1d cb bd
       -0.031418603 0.08511924 0.0024244299 -0.0991768
0001b0 17 95 d4 bc 73 e2 7d bc be d9 b0 3d c0 be 09 3c
       -0.025949998 -0.015495884 0.08635281 0.008407295
0001c0 a0 dc fe 3d 41 a2 8f 3d ad 69 cd 3d 2f 2b cd bd
       0.12444425 0.07013369 0.10029922 -0.10018002
0001d0 3a 74 cf 3d 63 20 b6 3d eb d4 eb bd 73 a4 f2 3d
       0.1012959 0.08892896 -0.1151522 0.118477724
0001e0 cc 79 19 3c b4 52 9d bc 67 14 5b bd d2 f9 30 bd
       0.009367418 -0.019204475 -0.053486254 -0.043206997
0001f0 da cd 9e bd 71 fd 62 3d fc 17 f3 3c 43 e8 ee 3d
       -0.07754107 0.05541748 0.029674523 0.11665394
000200 81 c8 ed bd b9 35 04 be 21 3f b6 bc b0 2f ab 3d
       -0.11610509 -0.12911119 -0.0222469 0.08358705
000210 77 32 1e 3d d0 85 72 bd 85 9d 5e bd 83 70 f3 3d
       0.038622346 -0.059209645 -0.05434944 0.11886694
000220 70 95 76 3d bc a4 69 3d ba 71 98 bd 82 25 ec bc
       0.06020111 0.05704187 -0.074435666 -0.028826479
000230 d1 36 86 3d 66 58 f9 3d 1e 9b c9 bd fa 7d aa bd
       0.06553424 0.12175064 -0.098440394 -0.08324809
000240 1d 18 c4 bd d6 ad f4 bd cf 19 ab 3d 8c f1 ac 3d
       -0.09574912 -0.11947219 0.08354532 0.08444509
000250 22 9d ed 3d d5 9d a9 3d 8b 3b f8 3d 1d 1e f6 bd
       0.11602236 0.08282057 0.12120732 -0.120174624
000260 dc 97 a9 bd 30 6d 6f bd 34 f5 b5 bd 72 14 6a bb
       -0.08280918 -0.05845374 -0.088846594 -0.0035717753
000270 be 96 cf bc 06 7d 91 bd d1 f4 97 3d 07 56 7d bc
       -0.025340434 -0.071039245 0.07419742 -0.015462405
000280 ae e6 36 3d c4 85 8d bd 17 2b 8e bd 90 30 51 bc
       0.044653587 -0.069102794 -0.069418125 -0.012767926
000290 54 47 34 3d 77 f4 a8 3d 08 52 61 bd cf 9c 95 bd
       0.044013336 0.08249753 -0.05500987 -0.073052995
0002a0 61 99 87 3d bf e5 f0 bd d2 da 7a 3d 7b f0 a5 bd
       0.066210516 -0.117625706 0.06124384 -0.08102509
0002b0 2a 38 fc 3d 42 f6 4a 3d 19 9b dd bd 0c bc b3 bd
       0.123154 0.049551256 -0.10820598 -0.087761015
0002c0 09 e9 a1 bd be c9 98 bc b2 6d ff bc ea 09 15 3b
       -0.07905776 -0.018650886 -0.031180236 0.0022741505
0002d0 b7 08 a3 3d 33 ce 30 bd e1 5d 07 3e 57 9f 9e bd
       0.079606466 -0.043165397 0.13219406 -0.077452354
0002e0 c3 e5 3c bc f7 41 33 bc 43 d2 84 bc 74 5f c8 bd
       -0.011529389 -0.01094102 -0.016213542 -0.09783831
0002f0 33 6f 7a 3d 63 c8 7b bd 79 34 d6 bd 57 77 ad 3b
       0.061141204 -0.0614704 -0.10459227 0.0052937674
000300 45 6b 61 3d ed d5 db bd 18 b3 d7 3d d8 71 d3 bb
       0.05503394 -0.107341625 0.10532206 -0.00645278
000310 c9 67 a7 3d fa 5b b7 bd 95 cf f8 3d 82 c8 37 3c
       0.08174092 -0.0895309 0.12148968 0.011217238
000320 69 46 02 be 49 bd 76 3d 6d 41 dd 3b 17 13 e3 3d
       -0.12722172 0.06023911 0.006752184 0.110876255
000330 4b 99 a4 bd 26 1f e8 bd 96 17 c0 bc 6f 60 88 3d
       -0.08037051 -0.11334066 -0.023448747 0.06659018
000340 eb 11 02 3d a1 ae d8 bd 55 f5 54 bc 86 85 72 bd
       0.03175537 -0.10580183 -0.012997945 -0.05920937
000350 14 43 78 3c 6a 02 09 3d 30 f3 9f bd ad b5 7f 3c
       0.015152711 0.033449568 -0.07810056 0.01560728
000360 b6 03 dd bd f6 26 32 3c ba 11 54 3d c2 58 e6 bd
       -0.107917234 0.010873547 0.051774718 -0.11247398
000370 68 6b 0c 3e 8a ae e7 3c b6 4d 90 3d ce 9a ad bd
       0.13712847 0.028281469 0.07046072 -0.08476792
000380 c0 12 ef 3d 27 01 47 bd d5 0d de bd 28 04 1e 3c
       0.11673498 -0.048585083 -0.10842482 0.009644546
000390 fe 70 79 3b d2 55 cc 3c 47 e9 62 bd 7a 34 09 3d
       0.0038061733 0.024943266 -0.05539825 0.03349731
0003a0 6e 9b b6 3d b6 62 24 bd 6e b0 e1 bd ea 53 e7 bc
       0.089163646 -0.0401332 -0.110199794 -0.028238256
0003b0 1b 3c 1f 3c a1 f3 a3 bd da f7 de bd 1f 46 e4 3d
       0.00971892 -0.08005453 -0.10887118 0.11146187
0003c0 e6 47 9b bd 23 c9 b0 3d 9f c0 e5 3c d9 b3 35 bd
       -0.07582073 0.08632114 0.02804595 -0.04436097
0003d0 a1 fc c9 3d f0 2f 23 3b 2a 68 3d 3c 86 20 43 3d
       0.09862638 0.00249004 0.011560479 0.04763844
0003e0 29 fa fb 3d d7 99 61 bd 5f 1a 05 be a7 6a c3 bd
       0.12303574 -0.055078354 -0.12998341 -0.09541827
0003f0 31 f0 2e 3d 8f de c4 bd c0 49 ca 3d f9 93 14 bd
       0.042709533 -0.09612762 0.09877348 -0.03627393

actor.2.bias f4 [64]
000000 67 61 b2 bd f1 ce ef 3d a3 8b 4f bb db 3a a4 bb
       -0.08709984 0.11709393 -0.0031668923 -0.005011899
000010 ff 5e f8 bd d3 6e 3c 3d 65 b5 b3 bd a9 6b 4b bc
       -0.12127494 0.046004128 -0.08774833 -0.012415805
000020 36 52 14 3d bc 02 cf 3d 91 7e 2b 3c ed df b1 3d
       0.036211215 0.101079434 0.0104671875 0.086852886
000030 85 7d b4 bc 2f 7e a2 bd d9 33 19 3d 46 9b b3 bd
       -0.022032509 -0.07934224 0.03740296 -0.087698504
000040 4f bc 36 bd 4b 2a 11 3d 5d 71 46 bd 7e 86 d1 3b
       -0.04461318 0.035440724 -0.048447955 0.0063942065
000050 00 31 ec bd 91 04 53 bd d4 68 96 bc b0 cb ee bd
       -0.115327835 -0.051518027 -0.018360533 -0.11659944
000060 43 7a ca bb 50 19 80 3d df e7 ac 3d 20 fb 76 bd
       -0.0061791255 0.06254828 0.084426634 -0.060298085
000070 5d 86 ee bd 33 76 d6 bd b0 f4 22 bd 98 26 13 bd
       -0.116467215 -0.104717635 -0.039784133 -0.035925478
000080 34 71 dd bc 75 ff ab bd fd 92 7e 3d eb a3 c9 bd
       -0.027031519 -0.08398334 0.062151898 -0.09845718
000090 c2 ac d8 bb 0a dd 74 3c 5d 3f b8 3d 20 d1 f3 bd
       -0.006612391 0.014945278 0.089964606 -0.11905122
0000a0 83 b9 d0 bd c2 a1 9c bd dd 30 7d bd cf 20 3d bd
       -0.101916336 -0.0764804 -0.061814178 -0.046173867
0000b0 f5 1a 81 bd 1a 5a 08 bd 8d 06 72 3d 81 f2 a7 3d
       -0.0630397 -0.033289053 0.05908828 0.08200551
0000c0 a9 cb 1e 3d 9c 4b b0 3d ea ee 97 bd c8 96 be 3d
       0.038768444 0.08608171 -0.07418616 0.09306103
0000d0 e9 97 f6 bc ae e0 c1 bd af 07 82 3d aa 87 ae 3d
       -0.030101733 -0.094666824 0.06349122 0.085219696
0000e0 87 2f b6 bb c1 7f e5 3c 18 ce 21 3d 6b 34 0c 3d
       -0.005559865 0.02801502 0.039503187 0.034229677
0000f0 e5 65 c7 bd 74 62 a8 3d 41 c5 17 3d 8a a9 7a 3d
       -0.09736232 0.082219034 0.03705335 0.06119684

actor.4.weight f4 [2, 64]
000000 03 32 a7 bc 73 6d 5c 3d 8d 99 1e 3d 51 60 c4 bd
       -0.02040959 0.053815316 0.038720656 -0.095886834
000010 9c 73 46 3d 20 a7 54 bb 6a 9f 0c bc f6 f1 ec 3d
       0.048450097 -0.0032448247 -0.008582929 0.11569588
000020 eb 38 a2 bd 3c 21 d2 3d 4d 8b 1a 3d 2a f9 a0 3d
       -0.079210125 0.10260245 0.037730504 0.07860024
000030 1d be fe bd 3b 18 a6 bd 02 38 19 3c 80 fb de 3d
       -0.12438605 -0.0811009 0.009351732 0.108878136
000040 e3 d2 dd bd 90 49 d7 3d 54 dc 24 3d f8 20 a4 bd
       -0.10831239 0.10512078 0.040249184 -0.08014101
000050 87 43 d8 3d 6d bb b9 3d 17 8b 07 bd 18 8f 16 be
       0.10559755 0.09068952 -0.03309163 -0.14703023
000060 c0 44 09 3e 09 fc 22 bd 00 25 f1 bd 61 01 22 bd
       0.13405132 -0.03979114 -0.11774635 -0.039552096
000070 77 6e a1 3d eb d1 f7 bd 32 18 e9 3d 66 9d 29 3c
       0.078823976 -0.121005856 0.11381568 0.010352468
000080 aa d6 98 bd 59 69 1b 3e 2b 67 5d bd b3 de bd 3c
       -0.07462819 0.15176906 -0.054053467 0.02317748
000090 a5 f7 a6 3d 9e a9 08 3e ed a2 62 bd 5a 10 d6 3d
       0.08152703 0.13345954 -0.05533116 0.104523376
0000a0 95 7c 94 3d 9e 3b 45 3d 07 a0 d4 bc e8 47 9b bd
       0.07250325 0.04815256 -0.025955213 -0.075820744
0000b0 cb 2e b6 3c 33 2e 26 be 3a 70 47 3d 08 3e 99 bd
       0.02223911 -0.16228561 0.048691012 -0.07482535
0000c0 70 84 89 bd 96 91 46 bd 9a ab 9e bd 29 05 03 be
       -0.067147136 -0.048478685 -0.07747574 -0.12794937
0000d0 b6 dd 38 3d e8 e8 d5 bc 6f 6a 50 bd 9f 1b c3 bd
       0.045133315 -0.026112035 -0.050882753 -0.09526753
0000e0 bd eb 22 bb 74 62 09 3c 27 b8 93 3d 4e 11 ff 3a
       -0.002485975 0.008385289 0.07212859 0.0019460113
0000f0 15 00 92 bd 39 bd c0 3d 88 70 81 3d ac 53 c0 3c
       -0.07128922 0.09411091 0.06320292 0.023477398
000100 6e c6 de 3c 31 ed 08 3e 63 72 08 be 3b dd b5 3c
       0.027194228 0.13371731 -0.13324885 0.022200217
000110 48 2c 8f bd 06 76 71 3c 5f 74 e6 bd f6 53 dd bd
       -0.06990868 0.014737612 -0.11252665 -0.1080703
000120 b4 d2 8f 3d 68 62 76 3b 7f 73 e0 3d 48 7d c9 bc
       0.0702261 0.0037595276 0.10959529 -0.024595872
000130 c0 1c d9 bd fe c1 f3 3d c6 cb ee bc 0d 14 d8 bd
       -0.10601187 0.119022354 -0.029149901 -0.105506994
000140 bd 77 1d be fa 32 2a bd cc bf af 3d 18 63 32 3d
       -0.15377708 -0.04155252 0.08581504 0.043551534
000150 7e a0 c6 3d f3 51 d4 bd 27 c5 e5 bd 13 5f 3c bd
       0.0969858 -0.10367193 -0.112192445 -0.045989107
000160 2a 1c 1e 3e 28 e4 08 bd 7a 3a 29 3e a9 cf 8c 3d
       0.15440431 -0.03342071 0.16526213 0.068755455
000170 85 e8 84 3d 86 b5 fe bd 81 ae 01 3e 8a ea a8 bc
       0.06489662 -0.124369666 0.12664224 -0.02061965
000180 4a df da 3d f6 12 43 bd 4b b8 c3 3d 52 11 b9 3d
       0.1068712 -0.047625504 0.095566355 0.09036507
000190 a9 09 26 3d 14 56 e3 bc 69 7e d3 bd 4c 88 97 3c
       0.040536556 -0.027751006 -0.10326845 0.018497609
0001a0 4f a8 30 be 2f 12 c7 bd 8d 7c 11 bd 8f 1f ba 3d
       -0.17251705 -0.09720265 -0.03551917 0.090880506
0001b0 f3 4c f9 3d b6 60 5d 3e 51 6d 69 bc 6b 19 0e bd
       0.1217288 0.21618924 -0.0142472545 -0.03469221
0001c0 9f f4 cf 3d 08 7f ef 3a 1b 88 12 bd f6 b2 0d be
       0.1015408 0.0018272111 -0.03577433 -0.138378
0001d0 81 da 95 bd d0 33 78 bd 20 1f 92 3d 1b 12 d2 3d
       -0.07317067 -0.060596287 0.07134843 0.102573596
0001e0 de ce 29 3d 42 a1 85 3d fe 3a 03 be e6 46 ce bd
       0.04145705 0.06524898 -0.12815472 -0.100721166
0001f0 60 15 49 bd b3 c3 4e bc 47 1f 00 be b7 a4 c9 bc
       -0.04909265 -0.0126199005 -0.12511931 -0.024614675

actor.4.bias f4 [2]
000000 4a a1 3d bc d2 85 d8 bc
       -0.011574099 -0.026430998

critic.0.weight f4 [64, 7]
000000 3a 8b a0 bc 31 86 b6 3e 8a 62 d5 3c 75 cc 59 3e
       -0.019597638 0.35649255 0.026047964 0.212694
000010 7e 1c 56 be 14 6b dc be e4 9c bd be 4a 79 ce 3e
       -0.20909306 -0.43050444 -0.3703376 0.4032691
000020 c5 26 ad 3d 0c 12 7c 3e 22 90 7a 3b 65 46 51 be
       0.0845466 0.2461626 0.0038232883 -0.2043701
000030 df ea f8 bd 36 bf e0 3e 89 29 25 be 84 43 9e 3c
       -0.12154173 0.43895882 -0.16129126 0.019319303
000040 da 80 b7 bd 9c a3 7c 3c 69 50 9e 3e 34 8b 61 3e
       -0.08960123 0.015419867 0.30920723 0.22025758
000050 e1 a3 95 3d b8 35 12 bf cc 43 5e 3e 33 28 27 be
       0.07306648 -0.5711322 0.2170555 -0.16323929
000060 da 54 71 3e f1 fa 8a bc 2c 5b 42 be 84 cd 67 bd
       0.23567525 -0.016965361 -0.18980092 -0.05659248
000070 f9 83 d6 be c7 c5 ad be e1 e0 ca be 4f 93 5d 3e
       -0.41897562 -0.33939955 -0.39624694 0.21638225
000080 3f 1d 64 3d 54 f8 79 be 1c 8a 1d bc e8 82 77 3e
       0.055691954 -0.24411136 -0.009615447 0.2417103
000090 4a fb 8e be c4 f3 51 be f4 15 9f be fd d2 53 be
       -0.27926093 -0.20503145 -0.31071436 -0.20685954
0000a0 66 74 6a be e4 61 3d 3d c0 4f 37 bd 2b 41 b0 3e
       -0.22895965 0.046235934 -0.04475379 0.3442472
0000b0 7e d7 94 3c 84 6a 69 3d b3 0b de 3d 3e 8f 82 3e
       0.018169161 0.056986347 0.10842075 0.2549991
0000c0 74 94 d3 3c ca 22 f7 3d 7d 66 7f 3e ae 4d 96 be
       0.025827624 0.12067182 0.2494144 -0.2935614
0000d0 0b c0 8a be b7 a1 91 3d 19 7b be be 93 6e bd be
       -0.27099642 0.07110923 -0.3720329 -0.36998424
0000e0 3b a5 4b be bd 25 fb 3d b7 46 9c 3d 20 85 b0 bd
       -0.19887249 0.122630574 0.07630675 -0.086191416
0000f0 a9 54 3d 3c d2 00 1c be 40 44 9b be 8d 5d 7b bf
       0.011555829 -0.15234688 -0.30325508 -0.9818962
000100 1f f4 52 3d c8 e7 12 be ac c5 8c be 70 e8 98 3e
       0.051502343 -0.1434623 -0.27494562 0.29864836
000110 bb 3b 1a be 74 cf 3f be 66 de c9 be 04 03 01 3f
       -0.15061848 -0.18731481 -0.3942749 0.50395226
000120 88 44 fb 3d ab 41 8d bd 1e 0b 7f bd c8 2d e1 bd
       0.12268931 -0.06897291 -0.06226646 -0.1099506
000130 d8 f1 e1 3e a0 07 30 bf 34 36 d0 3e 44 b8 d5 bb
       0.44129825 -0.68761635 0.40666354 -0.0065222103
000140 49 bd 84 be 25 ee 0f be 2e 26 81 3e 0c 1b 31 3d
       -0.25925663 -0.14055689 0.2522444 0.043238685
000150 a0 20 ae be 22 6d ca 3e e3 5b 18 be aa e3 ba bd
       -0.34009266 0.39536387 -0.14878802 -0.09125455
000160 74 52 56 3e 08 52 a6 be 8d 0d 2c be 0f 71 13 bf
       0.20929891 -0.3248446 -0.16802044 -0.5759439
000170 d4 79 e5 3d 80 8d a3 3e 31 34 5d bd a9 50 54 be
       0.112048775 0.31943893 -0.05400485 -0.20733894
000180 c7 eb 8b be 6f 6b 01 bc 47 af 2b be 60 07 98 3e
       -0.2732832 -0.007899149 -0.16766082 0.29693127
000190 a6 c7 93 3d 53 0f 7f be 44 16 89 be 82 aa 5d 3e
       0.07215814 -0.2490819 -0.267748 0.21647075
0001a0 7d f1 76 3e 0b 90 05 be f4 2d ed bd f5 51 15 be
       0.24115558 -0.1304323 -0.115810305 -0.14582045
0001b0 0e f2 b8 bd b7 eb 8a 3e 31 20 c3 bd 72 e0 9a 3e
       -0.09030543 0.2713296 -0.095276244 0.30249363
0001c0 6e 43 bc be 42 31 3a be 68 c9 0c 3e 54 58 c3 be
       -0.36770195 -0.18182853 0.13748705 -0.38153327
0001d0 b6 1f ff be c9 20 bb be 71 f1 d9 be a3 22 41 3e
       -0.4982888 -0.3654845 -0.42567018 0.18860869
0001e0 09 f1 f0 3e b4 5f 18 3e 04 77 01 bd 64 50 aa 3e
       0.47058895 0.14880258 -0.031607643 0.33264458
0001f0 0e 30 18 be 0a e7 22 3e 1d cb f0 3e 9b e2 ba be
       -0.14862081 0.15908447 0.47029963 -0.3650101
000200 9a 62 1e bd 3c a1 fb bd 94 d1 1b 3e d1 7a 89 3e
       -0.038668253 -0.122866124 0.15216666 0.26851514
000210 70 d1 8a be 5b 57 5a 3f d1 8c 80 bb 02 98 2c bc
       -0.27112913 0.85289544 -0.0039230366 -0.010534288
000220 e7 6b 37 be a2 bf 34 3e cf 0c 74 be 75 dd a3 3c
       -0.17912255 0.17651227 -0.23833011 0.02000306
000230 f2 8c e6 bd 03 64 e4 be 45 fd e4 bd d6 84 b6 3e
       -0.11257352 -0.44607553 -0.1118112 0.3564822
000240 37 82 6b be 1d 36 92 3e dc 5e 87 be 35 10 13 bf
       -0.22998892 0.2855691 -0.2643956 -0.57446605
000250 78 80 7a be 2f 45 10 3e 60 3a 67 bd ce e7 a7 3e
       -0.2446307 0.14088891 -0.056452155 0.3279404
000260 13 a9 8e be cc c8 d3 be 98 55 b0 be 73 be 89 be
       -0.27863368 -0.41364133 -0.34440303 -0.26903114
000270 f5 45 8c be 59 02 62 be 46 ea 8b 3d ad cd 3d be
       -0.27397123 -0.22071208 0.068317935 -0.1853549
000280 60 18 fb 3d a9 ef ae be ad d6 63 3c 8c 6c 1e 3e
       0.122605085 -0.3416722 0.013906163 0.15471095
000290 ae c6 69 3e 32 57 2f 3e fa 90 5e 3e a7 dd fa be
       0.22829697 0.17123106 0.21734992 -0.48997232
0002a0 8a fd 37 be 8f a2 8d 3e f7 a9 20 3e d6 80 c5 be
       -0.17967811 0.27663085 0.15689836 -0.38574857
0002b0 ce c0 a1 be e2 e6 8c be 2a fc d3 3d a7 35 fe 3e
       -0.3159241 -0.275199 0.10350831 0.49650308
0002c0 41 7a 96 3e ba 57 f2 3c 63 5d 05 3e 59 fc 9b 3e
       0.29390147 0.029582847 0.13023905 0.30465963
0002d0 52 22 01 3e 69 57 b6 3d 23 eb fc 3c f8 9e 16 3f
       0.12610748 0.08903391 0.03087384 0.5883632
0002e0 1e 6f 8c 3e f1 a2 7e 3e 83 69 75 be 62 57 0e be
       0.27428526 0.24866845 -0.23966031 -0.13900521
0002f0 17 bd 8c 3e fa 98 14 be 91 71 f2 bb 5d 92 ec bd
       0.27488014 -0.14511481 -0.007398792 -0.11551354
000300 9a 0c 84 3c 20 7e 82 be 24 ce 4d 3e 4c ee e2 bd
       0.01611929 -0.2548685 0.20098168 -0.11080608
000310 0a 21 79 be 0d f1 d8 3d 3f 2f b1 bd eb a2 b7 3d
       -0.2432901 0.10592852 -0.086515896 0.08966621
000320 47 82 b8 bd 10 00 a5 3b 67 8f 76 be 22 dd 8d be
       -0.090092234 0.005035408 -0.24078141 -0.27707773
000330 e7 da 1a bd e3 4e 85 3e b6 5a 9b 3e 9c d9 5d 3d
       -0.037806418 0.26036748 0.30342644 0.054162607
000340 33 66 81 3e 77 37 89 3e 43 83 c4 3e 22 70 fa 3e
       0.25273284 0.2680013 0.38381395 0.48913676
000350 ff 1e bd 3d 5f 3a 94 be 2a 0f fe 3d 42 b6 d9 3b
       0.09234428 -0.28950784 0.12405236 0.0066440413
000360 1b e3 90 bd b5 cb 12 3e 09 f2 c0 bf 47 66 43 be
       -0.07074567 0.1433552 -1.5073863 -0.19081984
000370 27 fd 90 bc 5a e2 06 be 12 a6 fc 3d d8 03 cd 3e
       -0.017698837 -0.13172284 0.12336363 0.40041995
000380 2e 4e bf be 23 1c a9 3c 4a 2a c6 3d b8 79 3d 3b
       -0.37364334 0.0206433 0.09676035 0.0028911661
000390 e0 9c d8 3e 2b 50 66 bc fa c8 ea 3d e1 4b d3 bd
       0.42307186 -0.0140571995 0.114641145 -0.10317207
0003a0 24 8e a9 3e a6 7b f4 bd 91 9d cc be c1 11 d4 be
       0.33116257 -0.119376466 -0.39963964 -0.41419795
0003b0 af 9e 22 be 33 d7 55 3e ee 6c 32 3d 3e 29 8f bb
       -0.15880845 0.20882873 0.043560915 -0.00436893
0003c0 c3 9a e8 be 1e 26 05 3e 7f 65 4f 3e e1 ff 9c 3d
       -0.45430574 0.13002822 0.20253561 0.076659925
0003d0 7d 72 30 be 41 6f b5 bd d2 b5 51 3e 58 f9 bd 3e
       -0.17231174 -0.088591106 0.20479515 0.37104297
0003e0 9a f1 9b 3e 93 a5 79 bd 02 78 6c 3d c6 78 9a 3e
       0.30457765 -0.06094892 0.057731636 0.30170268
0003f0 66 60 9a be 82 84 8e be e9 d5 2c be 9f 50 1e 3e
       -0.3015167 -0.2783547 -0.16878475 0.15460442

critic.0.bias f4 [64]
000000 03 c1 f4 bd b2 f0 b8 be 57 25 9d be 9f f4 81 3d
       -0.119508766 -0.36121136 -0.3069255 0.06345486
000010 e5 89 b5 be 6e ec cd be 51 26 c9 3e 4d 13 81 3e
       -0.35456768 -0.40219444 0.39287046 0.25210038
000020 43 56 be bd 30 34 b4 be d8 87 75 be d2 18 5e be
       -0.09293797 -0.35196066 -0.23977602 -0.21689156
000030 fe fc c1 be ec 96 d1 3d d0 7e af be 14 ec a5 3d
       -0.3788833 0.10233864 -0.34276438 0.08101669
000040 2b 4a 5a be 37 b9 f9 3d 46 88 8f 3e 48 b3 10 3f
       -0.21317355 0.1219353 0.28033656 0.5652356
000050 b5 9e 97 be 2d 36 c5 be bc 0a 64 be a2 78 86 be
       -0.2961327 -0.38517895 -0.2226972 -0.2626391
000060 94 45 92 3e f8 ad 03 3e bd 14 8a bd 5a 77 59 3e
       0.2856871 0.12859333 -0.06742237 0.21236935
000070 d5 9d 81 3d 30 21 8f 3c 6a da 92 be ea 8c 00 3e
       0.06328932 0.01747188 -0.28682262 0.12553754
000080 29 6e f1 bd a5 ae 80 be 86 b8 b4 3e 13 3e 5c be
       -0.117885895 -0.25133243 0.3529703 -0.21508054
000090 6d aa ba be 27 38 08 3f 47 f0 bc 3d 9b 59 be 3e
       -0.3645815 0.5321068 0.09225517 0.3717774
0000a0 3e a3 a6 3e 17 9d fc be 31 90 c8 3e 66 ba d2 3e
       0.3254642 -0.493386 0.3917251 0.41157836
0000b0 77 28 62 bc 53 da 7f bc 03 d8 87 3d d4 6c fd bc
       -0.013803593 -0.015616017 0.06632998 -0.030935682
0000c0 fc 45 6e 3e 71 3b 87 3d 85 1c 46 3d a1 9a 9a be
       0.23268884 0.066031344 0.048367042 -0.30196097
0000d0 de ee bc 3e f8 a1 7b 3d 07 7b 45 3e 92 26 1a be
       0.3690099 0.061433762 0.19285212 -0.15053776
0000e0 15 d9 13 be 98 8b 5b be ef f8 0b 3d cb 9f c8 bb
       -0.14438279 -0.2143997 0.03417295 -0.0061225644
0000f0 0e a9 38 bd 26 15 2e be cc 35 37 bd 84 c9 0d be
       -0.045083098 -0.17000255 -0.04472904 -0.13846403

critic.2.weight f4 [64, 64]
000000 f5 83 7e bd e0 3b 5f bd 94 8c a2 bd 08 23 32 3e
       -0.062137563 -0.05450046 -0.079369694 0.17396176
000010 83 f0 85 3d 15 5a cf 3b 45 f0 d4 bd a8 bb 5e bd
       0.065400146 0.0063278773 -0.1039739 -0.05437818
000020 91 e5 98 3d ea 17 4a 3e c2 18 88 bc 1c 3e cf 3d
       0.07465661 0.19735685 -0.016613368 0.10119268
000030 00 1d 4e bd 6b 48 16 3d 8f 13 00 be c8 25 64 3c
       -0.050320625 0.036690157 -0.12507461 0.013925023
000040 d2 b9 90 3d 9c d0 28 3d 7a 14 23 bb f4 4c f1 be
       0.070666924 0.04121457 -0.002488403 -0.47129023
000050 46 e7 0a bc f8 2f 9d bd 86 a0 85 3d a1 7a e7 3c
       -0.008477991 -0.07675165 0.06524758 0.028256716
000060 98 a5 07 be f2 58 9a bc 69 16 9f 3d 0a 64 a0 3d
       -0.13246763 -0.01884124 0.07767946 0.07831581
000070 e2 2d e1 3d 79 21 fc bd 61 28 2f bd 54 5f ae 3d
       0.109950796 -0.12311072 -0.042763118 0.08514276
000080 9b 82 9c 3d a5 20 c9 bd b7 74 7b 3e 02 cc 7f 3d
       0.076420985 -0.098206796 0.24556242 0.062450416
000090 6e 99 32 3d 07 eb 84 3d b6 d0 88 3d ab 62 a2 3d
       0.043603353 0.064901404 0.066804335 0.07928976
0000a0 51 9c 13 bd 45 08 8b 3d b2 de dc bd 52 de 63 3c
       -0.036037747 0.06788687 -0.10784663 0.013907986
0000b0 d2 ea 5e 3d 56 5f 29 be 06 4b ce bc 81 17 1c 3d
       0.05442316 -0.16540274 -0.025182258 0.038108353
0000c0 b3 83 28 3c 1d e8 03 3d 4b 61 64 3d 8c a0 f8 bd
       0.010285306 0.032203782 0.05575685 -0.12139997
0000d0 72 e3 af bd e7 be 8c 3d 9b 51 45 bc 4b ce 7e bd
       -0.085883036 0.06872349 -0.012043382 -0.062208455
0000e0 40 02 40 be 75 43 92 3c 03 f4 36 3c d3 60 1b be
       -0.18750858 0.017854432 0.011166575 -0.15173654
0000f0 78 41 13 be 1a 1f 0b 3d bb 21 09 be b0 53 58 3d
       -0.14380443 0.033965208 -0.13391773 0.052814186
000100 77 9c a2 bd 05 70 38 3d dd 95 24 3d e2 10 73 3c
       -0.079399996 0.045028705 0.040181983 0.014835568
000110 0a 80 21 3e 7b f0 77 3d 3f 76 ba bc ec d2 6b 3d
       0.157715 0.060532074 -0.022761462 0.057574198
000120 21 41 c9 3d a5 1d 96 bd 5e 9a 7a be e2 4c 64 bd
       0.098268755 -0.07329873 -0.24472949 -0.055737384
000130 04 a4 26 3d 70 f9 0f 3a bb c8 fb bb 6c d4 31 bb
       0.04068376 0.0005492186 -0.007683841 -0.002713467
000140 9a 03 85 bc 78 28 47 3d 94 e2 0d bd 89 04 fc 3d
       -0.016237069 0.04862258 -0.03463991 0.123055525
000150 65 4c 80 3d 07 9b 52 3d d5 0b d1 3b 24 bd ae bd
       0.06264571 0.051417377 0.0063795843 -0.085321695
000160 6b 27 8f bd 4d 4e 01 3d af fd e4 bd a3 db b2 bc
       -0.0698994 0.031568814 -0.11181199 -0.021833247
000170 88 2e 03 be 4e 2a 3f 3d 47 5a 47 bb df 19 e9 bd
       -0.12810719 0.046671204 -0.00304188 -0.11381888
000180 89 c9 ce 3c 02 3e 8a bd e1 f0 c8 3d a8 67 c4 bd
       0.025242584 -0.06750108 0.09811569 -0.09590083
000190 60 d3 b6 bd d2 26 90 3d 48 32 fd bb ce 1a 34 bd
       -0.08927035 0.070386544 -0.0077269413 -0.043970875
0001a0 f2 25 88 bd 3c c7 e2 bc af 89 a5 bd 7e 2f cc bd
       -0.066478625 -0.027682893 -0.08082902 -0.09969996
0001b0 eb 3c 33 3d 64 02 01 be c3 fb 68 bd 66 2e b1 bd
       0.043759268 -0.12598568 -0.056880724 -0.08651428
0001c0 07 eb b5 bc ff 63 2e bc 3e 65 c2 3d bb 6a 6f 3a
       -0.022206796 -0.010643958 0.09491967 0.00091330305
0001d0 34 2a ad 3d 1e e6 c3 bc 4f 90 e9 3d ae 06 7d 3d
       0.08455315 -0.02391344 0.11404478 0.06177395
0001e0 32 d3 69 bd d5 c7 8b 3d 7d ae d2 3d fd 4e e0 3d
       -0.057086177 0.06825224 0.10287187 0.10952566
0001f0 86 2c a0 bd a4 fd 8a 3d 84 2c 68 3d 31 e7 5b bd
       -0.07820992 0.06786659 0.05668308 -0.05368728
000200 45 f6 4d 3d a7 02 19 3e ea 6c 55 bd 2e b1 c2 3d
       0.05028369 0.14942418 -0.05210582 0.095064506
000210 d5 26 dd 3d 52 75 9b 3d ef be a6 bc 7b 59 93 3d
       0.10798422 0.075907364 -0.020354716 0.071948014
000220 9e ab 0a bd 53 a6 4e bd 3f 9a 05 3e 67 a0 03 bd
       -0.033855073 -0.050451588 0.13047121 -0.032135393
000230 01 52 a0 3d ac 1d 85 3c 86 be 86 3d 80 2b 92 3d
       0.07828141 0.0162495 0.06579308 0.07137203
000240 70 29 bb 3d 65 84 5b 3d 4f cb 71 bd b4 d6 e4 3d
       0.09138763 0.05359306 -0.05903178 0.11173764
000250 82 9b 05 3c d7 b9 9d 3d 53 d5 d4 3d 87 ea 41 3c
       0.008154752 0.07701462 0.10392251 0.011835701
000260 cd 3c 2f 3e 3d c3 f2 bd f8 6f 19 3d c6 ef 93 3d
       0.17113037 -0.11853645 0.037460297 0.072234675
000270 80 07 11 3e 8f ba d7 bc 94 bb 84 3d 91 0a ab 3d
       0.14163017 -0.026334075 0.0648109 0.08351625
000280 d1 58 6b bd 65 d7 a4 3c 91 1a b6 bc 1b a5 d1 bd
       -0.05745775 0.02012224 -0.022229465 -0.102365695
000290 b8 28 b7 3d 81 f7 83 bb 0b 57 3d 3c 63 2b 80 bd
       0.08943313 -0.0040273075 0.011556397 -0.06258275
0002a0 1a 46 37 3e e8 96 83 bb 30 c3 c4 bc ca c2 b0 bd
       0.17897835 -0.004015792 -0.024018854 -0.08630903
0002b0 03 75 b5 3d 25 59 6a 3d f1 8a c2 bc 4a 2d 29 bd
       0.08860209 0.05721392 -0.023747893 -0.041302957
0002c0 15 9a 95 3a c5 26 67 3d 31 5a dc 3d 37 c1 ad bd
       0.0011413718 0.056433458 0.1075939 -0.084841184
0002d0 4c 50 7d bd 8b 8b 7b 3c b7 55 9b bd 69 82 a1 3a
       -0.061844155 0.015353094 -0.07584708 0.001232219
0002e0 c2 58 37 3a 28 25 33 be 8d 2a 26 bd 87 fc dd bd
       0.0006994122 -0.17494643 -0.040567923 -0.108391814
0002f0 df ec a1 bd 42 af f4 3d a9 88 ab bd 82 66 fc bc
       -0.07906508 0.1194749 -0.08375675 -0.030810598
000300 e6 4e 11 be db c0 e8 3c 1d b4 90 bd ac 5f ad bd
       -0.14190254 0.028412273 -0.07065604 -0.084655136
000310 fd 70 e7 bc f7 d7 a3 3d 47 dc 8e 3d 8f e9 12 3d
       -0.02825212 0.080001764 0.06975608 0.03586727
000320 cb 94 4a bd 77 93 3f bd a7 b6 ad bd 93 6a a0 3c
       -0.049458306 -0.046771493 -0.08482104 0.019582069
000330 10 c5 03 3d 48 47 a6 3d d9 0f 84 3d 1a d3 8c 3d
       0.032170355 0.081190646 0.06448335 0.06876202
000340 c9 90 00 3c 1c 07 00 bd 2f 8f b6 bb d5 e7 a8 3d
       0.0078470195 -0.03125678 -0.005571268 0.082473435
000350 a6 fe 0d 3e 13 90 14 bd 7c 24 8c bb 25 f9 c5 3c
       0.13866672 -0.036270212 -0.00427681 0.024166653
000360 02 9d 2e 3d 97 ce bd bd 17 ca d0 bd 47 be 87 bd
       0.042630203 -0.092679195 -0.101947956 -0.066280894
000370 8f 3d 0a be 76 47 02 ba 77 4b e6 bd 0f 3c 27 3d
       -0.13500045 -0.0004969755 -0.112448625 0.04082876
000380 c6 85 14 3e 65 f8 f2 bd 5e dd 23 bd 05 03 e6 3c
       0.14504156 -0.11863784 -0.040006034 0.028077612
000390 d2 d3 ae bb e9 d6 be 3d 0d f6 8a bc 36 b9 d5 bd
       -0.0053353095 0.093183346 -0.01696303 -0.10435717
0003a0 a1 e2 1e bd 30 45 fd 3d 9b 97 24 bd 7d 54 d5 bd
       -0.03879035 0.12366712 -0.040183645 -0.104165055
0003b0 31 a2 ed 3d 0e 7e 82 bd 78 1a 53 3c 26 8e 85 3d
       0.11603201 -0.06371699 0.012884729 0.06521253
0003c0 41 6b 8d 3d b5 05 b1 bd 72 c0 16 3e e3 b7 b6 bd
       0.06905223 -0.08643667 0.1472185 -0.08921792
0003d0 e0 5c 7b bc a4 4e 81 3d f2 5e e7 3c 99 5c 07 3e
       -0.015341967 0.06313828 0.028243516 0.13218917
0003e0 31 b8 08 3e ec 78 df 3c b0 0b db bd 04 f7 00 be
       0.13351513 0.02727934 -0.106955886 -0.12594229
0003f0 cc 93 65 bd fc 60 05 bd b7 3d 54 bc 76 e5 c5 3d
       -0.056049153 -0.032563195 -0.012954167 0.09662907

critic.2.bias f4 [64]
000000 b5 ec b0 bd 07 d2 bb 3d 9d 7c b8 bb b7 9e dc bd
       -0.08638898 0.09170919 -0.0056300894 -0.1077246
000010 f3 d1 a1 bd 90 c8 e9 ba 3d d5 95 3d ff 56 06 3e
       -0.07901373 -0.0017836262 0.073160626 0.13119124
000020 f0 ac 92 3d 33 10 15 3e 24 d0 23 3c 20 96 51 3d
       0.071618915 0.14556961 0.009998355 0.05116856
000030 1f 6c 8c bc 71 d2 5a 3c 96 9d 82 bd 69 c4 68 bd
       -0.0171414 0.013355837 -0.063777134 -0.056827936
000040 1b e0 ad bd 9e 62 8c bd c3 0c d4 3d 72 bd 79 bd
       -0.0849001 -0.06854747 0.103539966 -0.060971685
000050 f2 51 15 be 21 e2 99 3d 46 98 1d bd 7b dc e7 3d
       -0.14582041 0.07513834 -0.038475297 0.1132135
000060 a5 8e 8a bd c8 4e a4 3b d9 cc 4b bd e1 d1 33 3d
       -0.067654885 0.0050142743 -0.049755905 0.043901328
000070 66 5e 96 bc cb 06 b9 bd 3c 35 9f bd 9c 0c 03 be
       -0.01835556 -0.09034499 -0.077738255 -0.12797779
000080 86 f0 16 3e bb 6e b0 3d 15 49 74 bd 14 de d3 3d
       0.1474019 0.0861487 -0.05964001 0.103450924
000090 4f dc 0d 3d 67 aa 9a bd eb ff 58 bd f1 d1 ee 39
       0.03463393 -0.07552033 -0.052978437 0.00045551316
0000a0 f8 25 80 3d 3a bf 72 3c 74 10 af bd 73 51 10 3e
       0.06257242 0.0148161 -0.0854806 0.1409357
0000b0 f8 05 e8 3d d4 ad 99 bd dc 2f 13 3e 48 4a e2 3c
       0.113292634 -0.07503858 0.14373726 0.02762331
0000c0 0c 47 d9 3d ab 8d 52 3d 32 d8 94 bd c2 1e 80 3d
       0.10609254 0.051404636 -0.072677985 0.062558666
0000d0 5d f3 cb 3d a8 d6 cd bc 03 70 94 bd cc 96 f3 3d
       0.09958527 -0.02512677 -0.07247927 0.118939966
0000e0 cd 4e 9b bd 1c 29 bd bc ee 5f 92 bd e9 ed 4c bc
       -0.075833894 -0.023090892 -0.071472034 -0.012507894
0000f0 5a 40 d8 3d 83 b5 70 bd c5 84 e3 3d 48 01 8d bd
       0.10559149 -0.058766853 0.11109308 -0.0688501

critic.4.weight f4 [1, 64]
000000 ed c0 cd 3d f9 6a a0 bd 02 03 38 3d 11 bb 99 bd
       0.10046563 -0.078329034 0.044924743 -0.07506383
000010 30 dc a6 3d 6b 14 14 3e 8f 56 cf bd b0 88 ca bd
       0.08147466 0.14460914 -0.101239316 -0.09889352
000020 02 c3 70 bd b9 fa e0 bc 39 b5 49 bc 01 25 18 be
       -0.058779724 -0.027463304 -0.012311273 -0.14857866
000030 07 b6 5d 3d 4c d9 fe bd 5a 24 9e bd 90 61 47 3c
       0.054128673 -0.1244379 -0.07721777 0.012169257
000040 52 5a df bd 2c 9d 43 3d ca 95 11 be 67 52 0a be
       -0.10905899 0.047757313 -0.14217296 -0.13507996
000050 f9 ba 7b 3d 1a 98 51 3d 13 34 58 be e5 df 26 be
       0.061457608 0.051170446 -0.21113615 -0.16296346
000060 f5 65 0a 3c d1 cd 02 bd 9d 64 33 3e 07 97 96 bd
       0.00844716 -0.031934563 0.1751885 -0.07353025
000070 f8 0e db bd 9b 5a 23 3e e4 b8 c7 3d 53 46 a1 3d
       -0.106962144 0.15952532 0.09752062 0.078747414
000080 1d b2 e6 bd 79 79 58 be b1 ba 1f 3e f3 b3 81 bd
       -0.11264441 -0.21140088 0.15598561 -0.06333151
000090 f1 e0 0e be 86 08 c6 3d 2d 98 09 3e 34 fb 76 3d
       -0.13952996 0.096695945 0.13436957 0.06029816
0000a0 9b ab 9a 3c d9 d5 0e be db f5 0b 3d e1 d1 96 be
       0.018880656 -0.13948764 0.034170013 -0.29457
0000b0 d6 ea 7c be 62 3a 15 bd dc 29 20 be 02 42 88 bc
       -0.24698958 -0.03643263 -0.15640968 -0.016633037
0000c0 8c 31 28 3e b0 f1 85 3d 62 72 82 bd 96 67 c0 bd
       0.1642515 0.06540239 -0.06369473 -0.093947574
0000d0 1a b9 e3 bd fe d6 6b 3e 4b a8 f7 bd 63 63 50 bd
       -0.1111929 0.23031232 -0.12092646 -0.050876033
0000e0 81 0e 0c bd ac 11 c0 3d 8e b1 b0 3c 8c 65 1f 3d
       -0.03419352 0.09378371 0.02156904 0.038915202
0000f0 96 df 46 be 03 99 93 3d 06 06 96 3c e3 a7 c8 bd
       -0.19421229 0.07206919 0.01831342 -0.09797647
