mario_kart/runs/ppo_2025-03-25_17-28-09/ppo_2025-03-25_17-28-09.pth (torch, 42994 bytes, 11 tensors)

actor.0.weight f4 [64, 7]
0	0xbe2d7e07	-0.16942607
1	0x3d9db186	0.076998755
2	0x3eb692c2	0.35658842
3	0x3e80e9ad	0.2517828
4	0x3e54b288	0.2077123
5	0x3bbd4f4e	0.005777276
6	0xbe2f7805	-0.17135628
7	0x3d88f187	0.06686693
8	0x3e4947e4	0.1965633
9	0xbec683de	-0.38772482
10	0xbe0b27bd	-0.13589378
11	0xbe1188ba	-0.14212313
12	0x3df7e63a	0.12104459
13	0xbec57d60	-0.38572216
14	0x3ea3c380	0.31985092
15	0x3e5c564c	0.21517295
16	0xbe861dcf	-0.26194617
17	0xbdb70221	-0.08935953
18	0xbdd4877e	-0.103774056
19	0x3e827444	0.2547933
20	0x3e557862	0.20846704
21	0xbe886ef4	-0.2664715
22	0x3d9ad942	0.0756097
23	0x3e8758c5	0.26434913
24	0xbe988da0	-0.2979555
25	0x3d52e4ae	0.051487617
26	0x3ebf539d	0.3736848
27	0x3eda6274	0.4265324
28	0xbea5ded4	-0.32396567
29	0x3e0caaf2	0.13737085
30	0xbe4421ca	-0.19153515
31	0x3e9bd988	0.304394
32	0xbde00a58	-0.10939473
33	0xbe49d522	-0.1971021
34	0x3ebd918f	0.37025115
35	0x3da157bc	0.07878062
36	0x3d3b3c09	0.04571155
37	0x3e66d0bf	0.22540568
38	0xbe70107e	-0.23443791
39	0xbe8a4b1f	-0.27010438
40	0xbea317e8	-0.31854177
41	0xbe905b31	-0.28194574
42	0xbecd795a	-0.40131646
43	0xbdc455df	-0.09586691
44	0xbe38c834	-0.18045121
45	0x3e00dd5c	0.12584442
46	0xbd9f03ee	-0.077644214
47	0x3e5a9b5e	0.2134833
48	0x3d681e9e	0.056669824
49	0x3bb8e9d5	0.0056431093
50	0x3ecaddf8	0.39622474
51	0xbeb84e32	-0.35997158
52	0x3ead6a11	0.33869985
53	0x3e1cd1a3	0.15314345
54	0x3e8a25ba	0.26981908
55	0x3ea4acb4	0.32163012
56	0xbce84f0a	-0.028358001
57	0xbe20d64d	-0.1570675
58	0x3ea37c86	0.3193094
59	0xbe9f1303	-0.31069192
60	0xbe2c0a04	-0.16800696
61	0x3e81473e	0.25249666
62	0xbe1f5e92	-0.1556342
63	0xbd923d94	-0.07140651
64	0xbe13b223	-0.14423423
65	0xbaeee4a0	-0.0018226095
66	0xbe9a8009	-0.30175808
67	0xbe24f2de	-0.16108271
68	0x3d64a921	0.055825356
69	0xbe43c1c9	-0.19116892
70	0x3e19dd8b	0.15025918
71	0xbd85546c	-0.06510243
72	0x3d67f3ca	0.05662898
73	0xbdcb7a5e	-0.09935449
74	0xbe16a6a4	-0.14712006
75	0x3ca3238d	0.019914413
76	0x3e7c74cd	0.24653931
77	0x3eb7f0ca	0.35925895
78	0x3c5499da	0.012976134
79	0xbe97d8ef	-0.29657695
80	0x3eba4989	0.36384228
81	0x3ec40010	0.38281298
82	0xbd9356ca	-0.07194288
83	0xbe1479f6	-0.1449965
84	0xbe74b1f4	-0.23896009
85	0xbdaf5422	-0.08560969
86	0xbdb53c2f	-0.0884937
87	0x3e57d244	0.21076304
88	0x3e8fde7d	0.28099433
89	0xbdcff718	-0.10154551
90	0x3eb57558	0.3544109
91	0x3e98794d	0.29780045
92	0xbe591953	-0.21201067
93	0xbe3852b3	-0.18000297
94	0x3e4aaea6	0.19793186
95	0xbe3918cd	-0.18075867
96	0xbef609d2	-0.48054367
97	0xbe963454	-0.29336798
98	0x3dc42bca	0.095786646
99	0x3b85e3ad	0.004085979
100	0xbd916a66	-0.07100372
101	0xbdd439f4	-0.10362616
102	0xbe60c19d	-0.21948858
103	0xbeb88d7d	-0.36045447
104	0x3d04c147	0.032410886
105	0xbd7b64b1	-0.061375324
106	0xbece64d0	-0.4031129
107	0xbe63a679	-0.22231473
108	0x3e971a5d	0.295123
109	0xbe84611e	-0.25855345
110	0x3db64334	0.08899537
111	0x3e990f99	0.29894713
112	0x3e7e09ac	0.24808377
113	0x3ea6114c	0.3243507
114	0xbe973019	-0.29528883
115	0x3e7d7c81	0.24754526
116	0xbde08626	-0.10963087
117	0x3d01eb2f	0.03171843
118	0x3e457510	0.19282937
119	0x3e95b54f	0.2923989
120	0x3d1055de	0.03523814
121	0xbdb50d29	-0.08840401
122	0x3eb1d4b4	0.34732592
123	0xbba8d5d6	-0.0051524444
124	0xbe183389	-0.14863409
125	0xbeafeb25	-0.3435909
126	0x3bc2b077	0.0059414464
127	0x3daedb69	0.08537943
128	0x3e54689b	0.20743029
129	0xbe7dc9d1	-0.24784018
130	0xbe96dd1b	-0.29465565
131	0xbc912494	-0.017717637
132	0x3e346898	0.17618024
133	0x3beefa8d	0.0072930516
134	0xbe331881	-0.17489816
135	0xbeebcdbb	-0.46055397
136	0xbeb615e3	-0.35563573
137	0x3e3aa6ac	0.18227643
138	0xbe907012	-0.28210503
139	0x3e17d29f	0.1482644
140	0xbda9eeed	-0.082975246
141	0xbe3e7a4c	-0.1860134
142	0xbd5a13d3	-0.053241562
143	0xbcde05d2	-0.027102385
144	0xbe817850	-0.25287104
145	0x3ea4709c	0.32117164
146	0x3e9373f8	0.28799415
147	0xbe04cf09	-0.12969603
148	0x3b846e33	0.004041457
149	0x3e441ebf	0.19152354
150	0x3e96eedb	0.29479107
151	0x3e7035d9	0.23458041
152	0xbe9ee669	-0.31035164
153	0x3ea01a93	0.31270275
154	0xbe6457e7	-0.22299157
155	0xbe19c6aa	-0.1501719
156	0xbbd5e81f	-0.006527915
157	0xbe4694fb	-0.19392769
158	0xbe9a49a7	-0.30134317
159	0x3e9ac775	0.302303
160	0xbe28d3a4	-0.16486984
161	0xbe0ff58c	-0.14058512
162	0xbe5a883c	-0.21341032
163	0x3e8b9a29	0.27266052
164	0xbd9e450f	-0.07728016
165	0x3e56ddd1	0.20983054
166	0xbdc41706	-0.09574704
167	0x3ea7befe	0.32762903
168	0x3e983bdd	0.29733172
169	0x3e90bf22	0.28270823
170	0xbe539997	-0.20664059
171	0x3e90fbb2	0.28317028
172	0xbe8c1723	-0.27361402
173	0xbe8d00e7	-0.2753975
174	0xbe9419bd	-0.28925887
175	0x3ac0646c	0.0014678366
176	0xbece1084	-0.40246975
177	0x3e07cd0d	0.13261814
178	0xbe864f74	-0.26232493
179	0x3ea9ae1e	0.33140653
180	0x3dc650c0	0.096833706
181	0xbe6e940e	-0.23298666
182	0xbd22662b	-0.039648216
183	0x3ddd8ef3	0.10818281
184	0xbe7b982d	-0.24569769
185	0x3e890d26	0.26767844
186	0xbd8aa215	-0.06769196
187	0x3ef09303	0.4698716
188	0xbe2404e5	-0.16017492
189	0x3d88fb78	0.06688589
190	0xbeb0b1bd	-0.34510604
191	0x3e4cbd68	0.19994128
192	0x3b9c6246	0.0047724573
193	0x3e33f407	0.17573558
194	0xbd4c283c	-0.049843058
195	0x3c8b4694	0.017001428
196	0x3e1c1ea1	0.15246059
197	0x3ed14ded	0.40879765
198	0x3c8ab6cd	0.01693287
199	0x3dde82dd	0.10864804
200	0xbe51261b	-0.20424692
201	0x3e9127b0	0.28350592
202	0xbdaf0e7d	-0.08547685
203	0x3e038f71	0.12847687
204	0xbc190636	-0.00933986
205	0xbdf4f37e	-0.11960505
206	0x3e83366e	0.25627464
207	0x3ec36057	0.3815944
208	0x3ee99e6e	0.45628685
209	0x3e6bb623	0.23018698
210	0xbdfc12f8	-0.123083055
211	0x3d8e199d	0.06938479
212	0x3ec0eb17	0.3767936
213	0x3e3045b5	0.17214091
214	0x3edc4262	0.43019396
215	0x3dd5f757	0.10447567
216	0xbe78844d	-0.24269219
217	0xbcd70150	-0.026245743
218	0xbe1a9679	-0.15096463
219	0xbebf8853	-0.37408695
220	0x3e1afbc7	0.15135108
221	0x3d128a7a	0.035776593
222	0x3e982000	0.29711914
223	0x3eb64b2e	0.35604233
224	0x3e040f76	0.12896523
225	0x3e124f97	0.14288174
226	0xbe6fa49a	-0.23402634
227	0xbe736776	-0.23769936
228	0xbe5fe646	-0.21865186
229	0xbd9fd198	-0.07803649
230	0x3d9670a4	0.07345703
231	0x3d33e1c8	0.043916494
232	0x3e0dd665	0.13851316
233	0xbe0a9568	-0.13533556
234	0x3dc8789b	0.09788629
235	0x3d9a8efa	0.07546802
236	0xbe822823	-0.25421247
237	0x3dd4c06b	0.10388263
238	0xbe079dfc	-0.1324386
239	0x3c882181	0.016617538
240	0xbbc117f0	-0.005892746
241	0xbe8f0eb6	-0.2794091
242	0x3df9f5f8	0.12205118
243	0xbc47a2ce	-0.012184812
244	0xbd7c10e9	-0.061539564
245	0x3ee9db3a	0.4567507
246	0x3d5f190a	0.05446724
247	0xbd99ab3f	-0.07503366
248	0x3e3510e4	0.17682225
249	0x3ec5e601	0.38652042
250	0x3e34ee36	0.17668995
251	0x3e97ad07	0.29624197
252	0x3cc34150	0.023834854
253	0x3dc754d7	0.09732979
254	0xbe840cd7	-0.25791046
255	0x3ecf9536	0.40543526

actor.0.bias f4 [64]
0	0x3e66d4e2	0.22542146
1	0x3e090dce	0.13384172
2	0xbe51ca61	-0.20487358
3	0xbe64b47a	-0.22334471
4	0x3e5ce87b	0.2157306
5	0x3e0cbe50	0.13744473
6	0x3d4c4263	0.049868
7	0xbe4e9c84	-0.20176893
8	0x3e93673d	0.28789702
9	0x3cec4cfc	0.028845303
10	0x3e9f399b	0.31098637
11	0xbe1a6aa5	-0.15079744
12	0x3e1173c2	0.14204314
13	0xbe55c11b	-0.20874445
14	0xbe79c7c9	-0.24392618
15	0xbd2363c1	-0.039890055
16	0xbdf6ae22	-0.12044932
17	0xbe823416	-0.25430363
18	0xbe0caa60	-0.13736868
19	0xbcac9132	-0.021065328
20	0xbcc7509e	-0.024330433
21	0xbe2fcd29	-0.17168106
22	0xbdaa5335	-0.08316652
23	0xbe3d88fe	-0.1850929
24	0x3eae1099	0.33997038
25	0x3e4b4623	0.19850974
26	0xbe784596	-0.24245295
27	0x3c0c1003	0.008548739
28	0x3e1292ee	0.14313862
29	0x3ee4067e	0.44536203
30	0x3ebd1f37	0.36937878
31	0x3dc3e975	0.09566013
32	0xbe8ed80a	-0.278992
33	0xbd68d19d	-0.056840528
34	0x3dbf42e5	0.09338931
35	0xbe85a727	-0.2610409
36	0xbe9ba442	-0.30398756
37	0xbdda7378	-0.10666555
38	0x3e2456ae	0.1604869
39	0x3d800d7e	0.062525734
40	0x3e026720	0.12734652
41	0x3d06a71b	0.032874208
42	0x3cc12ee9	0.023581939
43	0xbe69f344	-0.22846705
44	0xbeadc3c1	-0.3393841
45	0x3e9ab4b5	0.30215994
46	0xbed42c33	-0.4143997
47	0xbd8941e1	-0.067020185
48	0xbdd89d3f	-0.10576867
49	0xbd7546d2	-0.059881993
50	0x3eaee26f	0.3415713
51	0xbe5140cd	-0.20434876
52	0x3db27051	0.08712829
53	0xbe8acd7f	-0.27109906
54	0xbe053bfa	-0.1301116
55	0x3e4a0123	0.19726996
56	0x3d6cb859	0.057792995
57	0xbc9df76a	-0.019283015
58	0x3e21531b	0.15754358
59	0x3e9dbc65	0.30807796
60	0xbdf0f914	-0.11766258
61	0xbe7026a2	-0.23452237
62	0x3d20fb36	0.039302073
63	0xbbdc0868	-0.0067148693

actor.2.weight f4 [64, 64]
0	0xbc84386e	-0.016140189
1	0x3de87151	0.113497384
2	0xbc7e9c50	-0.0155401975
3	0xbd5e771e	-0.054312818
4	0xbd5b5215	-0.053545076
5	0xbd065aac	-0.032801315
6	0x3c41a63c	0.0118194185
7	0x3dfea989	0.1243468
8	0x3dc54daf	0.096339576
9	0x3d057c2b	0.03258912
10	0xbe1bca7b	-0.15213959
11	0xbd606463	-0.054783236
12	0xbd2fa116	-0.042878233
13	0x3d21c0a1	0.039490346
14	0x3dbc07cc	0.09181175
15	0xbd8d45e9	-0.068981
16	0xbd7425eb	-0.059606474
17	0xbe64c1dd	-0.22339578
18	0x3cb0469d	0.021518046
19	0xbd9e5abe	-0.077321514
20	0xbd41caf0	-0.047312677
21	0x3d0540db	0.032532554
22	0x3df6b0db	0.12045451
23	0x3d51c87f	0.0512166
24	0x3de0736e	0.109595165
25	0xbd1fd350	-0.039019883
26	0xbd003769	-0.031302843
27	0x3dc0a166	0.09405784
28	0x3c0642b0	0.0081946105
29	0x3dfff3ca	0.12497671
30	0xbdbec551	-0.09314979
31	0x3dec113d	0.115267254
32	0x3de65704	0.11247066
33	0x3d8d2f24	0.06893757
34	0x3cdcd706	0.026958
35	0x3d6d400d	0.05792241
36	0x3ce04fd3	0.027381813
37	0x3ce2ed0a	0.02770092
38	0xbe42a5ed	-0.19008608
39	0xbd6506b4	-0.055914596
40	0x3dd74f77	0.105132036
41	0xbc331795	-0.010930915
42	0x3e0c0b2c	0.13676137
43	0x3d9c40ed	0.07629571
44	0xbd10e6cf	-0.035376366
45	0x3d975d00	0.07390785
46	0x3ddd0761	0.10792423
47	0x3c09f23a	0.008419568
48	0xbd01ff45	-0.031737585
49	0x3e0344ce	0.12819216
50	0x3d5be1aa	0.053682007
51	0x3d006b66	0.031352423
52	0xbda46bf4	-0.08028403
53	0x3c95e301	0.01829672
54	0xbdb217e0	-0.0869596
55	0xbe156bfd	-0.14591976
56	0xbde19182	-0.110140815
57	0x3d86959b	0.06571504
58	0x3e0b233e	0.13587663
59	0xbd8c19cd	-0.068408586
60	0x3e058f68	0.13042986
61	0xbdc95982	-0.098315254
62	0x3cf53b10	0.02993539
63	0xbd178bbd	-0.0369985
64	0x3d80a785	0.06281952
65	0x3dc7efc8	0.097625315
66	0x3da979bc	0.08275172
67	0x39f1d2ae	0.0004612407
68	0xbe02cfe4	-0.12774616
69	0xbcbeb4b2	-0.023279522
70	0x3d9c70eb	0.07638725
71	0xbc571760	-0.013128132
72	0xbc8d6730	-0.017261118
73	0xbd85dd53	-0.06536355
74	0x3d826379	0.06366629
75	0x3dce000a	0.10058601
76	0x3d85b951	0.06529487
77	0xbca43646	-0.02004541
78	0xbd0765a9	-0.033055935
79	0x3df63d37	0.120233946
80	0x3deffbf0	0.11717975
81	0x3da3a187	0.07989793
82	0xbdb9d91f	-0.09074616
83	0x3d8332e9	0.06406195
84	0xbd3c4516	-0.045964323
85	0xbdb01a97	-0.085988216
86	0xbd493fe5	-0.0491332
87	0x3dc51b6f	0.09624373
88	0xbddfb8ed	-0.10923944
89	0x3b935689	0.0044964
90	0xbd3f56e6	-0.046713732
91	0xbdcd80a7	-0.10034304
92	0xbe01c0f7	-0.12671266
93	0xbddbdc65	-0.10735396
94	0xbd8debc0	-0.06929731
95	0xbdcecdcc	-0.100978464
96	0x3d384d7f	0.04499578
97	0x3a2547ec	0.00063049677
98	0xbd32ba1f	-0.04363453
99	0x3d43eb05	0.047831554
100	0xbe42282f	-0.18960641
101	0xbe16b7cd	-0.14718552
102	0x3d6c263d	0.057653654
103	0x3d7eea51	0.06223518
104	0x3ce3f80b	0.027828237
105	0xba280bda	-0.00064104574
106	0xbdad5c03	-0.084648155
107	0x3d8d289e	0.06892513
108	0x3c389066	0.011264896
109	0x3dd9389c	0.106065005
110	0x3cdcee97	0.026969237
111	0x3df6be35	0.12047998
112	0x3e1d7c5f	0.15379475
113	0x3dfa42fc	0.122198075
114	0xbdd2702b	-0.102753006
115	0xbc9f29cf	-0.019429116
116	0xbc8f5db7	-0.017500741
117	0x3d8d50ad	0.06900153
118	0x3da6599a	0.08122559
119	0xbda4617a	-0.08026405
120	0x3e08e895	0.13369973
121	0xbca875b8	-0.020563945
122	0xbdad8d23	-0.08474185
123	0x3d3b3621	0.04570592
124	0xbd5a0a85	-0.05323269
125	0xb6be6e69	-5.6752947e-06
126	0x3d743aa6	0.059626244
127	0xbde11acb	-0.109914385
128	0x3cf98351	0.030458124
129	0x3db7f362	0.089819685
130	0x3cb9b5a2	0.022669617
131	0x3daedada	0.085378364
132	0x3d9fbfc3	0.078002475
133	0xbdf337e5	-0.118758954
134	0xbcc9d4ff	-0.024637697
135	0x3d3ec84b	0.046577733
136	0x3b91312b	0.00443091
137	0x3de4e2c4	0.111760646
138	0x3e035702	0.1282616
139	0xbd5591c9	-0.052140985
140	0xbdc94c98	-0.09829062
141	0x3e109ae8	0.14121592
142	0xbde408b8	-0.111344755
143	0x3da7ec8b	0.08199414
144	0xbcc40cae	-0.023931827
145	0x3d7ce190	0.06173855
146	0x3bf41b89	0.0074495715
147	0x3bbbf156	0.0057355566
148	0x3dc0b87b	0.09410187
149	0x3dda3c1f	0.106559984
150	0xbd3b23b7	-0.045688357
151	0x3d6cb049	0.057785306
152	0x3cd42149	0.025894778
153	0xbd693f60	-0.056945205
154	0x3c9a55a6	0.018839668
155	0xbe036b9c	-0.12834018
156	0xbd32b2ff	-0.043627735
157	0xbd922b28	-0.07137138
158	0x3de49384	0.11160949
159	0xbe2cb901	-0.16867448
160	0xbd98c3a6	-0.07459192
161	0xbe24d71c	-0.16097683
162	0xbe11574f	-0.14193462
163	0xbe01d64e	-0.12679407
164	0xbe31a837	-0.17349325
165	0xbdade837	-0.08491557
166	0x3e22dc29	0.15904297
167	0x3e073b9b	0.13206331
168	0xbdacd1ff	-0.08438491
169	0x3c4270f9	0.011867755
170	0x3ccfa41d	0.02534681
171	0xbc170f36	-0.009219935
172	0xbdb220fa	-0.08697696
173	0x3c5ce639	0.013482624
174	0xbd5c1a6e	-0.053736143
175	0xbdb1f4e6	-0.08689289
176	0xbd2377f1	-0.039909307
177	0xbbbe9344	-0.0058158953
178	0x3d4a39d1	0.049371544
179	0x3db510ad	0.08841071
180	0x3d16f5fe	0.03685569
181	0xbdd1580c	-0.10221872
182	0xbb9ddf83	-0.0048179044
183	0x3e02e6a9	0.12783302
184	0x3d8ea25d	0.06964562
185	0x3d890dbb	0.06692072
186	0xbe274501	-0.16334917
187	0x3e2b53f0	0.16731238
188	0xbddaf4e7	-0.10691243
189	0xbc18255d	-0.009286252
190	0xbdec35e9	-0.1153372
191	0x3db75cc6	0.08953242
192	0x3d8f279f	0.06989979
193	0xbdcc6413	-0.09980025
194	0xbcb78ec0	-0.022406936
195	0xbda09047	-0.07840019
196	0x3b993986	0.004676047
197	0x3d8ba747	0.06819015
198	0xbd7bcb6b	-0.06147329
199	0xbc8431c6	-0.016137015
200	0x3bed751f	0.007246628
201	0xbd9ce48c	-0.07660779
202	0x3c39bea3	0.011336955
203	0xbbab5b96	-0.0052294238
204	0x3d0877b0	0.033317268
205	0xbcd3e07e	-0.025863882
206	0x3da82f17	0.08212107
207	0xbe2cee03	-0.1688767
208	0xbded0fe1	-0.11575294
209	0xbdac192b	-0.08403238
210	0xbccd8316	-0.02508692
211	0xbdbad0c8	-0.09121853
212	0xbc33f3a0	-0.010983378
213	0x3dfae317	0.12250345
214	0xbc6770c1	-0.014126004
215	0x3d6c8439	0.057743285
216	0xbe04a3c2	-0.12953094
217	0xbcb18581	-0.021670105
218	0xbddf31d0	-0.10898173
219	0x3e03630e	0.12830755
220	0x3db43a5c	0.08800194
221	0xbd61878f	-0.05506092
222	0xbc6dc94a	-0.014513323
223	0x3ca359f8	0.019940361
224	0x3c4574da	0.012051785
225	0x3cbca1a4	0.023026295
226	0x3da126d6	0.078687355
227	0xbd1e030a	-0.038577117
228	0x3e46a6f9	0.19399633
229	0x3d81301e	0.06308006
230	0xbd9b7d3c	-0.07592246
231	0x3d04b73d	0.032401312
232	0xbd79463d	-0.060858
233	0xbd784321	-0.060610894
234	0xbcfb6ab7	-0.030690534
235	0x3df5bd4c	0.11998996
236	0xbd8aa385	-0.0676947
237	0x3db8a444	0.09015706
238	0x3dd3483a	0.103165105
239	0x3db58966	0.08864097
240	0xbdea4252	-0.11438431
241	0x3dff57b8	0.12467903
242	0x3ddf5878	0.10905546
243	0xbdf558c3	-0.119798206
244	0xbc8602a3	-0.01635868
245	0x3da4ae97	0.08041113
246	0xbdb13164	-0.08651999
247	0x3df9fded	0.122066356
248	0x3d42b61d	0.047536958
249	0x3da311b6	0.079623625
250	0xbd435928	-0.047692448
251	0x3d7e9c18	0.06216058
252	0x3da98b0c	0.08278474
253	0xbc27bcdd	-0.0102379
254	0x3d58229c	0.05276738
255	0xbdf0c48b	-0.117562376

actor.2.bias f4 [64]
0	0x3dbd249a	0.09235497
1	0x3dc44d91	0.09585107
2	0xbc94c8b4	-0.018162109
3	0x3d3a327f	0.045458313
4	0x3c64ae41	0.013957561
5	0xbd415495	-0.047199804
6	0x3de308b7	0.110856466
7	0x3dd4dca0	0.103936434
8	0xbdf86b43	-0.121298335
9	0x3d9902d6	0.07471244
10	0x3b5f2c5b	0.0034053538
11	0xbdd9a5fc	-0.10627362
12	0x3daddd28	0.08489448
13	0x3d6e1ecc	0.05813484
14	0x3d53a285	0.051668663
15	0xbd081457	-0.033222523
16	0x3d40a1b5	0.047029216
17	0x3d65cf2c	0.056105778
18	0x3df3951c	0.11893675
19	0x3d8c3f50	0.068480134
20	0x3dce8a4f	0.10084974
21	0xbddea411	-0.10871137
22	0x3a858858	0.0010187728
23	0xbc106dbc	-0.008815225
24	0x3dc79c79	0.09746642
25	0xbdb2043b	-0.08692213
26	0xbd4d2551	-0.050084416
27	0xbd8d733c	-0.06906745
28	0xbddb5e34	-0.10711327
29	0x3daa6f7a	0.08322044
30	0xbda1f802	-0.07908632
31	0xbc889737	-0.016673667
32	0x3dd19c65	0.10234908
33	0xbd5a991d	-0.053368676
34	0xbd9e910e	-0.07742511
35	0x3da83772	0.082137
36	0x3cfeb270	0.031090945
37	0xbdf09410	-0.11746991
38	0xbdd11774	-0.102095515
39	0x3d3c3595	0.045949537
40	0xbc3bd8d6	-0.011465272
41	0x3d8e1738	0.069380224
42	0xbdca22d7	-0.098699264
43	0xbd89ab5e	-0.06722139
44	0xbd403a6e	-0.046930723
45	0x3d9f5e2a	0.07781632
46	0x3d5ddf89	0.054168258
47	0x3d70345a	0.058643676
48	0x3ddc2096	0.10748403
49	0x3d606c0f	0.054790553
50	0xbd87b60f	-0.06626522
51	0xbe00b0ae	-0.12567398
52	0x3d9b49be	0.075824246
53	0x3de9b401	0.11411286
54	0xbd0e2775	-0.034705598
55	0xbde23cd2	-0.11046757
56	0x3ddf621d	0.109073855
57	0xbdcaee18	-0.09908694
58	0xbbc6cc81	-0.0060668592
59	0x3def59c2	0.11687042
60	0x3d408edf	0.047011252
61	0x3e031560	0.12801123
62	0x3d0511bf	0.032487627
63	0x3d7d7dff	0.061887737

actor.4.weight f4 [2, 64]
0	0x3e4ffda9	0.20311607
1	0xbd4c045c	-0.049808845
2	0xbe06abfd	-0.13151546
3	0x3db620b1	0.08892954
4	0xbeb3f083	-0.35144433
5	0xbd16e1f8	-0.036836594
6	0x3e8a21f9	0.26979044
7	0xbe2a6d77	-0.1664332
8	0x3cb5c29b	0.022187522
9	0xbcebf515	-0.028803388
10	0xbc8f7d99	-0.017515944
11	0xbe86034f	-0.261744
12	0x3e4e5e8a	0.20153251
13	0xbd7153df	-0.058917876
14	0x3d1872ea	0.037218966
15	0x3d2c444c	0.04205732
16	0xbe0f0d9c	-0.13970035
17	0xbd7dc91d	-0.061959375
18	0x3e0b3489	0.1359426
19	0xbd77795f	-0.060418483
20	0x3e014a11	0.1262591
21	0xbe9d2516	-0.30692357
22	0x3c875b4c	0.016523026
23	0xbe2430a9	-0.16034187
24	0x3dbac6ac	0.09119925
25	0xbd9bccd6	-0.07607429
26	0x3e0c49d4	0.13700038
27	0x3e1b1c95	0.15147622
28	0x3b826c70	0.003980212
29	0xbd62f308	-0.055407554
30	0xbc43ac26	-0.011942899
31	0x3dd244ea	0.102670506
32	0x3d3e5e55	0.04647668
33	0xbce9c414	-0.02853588
34	0xbd733143	-0.05937315
35	0x3c848f08	0.016181484
36	0xbd06117d	-0.032731522
37	0x3e968c63	0.29403982
38	0xbd22f254	-0.039781883
39	0x3e1f5669	0.15560307
40	0x3c8fffd1	0.017578037
41	0xbd34c58d	-0.04413371
42	0xbd960caf	-0.07326638
43	0xbe87d3ed	-0.26528874
44	0xbdc05e46	-0.09392981
45	0x3d9a4d02	0.07534219
46	0xbdfdfd83	-0.12401869
47	0x3d7082f8	0.05871865
48	0x3e54f3cc	0.20796126
49	0xbe337fea	-0.17529264
50	0x3dc38b72	0.095480815
51	0xbd3d9ebd	-0.046293963
52	0x3d9f4db6	0.07778494
53	0xbd177948	-0.036980897
54	0xbe620035	-0.22070391
55	0x3e6fa8d3	0.23404245
56	0xbd035a6c	-0.032068655
57	0x3df3a8fc	0.118974656
58	0xbdeaba5c	-0.114613265
59	0x3d6d147a	0.057880856
60	0x3e004a40	0.12528324
61	0xbd46708a	-0.04844717
62	0x3dce2146	0.1006494
63	0x3e2128ac	0.15738171
64	0xbd595846	-0.0530627
65	0x3e3d4651	0.18483855
66	0x3cea7f12	0.028625045
67	0xbda6318f	-0.08114921
68	0xbcf60edf	-0.030036388
69	0x3e6da635	0.23207934
70	0xbd8a256e	-0.067454204
71	0xbe045e67	-0.12926637
72	0xbdc6edf7	-0.09713357
73	0x3e180291	0.14844729
74	0x3e898865	0.26861873
75	0x3d3ddf68	0.046355635
76	0xbd75c815	-0.060005266
77	0xbdfb4c04	-0.12270358
78	0x3e3b7a16	0.18308291
79	0x3debea16	0.11519258
80	0x3e0f5db2	0.14000586
81	0xbdf072a9	-0.1174062
82	0x3d9ffa67	0.07811432
83	0xbd4fd831	-0.050743286
84	0xbe80e60e	-0.25175518
85	0x3eb74112	0.35791832
86	0x3d83032b	0.063970886
87	0x3d9d1732	0.0767044
88	0x3dd64e3e	0.10464142
89	0xbdbd9ecd	-0.092588045
90	0x3deb4f49	0.11489732
91	0xbbef028c	-0.007294005
92	0x3e18bead	0.14916487
93	0xbe7abc42	-0.24485877
94	0x3dc02e0b	0.09383782
95	0xbe294ee2	-0.16533998
96	0xbdc0ebc6	-0.0941997
97	0xbd485d2b	-0.048916977
98	0xbe025131	-0.12726285
99	0xbe887aa5	-0.2665607
100	0xbd27b0c4	-0.04094006
101	0x3dca7761	0.09886051
102	0x3de8905a	0.11355658
103	0x3e1a4825	0.15066583
104	0xbd7ed165	-0.062211413
105	0x3e5915c7	0.21199714
106	0x3d6bcfa5	0.057571072
107	0x3dd5ac3d	0.104332425
108	0x3e5721ef	0.21009038
109	0x3e3e97bf	0.18612574
110	0x3e04e689	0.12978567
111	0xbe112026	-0.1417242
112	0x3e19d604	0.15023047
113	0xbdd2c0a9	-0.10290653
114	0x3e40b0f8	0.18817508
115	0xbe167a00	-0.14694977
116	0xbe2ac2b7	-0.1667584
117	0xbe9a08c5	-0.30084816
118	0xbe79139f	-0.24323891
119	0xbe57bf94	-0.21069175
120	0x3ddacb0f	0.106832616
121	0xbe01c8c8	-0.12674248
122	0x3c30b4c0	0.010785282
123	0xbd67d4df	-0.056599494
124	0xbe02d966	-0.12778243
125	0x3dd2d6be	0.10294865
126	0xbb3aceb7	-0.002850456
127	0xbd1d76b6	-0.03844329

actor.4.bias f4 [2]
0	0xbdbe6bf9	-0.09297938
1	0x3c91448c	0.017732881

critic.0.weight f4 [64, 7]
0	0x3dfbc2f7	0.12293046
1	0x3e969078	0.29407096
2	0xbec5f852	-0.38666016
3	0xbe107db0	-0.14110446
4	0xbed4496f	-0.41462275
5	0xbebc1659	-0.367358
6	0x3db8af7e	0.090178475
7	0xbe8a7320	-0.27040958
8	0x3f20d982	0.6283189
9	0xbcea48f9	-0.02859925
10	0xbde4833a	-0.11157842
11	0xbe83be6d	-0.2573122
12	0x3dfd11c0	0.12356901
13	0x3e4bdb49	0.1990787
14	0xbdbb44a1	-0.09143949
15	0x3f285ac4	0.657635
16	0xbd4c6e0b	-0.049909633
17	0xbd6d3736	-0.05791398
18	0x3e33bd1e	0.17552611
19	0x3cf47fd0	0.029846102
20	0x3e469f63	0.19396739
21	0xbe84cba6	-0.2593662
22	0xbdd86357	-0.105658226
23	0xbe6a90e5	-0.22906835
24	0xbe85d960	-0.26142406
25	0xbe9ef05e	-0.3104276
26	0xbde8fd9a	-0.11376496
27	0xbd1bc475	-0.038029153
28	0xbf0ae737	-0.54259056
29	0x3f4f1fad	0.8090771
30	0x3c65a096	0.014015337
31	0x3ea49cd3	0.32150897
32	0xbe899703	-0.26873025
33	0x3c3888e7	0.011263109
34	0x3ea84fea	0.3287347
35	0x3f003f32	0.5009643
36	0xbf3b960b	-0.7327582
37	0xbf0e011e	-0.55470455
38	0xbca8015c	-0.02050846
39	0xbeaf7750	-0.34270716
40	0x3e6475dd	0.22310586
41	0x3e36aedd	0.17840143
42	0xbe8eaa20	-0.2786417
43	0x3ea86700	0.32891083
44	0xbea9c167	-0.33155367
45	0x3dcb5159	0.09927625
46	0xbe143f68	-0.14477313
47	0xbead36b8	-0.3383081
48	0xbde105a3	-0.10987403
49	0xbe7c8c28	-0.2466284
50	0x3bfa26e9	0.007634033
51	0xbd294653	-0.041326832
52	0x3d9c75f5	0.07639686
53	0xbe6b8d4b	-0.23003118
54	0xbe6f2ee1	-0.23357727
55	0xbe91a6bc	-0.2844752
56	0xbec95c8c	-0.3932842
57	0xbe047dfd	-0.12938686
58	0xbebeb33f	-0.3724613
59	0xbeed578e	-0.4635586
60	0x3d154f56	0.036452614
61	0xbeb2688c	-0.34845388
62	0xbd15e40e	-0.036594443
63	0xbee55b9f	-0.44796464
64	0xbe8d4a7c	-0.2759589
65	0xbe8cdf9d	-0.27514353
66	0xbeb736be	-0.35783952
67	0x3a0f6a76	0.0005470881
68	0xbe454c46	-0.19267377
69	0xbe2654f1	-0.1624334
70	0xbdb9ad48	-0.09066254
71	0xbdcf14bc	-0.10111377
72	0x3cc7a427	0.024370266
73	0x3dec097c	0.115252465
74	0xbef940a4	-0.4868213
75	0xbea14360	-0.31496716
76	0x3b0bf72a	0.0021357038
77	0x3e2bb187	0.1676694
78	0xbe87d948	-0.2653296
79	0x3e6105c4	0.21974856
80	0xbe9e38a0	-0.30902576
81	0xbe9629eb	-0.29328856
82	0xbeaa8ddd	-0.33311358
83	0xbee2ef9f	-0.4432344
84	0x3ea071dd	0.3133687
85	0xbf510ee5	-0.8166335
86	0x3d4edf06	0.05050566
87	0xbb73431a	-0.0037118853
88	0xbeaf2f40	-0.34215736
89	0x3e31950c	0.17342013
90	0x3e8a067c	0.26958072
91	0x3f349f25	0.70555335
92	0xbfcae518	-1.5851164
93	0x3e4eac99	0.20183028
94	0x3d8e35a0	0.06943822
95	0xbdca1bae	-0.09868561
96	0xbd4a738c	-0.0494266
97	0xbe6ac4c0	-0.22926617
98	0xbef0b350	-0.47011805
99	0x3f89c6ff	1.0763854
100	0xbeb4a820	-0.3528452
101	0xbe0b1164	-0.13580853
102	0x3e63adeb	0.22234313
103	0xbca8de64	-0.020613857
104	0xbe533ea6	-0.20629367
105	0x3e210cae	0.15727493
106	0x3ec95ea9	0.39330032
107	0xbe9b2de8	-0.3030846
108	0xbc888a1e	-0.016667422
109	0xbd6898b2	-0.056786247
110	0x3d01f238	0.03172514
111	0xbea5f440	-0.3241291
112	0xbf07687a	-0.52893794
113	0xbe7da470	-0.24769759
114	0xbd984f5a	-0.0743701
115	0x3dad1b49	0.0845247
116	0xbca75d42	-0.020430211
117	0x3d99a574	0.07502261
118	0x3ef2f77b	0.47454438
119	0xbca23f7c	-0.019805662
120	0xbcc37a73	-0.0238621
121	0xbee4aea0	-0.44664478
122	0x3e84d5f2	0.25944477
123	0xbe968fef	-0.29406688
124	0xbe4f5b50	-0.20249677
125	0xbe29b22a	-0.1657187
126	0x3e12b326	0.14326152
127	0xbe5922fa	-0.21204749
128	0xbd880884	-0.06642249
129	0x3ed39377	0.41323444
130	0xbbc568a4	-0.006024437
131	0x3eb4034e	0.3515877
132	0x3e4431e5	0.19159658
133	0x3f08502b	0.53247327
134	0x3f96e7e9	1.1789523
135	0xbe8a911d	-0.27063838
136	0x3da59b88	0.08086306
137	0x3dc3000e	0.09521495
138	0xbacd4f08	-0.0015663812
139	0xbddb3d3b	-0.10705038
140	0x3f0207d2	0.5079318
141	0xbf43b6ea	-0.7645098
142	0xbcae0eb0	-0.021247238
143	0xbe78ee06	-0.24309549
144	0xbe7722f3	-0.24134426
145	0xbcea2c15	-0.028585473
146	0x3b8ad42c	0.0042367186
147	0xbd67c8c6	-0.056587957
148	0x3dc81e91	0.09771455
149	0xba901758	-0.0010993285
150	0x3ddebedf	0.108762495
151	0x3cbf4ffd	0.023353571
152	0x3d605878	0.05477187
153	0x3e1c0e06	0.15239725
154	0x3ead3229	0.33827332
155	0x3f993a98	1.1971006
156	0x3e5550f3	0.20831661
157	0xbe1e0bd6	-0.15434203
158	0xbc8f92cc	-0.017526053
159	0xbe1331ba	-0.14374438
160	0x3eae8d79	0.3409231
161	0x3ecb4a12	0.3970495
162	0x3e2ff834	0.17184526
163	0x3ee30f9c	0.44347847
164	0xbe4b20c8	-0.19836724
165	0xbb920b72	-0.004456931
166	0x3ebd4290	0.36964846
167	0x3ea947dc	0.33062637
168	0x3d9a1282	0.07523061
169	0x3f82ffc0	1.0234299
170	0xbe35d408	-0.17756665
171	0x3e4c641d	0.19960065
172	0xbd8d5d63	-0.06902578
173	0x3eea53e3	0.45767125
174	0xbcaa3b64	-0.020780273
175	0xbf89795c	-1.0740161
176	0x3ef62f0a	0.48082763
177	0x3eb072ba	0.3446253
178	0xbca020d1	-0.019546898
179	0xbe3af2e1	-0.18256713
180	0x3e3b2018	0.18273962
181	0x3e570d63	0.210012
182	0x3dd6c386	0.10486512
183	0xbe554d6d	-0.20830317
184	0xbe885cba	-0.26633245
185	0xbeb35eb3	-0.35033187
186	0x3e7c9737	0.24667059
187	0xbe8944c7	-0.26810285
188	0x3e88b5c8	0.26701188
189	0x3ee3a24a	0.44459754
190	0x3d98588d	0.07438765
191	0x3f0b27cc	0.543576
192	0x3ef5621b	0.4792641
193	0xbce4648e	-0.02787998
194	0xbe63a74b	-0.22231786
195	0xbc6cbad1	-0.014448837
196	0xbd842a17	-0.064533405
197	0x3bb8357b	0.0056216097
198	0x3de176da	0.11008997
199	0xbeb1cffd	-0.34728995
200	0x3e5bea17	0.21476017
201	0x3e8d5eed	0.27611485
202	0x3a82dffd	0.0009984967
203	0x3df92e35	0.121670164
204	0x3f16324a	0.58670485
205	0xbed44098	-0.4145553
206	0x3e879180	0.26478195
207	0xbdb53f87	-0.088500075
208	0xbde3051d	-0.1108496
209	0xbdc6716c	-0.09689602
210	0x3f4cb2a6	0.79960096
211	0x3f5082dd	0.8144968
212	0x3d3ff8f7	0.04686829
213	0xbd53b37c	-0.05168484
214	0x3db02735	0.08601228
215	0xbe47f175	-0.19525702
216	0x3c1c5a5e	0.00954303
217	0xbd75f213	-0.060045313
218	0x3f29ac3d	0.6627844
219	0xbe2df1c0	-0.16986752
220	0x3e9d536c	0.30727708
221	0xbe0fc8ce	-0.14041445
222	0xbd09964e	-0.033590607
223	0x3d9d46fc	0.07679555
224	0xbe84ae61	-0.2591429
225	0xbc98c9c4	-0.018650897
226	0x3e8f9729	0.28045014
227	0xbe25cd09	-0.16191496
228	0xbd47e186	-0.04879906
229	0xbe485379	-0.19563092
230	0x3ebf0589	0.3730891
231	0x3e77c7a0	0.24197245
232	0x3e9cb167	0.30604097
233	0x3e0fc5fb	0.14040367
234	0x3dd3afd2	0.103362694
235	0xbb422e28	-0.0029629562
236	0xbe77b30c	-0.24189395
237	0xbdeed4ad	-0.116616584
238	0xbf3a68ac	-0.72815967
239	0x3f8a64b9	1.0811988
240	0x3e3a1364	0.1817146
241	0xbd8bb076	-0.06820767
242	0x3e56ff35	0.20995791
243	0x3d99483b	0.0748448
244	0xbe9c4e89	-0.30528668
245	0xbe9056fb	-0.2819136
246	0xbd82f2a9	-0.0639394
247	0x3d4d2fb2	0.050094314
248	0xbe869d61	-0.26291946
249	0xbe85dae5	-0.26143566
250	0xbe2b3a40	-0.1672144
251	0x3cf2a605	0.02962018
252	0x3e3a56b9	0.18197145
253	0x3e487f7c	0.19579881
254	0x3e5ca891	0.21548678
255	0xbdecdbf4	-0.1156539

critic.0.bias f4 [64]
0	0xbeb148dd	-0.34625903
1	0x3d21b00d	0.039474536
2	0x3e271232	0.16315535
3	0x3eba3564	0.3636886
4	0xbe915d74	-0.28391612
5	0xbea1f1a5	-0.31629673
6	0x3ddfa42e	0.10919987
7	0xbe007de7	-0.12548028
8	0x3c8836f4	0.016627766
9	0x3ce4adce	0.027914908
10	0x3d86e2aa	0.065862015
11	0xbeb23238	-0.3480394
12	0xbe7f009f	-0.2490258
13	0x3ed466ba	0.41484624
14	0xbf2cdebb	-0.6752736
15	0xbe448a90	-0.19193482
16	0xbe355544	-0.17708308
17	0x3f125aa2	0.57169545
18	0xbe2f2596	-0.17104182
19	0xbd4d3080	-0.05009508
20	0x3ebde751	0.37090543
21	0x3e6e37e6	0.23263511
22	0xbe9deadc	-0.30843246
23	0xbc72cabb	-0.0148188425
24	0x3ee1e608	0.44120812
25	0xbec6750c	-0.38761175
26	0x3ea9d64f	0.33171317
27	0xbeb2371b	-0.34807667
28	0xbea4adb8	-0.32163787
29	0xbe3ca9c4	-0.18424135
30	0x3df67bfa	0.120353654
31	0xbeaa1bfd	-0.33224478
32	0xbe29f10f	-0.16595863
33	0xbcbcdb8b	-0.023053905
34	0xbe089c8c	-0.13340968
35	0xbdcc255b	-0.099680625
36	0x3e21dcb1	0.15806843
37	0xbbdd68e6	-0.0067568896
38	0x3d79e837	0.061012473
39	0xbe6c3bf9	-0.23069753
40	0x3e7e5bfa	0.24839774
41	0x3d9635aa	0.07334454
42	0x3d85188a	0.06498821
43	0x3ecfe3f7	0.4060361
44	0x3ea5e6e1	0.3240271
45	0x3e665dd9	0.22496738
46	0xbdfd278d	-0.12361059
47	0x3eaa3d4f	0.332499
48	0x3e04ca6d	0.12967844
49	0x3d65dd1c	0.05611907
50	0x3b31ce1b	0.0027130905
51	0x3ca051c2	0.019570235
52	0x3e5860c5	0.21130665
53	0x3e23c113	0.1599162
54	0x3d36308c	0.04447989
55	0x3d934e5a	0.07192679
56	0xbe9d7a5d	-0.30757418
57	0x3e20e876	0.15713677
58	0x3dc0baae	0.09410606
59	0xbeafbd8f	-0.3432431
60	0x3d517a87	0.05114224
61	0xbe8756af	-0.26433322
62	0x3eaa67ee	0.33282417
63	0xbe98324f	-0.29725882

critic.2.weight f4 [64, 64]
0	0x3c269b04	0.010168795
1	0x3cb48a6c	0.022038661
2	0x3cdaaf9f	0.02669507
3	0x3c084e7a	0.0083194915
4	0xbcc7852f	-0.0243555
5	0xbc7fa3f7	-0.015603057
6	0xbce1324d	-0.027489806
7	0x3d2039dd	0.039117683
8	0xbc9bfe7d	-0.019042248
9	0xbdc420ca	-0.095765665
10	0x3cd29c93	0.025709426
11	0x3da56da6	0.080775544
12	0xbdb1beab	-0.08678945
13	0xbd895f46	-0.06707625
14	0xbd48e4ca	-0.049046315
15	0xbd6268d5	-0.055275757
16	0xbe06be9e	-0.13158652
17	0x3d259d88	0.040433437
18	0x3dbb3e44	0.091427356
19	0x3e0b5a5d	0.1360869
20	0x3dbb25b4	0.09138051
21	0x3d917be9	0.07103712
22	0x3d0e78bc	0.03478311
23	0xbb942b05	-0.00452173
24	0x3d4e2f41	0.050338034
25	0xbddb25d6	-0.10700576
26	0x3d9bf106	0.07614331
27	0xbddd80ce	-0.10815583
28	0x3d825eda	0.06365748
29	0xbd3ddcc6	-0.046353124
30	0x3de0ebaf	0.10982453
31	0xbc8ce8cb	-0.017200848
32	0xbbf235f7	-0.007391687
33	0x3cd2b30a	0.025720138
34	0xbd8b0968	-0.067889035
35	0xbd7a92f3	-0.061175298
36	0x3cf7a393	0.030229365
37	0xbd42afa1	-0.047530774
38	0xbbabf14b	-0.00524727
39	0x3d97c972	0.074114695
40	0x3da089f8	0.078388155
41	0xbdbb0f60	-0.09133792
42	0x3dc9c693	0.09852328
43	0x3d3451e5	0.044023413
44	0x3db8481e	0.0899813
45	0x3da163ca	0.078803614
46	0xbe0e3056	-0.13885626
47	0x3cebfe8c	0.0288079
48	0x3d24f6cc	0.040274426
49	0x3e0b0a2c	0.13578099
50	0xbde9d481	-0.11417485
51	0x3d0e8d0a	0.034802474
52	0xbd95a691	-0.07307161
53	0xbdfc806f	-0.12329184
54	0xbdfa6980	-0.12227154
55	0x3caedbc0	0.02134502
56	0xbdfec7f9	-0.124404855
57	0x3dcdce89	0.10049159
58	0x3c704bb6	0.014666488
59	0x3dbafbb0	0.09130037
60	0xbca56a3c	-0.020192258
61	0x3df43bf4	0.11925498
62	0x3e1b6dfb	0.15178673
63	0x3dad0429	0.08448059
64	0x3db8087e	0.08985995
65	0x3cf1a987	0.029499782
66	0x3e89cf8a	0.26916152
67	0x3d43c52c	0.04779546
68	0x3e1dc8d1	0.15408637
69	0x3dc957a8	0.09831172
70	0xbcd4421f	-0.025910435
71	0x3dda2a85	0.10652641
72	0xbda0c15f	-0.078493826
73	0xbda9676c	-0.08271679
74	0x3c911bf1	0.017713519
75	0x3da59426	0.08084898
76	0x3dda4a41	0.10658694
77	0xbd6680c3	-0.05627514
78	0x3e1c9084	0.15289503
79	0xbce1d535	-0.027567485
80	0x3da9191f	0.082567446
81	0xbd85bd0c	-0.065301985
82	0x3d046969	0.03232709
83	0x3e1bed15	0.15227158
84	0xbcddb314	-0.02706293
85	0xbe078103	-0.13232808
86	0x3def1b15	0.11675087
87	0x3d84d1cd	0.06485329
88	0xbdf9ead0	-0.1220299
89	0x3e3602cb	0.17774503
90	0x3d91c836	0.07118265
91	0x3d92efbe	0.071746334
92	0xbd654b35	-0.055979926
93	0x3c80ddb3	0.015730714
94	0x3e285bd1	0.16441275
95	0xbe1b6864	-0.1517654
96	0x3e4aa1db	0.19788305
97	0x3c2f1ad1	0.010687546
98	0x3d3327ae	0.043739013
99	0x3e1131d2	0.14179161
100	0x3d6fe41a	0.058567144
101	0x3d133902	0.03594304
102	0xbe942549	-0.28934696
103	0xbd13a254	-0.03604348
104	0x3e265656	0.16243872
105	0xbd1e3c31	-0.03863162
106	0xbe0a310f	-0.13495277
107	0x3d95e59d	0.07319186
108	0x3e8b75ad	0.27238217
109	0xbca1bb89	-0.019742744
110	0xbdac1254	-0.08401933
111	0xbc672ab2	-0.0141093
112	0x3db6ca85	0.08925346
113	0xbdfbc7a2	-0.12293936
114	0xbd6648a4	-0.05622162
115	0x3dc4765c	0.09592888
116	0xbd1e5c35	-0.038662154
117	0xbdc82206	-0.097721145
118	0x3e2ba348	0.16761506
119	0x3d046021	0.03231824
120	0xbcf1daa7	-0.029523207
121	0xbdd45650	-0.10368025
122	0x3d7137b9	0.058891032
123	0xbb8de436	-0.0043301834
124	0xbbc68ed8	-0.006059509
125	0x3d3427b1	0.043983165
126	0xbd09c4bf	-0.033634897
127	0xbe43a3f4	-0.19105512
128	0xbcdda1a0	-0.027054608
129	0xbc8a9bbe	-0.016919967
130	0x3c866f0d	0.016410375
131	0xbdb154a1	-0.0865872
132	0xbdd33d5b	-0.10314437
133	0xbd076757	-0.033057537
134	0x3dd86885	0.105668105
135	0xbd4dd693	-0.050253462
136	0x3dc0eb86	0.094199225
137	0xbdc8557c	-0.0978193
138	0xbda28811	-0.07936109
139	0xbda2b18f	-0.07944023
140	0xbe0fd84d	-0.14047356
141	0xbd195233	-0.037431907
142	0x3e8fcb24	0.28084671
143	0x3d481b21	0.048853997
144	0xbddfccef	-0.1092776
145	0x3d8ee553	0.06977334
146	0xbd83f0ee	-0.06442438
147	0x3e4ec4e6	0.20192298
148	0xbc621d38	-0.013800912
149	0x3dbe22c1	0.092839725
150	0x3e99a2cf	0.30007026
151	0x3d66d01c	0.056350812
152	0xbc354a2b	-0.011065046
153	0xbebae6bc	-0.3650416
154	0x3e713b9c	0.23557895
155	0x3c47f26c	0.012203794
156	0x3d618aac	0.05506389
157	0xbdac6066	-0.08416824
158	0x3e1b83cc	0.15186995
159	0x3e043437	0.12910543
160	0xbd5fc655	-0.054632504
161	0xbd280a5b	-0.0410255
162	0xbbe1f6f8	-0.006895896
163	0x3d3323d7	0.04373535
164	0xbd965545	-0.073404826
165	0x3dc2a37f	0.09503841
166	0xbe9b9839	-0.30389574
167	0xbed8f83b	-0.42376885
168	0x3dd44b1a	0.10365887
169	0x3dbd2693	0.09235873
170	0x3dc31123	0.09524753
171	0xbd1d1934	-0.038354114
172	0xbe5f29e3	-0.21793322
173	0xbdec9e6b	-0.11553653
174	0x3c6b81ef	0.01437424
175	0xbda8cd12	-0.08242239
176	0x3d237538	0.03990671
177	0x3e9def7c	0.30846775
178	0xbd92bf4f	-0.071653955
179	0xbd55cbec	-0.05219643
180	0x3ae13641	0.0017182307
181	0x3da04235	0.07825128
182	0x3b1fe839	0.002439989
183	0x3e4b19f7	0.19834124
184	0xbdced4ca	-0.1009918
185	0xbe000b87	-0.12504397
186	0x3dee5ae0	0.11638427
187	0xbc0b7020	-0.008510619
188	0x3e009f48	0.12560761
189	0x3d2f8036	0.04284688
190	0x3e1b315c	0.15155548
191	0xbd7a56d7	-0.061117973
192	0x3e11d470	0.14241195
193	0x3d6324a0	0.05545485
194	0xbd85ae7a	-0.065274194
195	0x3d919930	0.07109296
196	0xbb586fd4	-0.003302564
197	0x3d4e6cb7	0.050396647
198	0x3e06d6d7	0.13167892
199	0xba4cca9f	-0.00078121753
200	0x3dc0741a	0.093971446
201	0x3ca44e94	0.020057
202	0xbb9085f0	-0.004410498
203	0x3dbd093e	0.092302784
204	0x3d426675	0.047460992
205	0x3e146ddc	0.14495033
206	0xbc8dfec3	-0.017333394
207	0x3b82c356	0.003990571
208	0xbd807094	-0.062714726
209	0xbd254e2a	-0.040357746
210	0xbced44c1	-0.028963448
211	0x3d48de87	0.049040344
212	0x3df5cbca	0.1200176
213	0x3d1cf794	0.038322046
214	0xbe23f3e0	-0.16011
215	0xbe1ecf35	-0.1550873
216	0xbd89035c	-0.06690094
217	0xbe988f39	-0.2979677
218	0xbc80de70	-0.015731066
219	0x3da40652	0.08009018
220	0x3dccde5a	0.10003348
221	0xbd950c88	-0.07277781
222	0x3e1aded3	0.15124063
223	0x3d10f321	0.035388116
224	0x3c386410	0.0112543255
225	0x3d45855e	0.048222892
226	0xbdb16b21	-0.08663011
227	0x3e05f33e	0.13081071
228	0x3d2c42b7	0.04205581
229	0xbce426da	-0.027850557
230	0xbe2106aa	-0.15725198
231	0xbe7ea440	-0.24867344
232	0xbde32f6a	-0.11093028
233	0xbd5ef659	-0.054434154
234	0x3bb30fc0	0.005464524
235	0x3d8fea15	0.070270695
236	0xbd810639	-0.06300015
237	0xbd81d29d	-0.063389994
238	0xbe0b0616	-0.1357654
239	0xbb1757f7	-0.0023093203
240	0xbce8c38e	-0.02841356
241	0x3cf4a440	0.029863477
242	0x3d30bdcc	0.043149754
243	0x3b9f3537	0.0048586386
244	0xbdad00f0	-0.084474444
245	0x3e1700f8	0.14746463
246	0x3c8807b5	0.016605237
247	0x3cb29e2b	0.021803936
248	0xbc75e167	-0.015007353
249	0x3d601cf0	0.054715097
250	0x3e09d688	0.13460743
251	0x3da6bb23	0.08141162
252	0x3dd8d875	0.10588161
253	0x3d330e7d	0.04371499
254	0x3d4b23cf	0.049594697
255	0x3d8577a0	0.06516957

critic.2.bias f4 [64]
0	0x3d280485	0.041019935
1	0xbd98517d	-0.07437418
2	0x3d0686f3	0.03284354
3	0x3dd2a080	0.10284519
4	0x3bb0dcda	0.0053974213
5	0xbd5f3825	-0.054496903
6	0xbd081c75	-0.033230264
7	0xbd872606	-0.06599049
8	0x3e0755dc	0.13216347
9	0x3d8a4c10	0.06752789
10	0xbdd2f99a	-0.10301514
11	0xbd5fda24	-0.054651394
12	0x3dbaa43a	0.09113355
13	0x3e40906f	0.18805097
14	0x3dea3654	0.114361435
15	0xbcb63953	-0.022244131
16	0x3db17f15	0.08666817
17	0xbd20c644	-0.03925158
18	0x3e232db7	0.15935408
19	0x3d9898e9	0.0745104
20	0x3dd953fc	0.10611722
21	0xbd62e472	-0.055393644
22	0x3e3ea52c	0.18617696
23	0x3cd42b6c	0.025899611
24	0x3ac134cf	0.001474047
25	0xbce49f0b	-0.027907869
26	0xbdb43b4b	-0.08800372
27	0x3dad55b5	0.08463613
28	0x3d78e762	0.06076754
29	0x3d1a51b2	0.037675567
30	0xbd70f8cf	-0.058831032
31	0xbc6fcbea	-0.014636019
32	0x3d9a2f13	0.0752851
33	0xbd37770e	-0.044791274
34	0xbd98ff24	-0.07470539
35	0x3c3fc89e	0.011705546
36	0xbcec1405	-0.02881814
37	0xbd887bfa	-0.06664272
38	0x3dfb1044	0.12258962
39	0x3dc0b34a	0.09409197
40	0xbdce6c2b	-0.10079225
41	0x3d9bc751	0.07606376
42	0x3d6c5c03	0.057704937
43	0xbcc2b23e	-0.023766633
44	0x3a70af5a	0.0009181403
45	0xbe199378	-0.14997661
46	0x3e20b8e7	0.15695535
47	0x3ddf3f00	0.10900688
48	0xbd830a90	-0.06398499
49	0xbdea6a94	-0.114461094
50	0xbd94bb8c	-0.07262334
51	0xbc3e2e15	-0.0116076665
52	0xbcad5276	-0.021157485
53	0x3d81bd28	0.06334907
54	0xbb22746c	-0.002478863
55	0x3e25ea30	0.16202617
56	0xbc8f96fd	-0.017528052
57	0x3deac2e9	0.114629574
58	0xbd6eb465	-0.058277506
59	0xbda6e331	-0.08148802
60	0xbdd01beb	-0.10161575
61	0x3cee5dd9	0.029097484
62	0x3d1f195c	0.038842544
63	0xbe1f7b0e	-0.15574285

critic.4.weight f4 [1, 64]
0	0x3a9cabcf	0.0011953058
1	0x3d95887e	0.073014244
2	0xbe60ae84	-0.21941572
3	0xbdb68776	-0.08912556
4	0xbe0baadc	-0.13639396
5	0x3e8bb78b	0.2728847
6	0x3e55639a	0.20838776
7	0xbe1cecd4	-0.15324718
8	0xbeac5e55	-0.3366572
9	0x3dd87ca5	0.10570649
10	0xbe34246c	-0.17592019
11	0xbe1ae591	-0.15126635
12	0xbdef77d6	-0.11692779
13	0xbeaa6863	-0.33282766
14	0xbe05e12a	-0.13074175
15	0x3e2f3bca	0.17112651
16	0x3d210d7a	0.039319493
17	0x3e08b85c	0.13351578
18	0xbe505193	-0.20343618
19	0x3e1f1e63	0.15538935
20	0xbe2fc98d	-0.1716673
21	0x3e2139a0	0.15744638
22	0xbe55c15b	-0.2087454
23	0x3e544f75	0.20733435
24	0xbe097973	-0.13425235
25	0xbf113ed9	-0.5673652
26	0x3da62b59	0.08113737
27	0xbe139f7d	-0.14416309
28	0x3d1a2982	0.03763724
29	0x3e457eda	0.19286671
30	0x3e1d0182	0.15332606
31	0x3e9c9399	0.30581358
32	0x3d12e664	0.03586425
33	0xbd8086c3	-0.06275704
34	0x3e0202be	0.12696359
35	0x3e0f3a73	0.1398714
36	0xbe3aaede	-0.18230769
37	0x3e064f9b	0.13116305
38	0xbe1d72cd	-0.15375824
39	0xbe0efe59	-0.13964213
40	0x3e8f10f8	0.27942634
41	0xbdffb710	-0.12486088
42	0xbd754794	-0.059882715
43	0x3e1806e4	0.14846379
44	0xbeaa193d	-0.3322238
45	0x3e059eda	0.13048878
46	0xbe45ac7d	-0.1930408
47	0xbe73edd8	-0.23821199
48	0x3e3cc499	0.18434371
49	0x3ded3ccd	0.115838625
50	0x3e5025bc	0.20326895
51	0x3e2c5f39	0.168332
52	0xbe084fee	-0.13311741
53	0xbe0bd989	-0.13657202
54	0x3e710fe5	0.2354122
55	0xbe0fa648	-0.14028275
56	0xbbdf8893	-0.006821701
57	0xbeddc421	-0.43313697
58	0xbe139d63	-0.14415507
59	0x3e1d7ea3	0.1538034
60	0x3e734445	0.23756512
61	0x3c998d13	0.018744027
62	0xbe9f3e35	-0.31102148
63	0x3e5aadc9	0.21355356
