mario_kart/runs/ppo_2025-03-25_17-05-51/ppo_2025-03-25_17-05-51.pth (torch, 42994 bytes, 11 tensors)

actor.0.weight f4 [64, 7]
000000 7c 4c c0 be a1 61 0b bf 6c e9 11 bd dc 5a a8 be
       -0.37558353 -0.54445845 -0.035623 -0.3288182
000010 7a 1a 86 bd 36 9e 68 3d 46 a9 1e 3e a7 91 0c 3e
       -0.06548019 0.056791507 0.1549426 0.13727437
000020 26 74 7b be c5 17 60 3e 95 31 c8 3e 04 51 94 be
       -0.24556026 0.21884067 0.39100328 -0.2896806
000030 43 6a 99 3d 9e 7d 03 3e cd 6c 1e 3e ba 4f 4e bb
       0.07490971 0.12840888 0.15471192 -0.0031480626
000040 f7 53 ee bd a3 ac bc be ae a6 94 be 61 c1 90 3d
       -0.11637109 -0.3685046 -0.29033417 0.07068134
000050 11 ee 73 3e 24 e2 89 3e 90 7a 9b be 4d e1 3b 3e
       0.23821284 0.26930344 -0.30366945 0.18347664
000060 23 a0 f9 3e 47 c1 a0 3e 36 ec 3d bd c9 ae 08 3d
       0.48754987 0.3139746 -0.046367846 0.033369813
000070 4c f6 a4 be 7c 99 82 be cc 37 40 be 61 ff 98 3d
       -0.3221916 -0.25507724 -0.18771285 0.07470585
000080 f8 c0 45 3e fd 64 d9 be 09 e6 e5 be 81 4f 84 be
       0.19311893 -0.4245986 -0.44902065 -0.25841907
000090 86 5d 27 3e 62 54 a5 bd 13 25 32 be c7 f3 14 3e
       0.1634427 -0.08072735 -0.17396955 0.14546119
0000a0 d6 21 67 3e bf a0 02 3f bc 94 89 3e a1 36 2b 3e
       0.22571501 0.5102653 0.26871288 0.16720058
0000b0 a8 31 a2 be ba 2f cc 3d e3 d4 89 3e 30 13 c0 3e
       -0.3167851 0.099700406 0.26920232 0.3751464
0000c0 30 13 03 be cc fc 4f 3c 18 ba 95 be c6 4d 1b 3e
       -0.12800288 0.012694549 -0.2924354 0.15166387
0000d0 c0 1c ad bb 50 47 a5 3e c5 63 86 be 04 af 9f be
       -0.0052829683 0.3228097 -0.26247993 -0.31188214
0000e0 1c d4 1c 3f b3 da 8d be aa d7 b4 3e 13 8a 9b be
       0.61261153 -0.27705917 0.3532079 -0.3037878
0000f0 c5 4b 95 be 2d dd ae 3d 80 b4 9f 3d 09 ec 2d bd
       -0.2915937 0.0853828 0.077980995 -0.04246143
000100 8a 3d 9d 3e d4 ee 8c bd 81 ea 0f 3e 54 40 32 3e
       0.30711013 -0.0688149 0.140543 0.17407352
000110 9e 7f a8 3e b0 ac 25 bd 70 5d 51 bd a6 5d 82 be
       0.32909864 -0.04044789 -0.0511145 -0.25462073
000120 2f 76 85 3e 9b 03 ca 3e ee d7 a8 3e c7 74 30 bc
       0.2606673 0.39455876 0.3297724 -0.010770029
000130 3f 08 69 bd 66 f6 9d be 95 af a5 3e 41 2d 90 3e
       -0.05689263 -0.3085205 0.3236052 0.28159526
000140 e4 80 78 3b 79 a8 00 3e 0f b9 55 3e e6 55 26 3e
       0.0037918622 0.12564267 0.20871376 0.16243705
000150 e0 d7 f1 3e 63 51 d9 be 13 70 22 bd 9b f9 01 3e
       0.47235012 -0.42444906 -0.039657664 0.12692873
000160 c9 cb 89 3d c5 fc c4 be 9b 68 6b be 3a 49 3c bd
       0.06728322 -0.38474098 -0.22989123 -0.04596827
000170 49 84 9c bc c2 69 9f be fa 83 ad 3d 6a f2 5e 3e
       -0.019106047 -0.31135374 0.08472438 0.21772161
000180 bf f6 c6 3d 1c b8 12 3e 52 26 d2 3e f8 e0 db bc
       0.09715032 0.14328045 0.4104486 -0.026840672
000190 e6 7b ad be 23 06 90 be 7c 9d 87 3d b1 25 be 3e
       -0.3388359 -0.28129682 0.06621835 0.3713813
0001a0 1d 41 a9 3c 3f d3 39 bd 9f f4 48 be b4 82 a7 bb
       0.020660931 -0.045367476 -0.19624566 -0.0051120166
0001b0 ea 0c b3 3e ee 1f d8 3d ab 42 28 bb d9 e6 aa bb
       0.3497079 0.10552965 -0.0025674503 -0.0052155075
0001c0 28 9c 38 be 43 25 80 3e 51 d9 f9 3d 20 c3 ac 3e
       -0.18028319 0.25028428 0.12199653 0.3374262
0001d0 85 0d 36 bc 5b 48 8a be b6 30 f1 3b 24 01 03 3e
       -0.011111622 -0.27008328 0.007360543 0.12793404
0001e0 7d da aa be c7 cc fc bd 9d f3 97 be 4f d3 55 be
       -0.33369818 -0.12343746 -0.2967805 -0.20881389
0001f0 34 6b e9 3d 4d 99 a2 3e bc 30 9d be 00 15 5c 3c
       0.113974005 0.31757584 -0.30701244 0.013432741
000200 d0 fd a2 3e af 83 91 3e 30 64 2c 3e a4 7e 34 3e
       0.3183427 0.2842078 0.16835093 0.17626435
000210 c0 7c 38 3b 7d 6d a1 3e 80 42 3c 3d f0 53 ab 3e
       0.0028150529 0.31528845 0.045961857 0.33462477
000220 51 01 f1 bd e7 3f 82 3d eb 13 8a be b6 d5 11 3e
       -0.11767829 0.06359845 -0.2696832 0.1424168
000230 76 38 16 bd d2 5b b3 3d 4a 47 c0 be 06 96 5e bc
       -0.03667494 0.08757748 -0.3755439 -0.013585573
000240 be 9d 31 3e b2 0d c5 3e 04 ae f2 bd 52 bc 31 3e
       0.1734533 0.3848701 -0.11849597 0.17356995
000250 bd 5e 86 be be a8 40 be e2 f0 8d 3e 02 dc 26 be
       -0.26244155 -0.1881437 0.27722842 -0.16294864
000260 74 a4 74 be fd ac 7c 3e 44 99 31 3d 9f 06 4b be
       -0.23890859 0.24675365 0.043359056 -0.19826744
000270 38 cf 45 be 48 e2 a4 3e be c3 d3 bc b6 fe b0 3e
       -0.19317329 0.3220389 -0.025850173 0.3456933
000280 9a b8 78 3e 26 aa 65 be 23 44 65 3d cd 17 b7 3e
       0.2428917 -0.22428188 0.055973183 0.35760346
000290 d3 f9 35 bd 7e b0 12 3e b3 f6 a2 bd ec 6f 64 be
       -0.044427704 0.14325139 -0.079572104 -0.2230832
0002a0 71 75 56 be 1c 6c d4 3c 22 a7 51 3e 18 0e bd 3e
       -0.20943238 0.025930457 0.20473912 0.36924815
0002b0 f7 94 81 be 44 a8 91 be bf ac 28 3d 34 81 9e be
       -0.25308964 -0.2844869 0.04118037 -0.3095795
0002c0 c3 30 f2 3d cf aa b0 be 38 46 74 3e 7d fd 8c be
       0.11825707 -0.34505317 0.23854911 -0.27537146
0002d0 ae 22 39 3e 18 67 eb 3d b4 43 01 3e a9 4c 1e be
       0.18079636 0.11494273 0.12623483 -0.15458931
0002e0 11 d3 1c 3e 4f 76 11 3e d8 51 b8 bd 9d be 90 3e
       0.1531489 0.14205287 -0.089999855 0.28270426
0002f0 f2 e3 32 3e b1 55 b4 3e a2 9c 08 3d e0 a7 13 be
       0.17469767 0.35221627 0.0333525 -0.14419508
000300 08 9a 16 3d 11 34 c1 3e 25 1e 72 3e b9 bc f9 3d
       0.03676799 0.37735036 0.23644312 0.12194199
000310 39 3b 77 be 91 cb 62 bd 18 94 8e 3e e1 22 78 be
       -0.24143685 -0.055369917 0.27847362 -0.24232055
000320 22 5f 9a be 52 44 87 3c 60 94 71 3e 6b 0f d0 be
       -0.30150706 0.01651207 0.23591757 -0.40636763
000330 7d 03 91 bd 16 63 d6 3d 0a 21 9b 3e a6 cf 70 bd
       -0.070807435 0.10468118 0.30298644 -0.05879178
000340 b1 ac 26 3d f9 be 2c 3e 90 53 16 be 5a 37 cb bd
       0.040692035 0.16869725 -0.14680314 -0.09922667
000350 3f d8 4b 3e 16 23 bc be 16 2e 90 be fb 18 a9 3e
       0.1990671 -0.36745518 -0.2816016 0.3302687
000360 a2 38 7c bb 9d 6b de bd f1 11 d9 3d 14 a6 6c 3e
       -0.0038485904 -0.10860369 0.10599125 0.23110229
000370 e8 35 e2 bd e6 68 2e 3e 53 e3 a3 be 0a 5f ba 3e
       -0.11045438 0.17032203 -0.32009372 0.36400634
000380 0c f3 ca 3c 96 ea 60 be bb 82 14 be f1 33 a5 be
       0.024774097 -0.21964487 -0.14502995 -0.3226619
000390 b5 a4 29 3e c7 a0 67 3e fd d5 c1 bd fd 4d b8 be
       0.16566737 0.22619925 -0.09464643 -0.35997
0003a0 1d ca 37 bc 55 3c a2 3e ef 15 93 3e 17 86 c5 3d
       -0.011217621 0.31686655 0.28727672 0.09644716
0003b0 d9 1e f9 bc eb dc 03 be 84 18 8e bc 5f 7e 4a be
       -0.030410217 -0.12877242 -0.017345674 -0.19774769
0003c0 db 6f 9f be 7e 77 f5 3d 2c db 82 be 52 f6 b5 be
       -0.31140026 0.11985682 -0.2555784 -0.3553949
0003d0 31 9e bf be ac c5 9a be 83 1a 27 bd 7e 25 fe bb
       -0.37425378 -0.30228937 -0.040796768 -0.0077559343
0003e0 53 1b 08 be 0c e8 c0 bd 97 f2 2b be b2 1d 88 be
       -0.13291673 -0.094192594 -0.1679176 -0.26585156
0003f0 fb a0 03 3e f2 cc 07 3e 4e e5 26 3e 87 f8 9f be
       0.12854378 0.13261774 0.1629841 -0.312443

actor.0.bias f4 [64]
000000 76 69 55 3e 41 6d 20 3e d9 3f 49 be 7f 98 99 3e
       0.20841011 0.15666677 -0.19653262 0.29999158
000010 b2 b5 5a 3d d0 80 a2 3e fc c4 a8 3e ff 7a a3 3d
       0.053395934 0.317389 0.32962787 0.07982444
000020 aa 9e 6f be 1d c8 fb 3d 93 1d 9a be a8 4c 58 3d
       -0.2340037 0.12294028 -0.30100688 0.05280748
000030 ba e5 81 bd 8b 6e 46 be 1a f3 88 3e e6 7f bd be
       -0.06342645 -0.19378106 0.26747972 -0.3701164
000040 01 d7 d6 bd 4f bf 92 3e 18 84 9d 3e 4e a5 86 bc
       -0.104902275 0.28661582 0.30764842 -0.016436245
000050 ba 22 9b 3e 7e 74 ff bd c2 8f 0d be 22 61 c4 3c
       0.30299932 -0.12473391 -0.1382437 0.023972098
000060 d2 c5 92 be e4 aa 05 3e e8 13 ca bd 09 e1 b1 be
       -0.2866655 0.13053471 -0.09867078 -0.34742
000070 1b ea 94 3e db c0 45 be bc 28 9b be bf cb 5b be
       0.29084858 -0.1931185 -0.30304515 -0.21464442
000080 fd be 81 bd 1c 7d a1 be c3 33 64 3e 72 2c 94 be
       -0.06335256 -0.31540763 0.2228537 -0.2894016
000090 23 5e 44 3e 2a a4 14 3e 1d 4d 4f 3e c6 21 06 be
       0.19176535 0.14515749 0.2024426 -0.13098821
0000a0 4b 57 18 3e 22 a8 7d be 1b af 47 3d 8c 4f 74 3e
       0.1487705 -0.24771169 0.048750978 0.2385847
0000b0 72 e6 77 be 33 58 1d 3e 49 55 22 3e 31 f2 ba be
       -0.24209002 0.15365677 0.15852846 -0.36512902
0000c0 58 ad 16 be c9 5e 81 be a2 40 72 3e 86 00 48 bd
       -0.14714563 -0.25267628 0.23657468 -0.048828624
0000d0 cb 1a 95 be 55 f5 0f 3e a5 20 ab 3e 32 40 66 be
       -0.29122004 0.1405843 0.33423343 -0.22485426
0000e0 b9 c2 c3 bc b4 3b b6 3d 89 9c 80 be 27 f8 cc be
       -0.023896562 0.08898106 -0.25119427 -0.40033075
0000f0 a1 63 7f 3e 65 72 a7 bd cb f1 bb 3e 32 22 64 be
       0.24940349 -0.08176116 0.3670791 -0.2227867

actor.2.weight f4 [64, 64]
000000 b9 6a a6 bd 9b 2e 35 bc e7 53 86 bc ca ed e2 3d
       -0.081258245 -0.011058475 -0.01639743 0.11080511
000010 27 fa e8 bc 62 ff 8a 3b cf f1 9b 3c b5 0e 01 3e
       -0.028439594 0.00424187 0.019036202 0.12603267
000020 5c ba 32 bd 4a e2 d6 3d ff 57 06 3d 2a 55 ce 3d
       -0.043634757 0.1049238 0.032798763 0.100748375
000030 c0 b8 54 bd c4 ff 60 3d 15 c8 95 bd ac b4 80 3d
       -0.051934004 0.054931417 -0.07313553 0.062844604
000040 80 e5 86 3d 4c 05 4f 3d 2e 3a c6 3c 1b df 57 bd
       0.065867424 0.05054216 0.024197664 -0.052703004
000050 a1 35 4c 3c 96 7b f9 bd 8b 3f a6 bd 24 ca 56 3d
       0.012463958 -0.12181775 -0.081175886 0.05243887
000060 5a d6 ba bd 02 50 74 bc 7f a2 2f bd 16 13 9a 3d
       -0.091229156 -0.0149116535 -0.042879578 0.075231716
000070 08 e1 9d bd 2c e2 a7 3c 21 6f 16 3e f2 53 25 bd
       -0.07708937 0.02049359 0.1469083 -0.04036326
000080 5e e3 d6 bd 22 3f 1e 3c 1c 26 63 3d aa 7d f8 bc
       -0.104925856 0.009658607 0.055456266 -0.030333359
000090 4d 74 d7 ba 17 ba b3 bd 7b 8e 0d bd d1 dc e9 bd
       -0.0016437859 -0.08775728 -0.034559708 -0.114190705
0000a0 51 ae ea 3d 51 17 b5 3b 61 41 44 bd dc 53 98 bd
       0.114590295 0.005526461 -0.047913913 -0.0743787
0000b0 a4 83 06 3d 1a d9 1e 3d 1c e4 9b bc 24 3b 4a 3d
       0.032840386 0.038781263 -0.01902967 0.049372807
0000c0 3f 83 4f bc 04 c6 14 3d 8d 27 cd 3c b9 ca ff 3b
       -0.012665569 0.036321655 0.025043273 0.007806149
0000d0 75 84 e6 3d 26 1b b7 bd 0e 14 eb 3d 5e d0 aa 3d
       0.11255733 -0.08940725 0.114784345 0.08340524
0000e0 44 95 ec 3c c6 6e e6 bd 15 a8 cb bd 90 2d be bc
       0.02887977 -0.11251597 -0.099441685 -0.023215085
0000f0 24 df cc 3d 8e 34 34 3d 55 f2 ca 3d f1 a6 c8 bd
       0.10003498 0.043995433 0.099095024 -0.097974665
000100 29 c2 a7 3c a0 e6 33 bd a3 f1 fa 3d cf 4e 15 3b
       0.020478325 -0.043921113 0.1225312 0.002278257
000110 95 79 f0 bb c8 23 9c 3d 9e 8a 43 bd 74 c1 a8 bd
       -0.0073387125 0.07624012 -0.047739618 -0.08240023
000120 b0 66 02 be 56 be 92 3d 21 4f 65 3d b6 bc 85 3c
       -0.12734485 0.0716521 0.055983666 0.016325336
000130 81 5d b9 3d ae ce 05 3e b2 8e 90 3b 95 eb eb 3d
       0.090510376 0.13067123 0.004411542 0.11519543
000140 87 19 5d 3d b2 7f a2 3d 5c d8 bb 3b 29 90 26 3e
       0.053979423 0.07934512 0.005732579 0.1626593
000150 86 b9 7e bc 4f 49 ce bd 8a 94 3a 3d 9e 75 05 3d
       -0.015547162 -0.10072576 0.045551814 0.03258287
000160 43 ba 02 3d 25 9d 4b bc 24 51 9e 3d a5 7b d0 bd
       0.031915914 -0.012427603 0.0773032 -0.10179833
000170 30 22 a7 bd 79 2b ee 3a 8a 53 d9 bd 5f 97 f2 3c
       -0.081608176 0.0018170915 -0.10611637 0.029613195
000180 de 4f 20 3d c4 6b 66 3d f8 ba 92 bd 3d 5f 91 bd
       0.039138667 0.056255117 -0.07164568 -0.070982434
000190 6a d8 f5 bc 96 07 c8 3d 01 88 93 3d 9f f7 e9 3d
       -0.03001042 0.09767072 0.07203675 0.11424183
0001a0 ca 66 70 3d 5c 81 86 3d b8 64 b7 bc fa 48 63 bd
       0.058691777 0.06567642 -0.022386894 -0.055489518
0001b0 73 f0 6d 3d 3f de 15 3c 47 ae c6 3d 91 bc 36 3d
       0.05809064 0.009147226 0.097012095 0.044613425
0001c0 68 f6 7e 3c d3 c6 59 3e 54 eb 3b 3c da e2 1f bd
       0.0155616775 0.21267252 0.011469681 -0.039034702
0001d0 fd d0 8a bb 64 19 c0 bc d8 9d d1 bd ed de be ba
       -0.004236339 -0.023449607 -0.102351844 -0.0014562287
0001e0 65 fb 31 be 13 ec 07 3e b2 7f f5 bd 1f 73 17 3d
       -0.17381056 0.13273649 -0.119872466 0.036975022
0001f0 f6 40 31 3c 26 f4 51 bd 32 69 2a bd 4d 9d cf 3d
       0.010818711 -0.05125823 -0.04160423 0.101374246
000200 a9 ea d3 3d 09 f5 07 bd c7 ef 13 be 6e 9b bb bd
       0.10347492 -0.033192668 -0.14446937 -0.09160505
000210 84 80 e4 bd 5b c7 be bb 94 71 47 3d 8b 32 14 bd
       -0.11157325 -0.005822105 0.0486923 -0.036181014
000220 02 6c 3e 3d d9 1f cf 3d 45 9c 51 bd 78 39 a5 3d
       0.046489723 0.10113496 -0.05117442 0.08067602
000230 26 d2 24 bd 3f 12 1b 3c 67 e1 b9 bd 9f ce 97 bd
       -0.040239476 0.009464799 -0.09076195 -0.07412457
000240 b0 34 0d 3e 90 5e af bd 61 5f 90 bd 1a 17 ba bc
       0.1378963 -0.08562958 -0.07049442 -0.022716094
000250 48 6c 74 3c 2e df 54 3d a0 aa fa bb 3c 5b 02 3e
       0.014918394 0.051970653 -0.0076497346 0.12730116
000260 45 8d 01 be b0 5c 8a 3d 2f 77 91 bc fc f8 19 3d
       -0.12651546 0.0675596 -0.017757026 0.037590966
000270 3f 1d ca 3c e8 59 35 bc 4a 78 c5 3d 24 45 22 3e
       0.024672149 -0.011068799 0.09642084 0.15846688
000280 bb 25 9d bc bf e6 2b bd c0 57 a3 3c 5f f3 24 3d
       -0.01918303 -0.041968103 0.019939303 0.04027116
000290 16 c2 9e bc 77 20 cb 3c 8d 3b f5 3d ea 53 89 bd
       -0.019379657 0.024795754 0.11974249 -0.067054585
0002a0 31 85 fc bc fb 6e bc 3c aa d0 85 bd d4 49 ba 3d
       -0.03082523 0.023002138 -0.0653394 0.09096113
0002b0 e9 bc cc 3d c1 44 b8 bd 22 5e ad bd b3 16 f4 bc
       0.09996969 -0.08997489 -0.0846522 -0.02979598
0002c0 fd 1f 4e bc 58 2e 62 3c ae f9 b9 bd 7e ca 54 3d
       -0.012580869 0.0138049945 -0.09080826 0.051950924
0002d0 50 6d 4d 3d 26 36 8e bc 4d 63 c2 3d 33 ea 40 bd
       0.050153077 -0.017359804 0.09491596 -0.04709835
0002e0 7c a1 07 bc 8f ef 58 bd f8 28 08 3e 9a f9 ee 3d
       -0.008278247 -0.052962836 0.13296878 0.116687015
0002f0 26 0e 5e bd ae 2b cc bd 30 f8 88 bd 62 5a 35 3d
       -0.05421271 -0.09969269 -0.06687963 0.04427565
000300 1d ad 14 3e a3 47 95 bc 55 3d 41 bd 2d ef 90 bc
       0.14519162 -0.018222636 -0.04717763 -0.017692173
000310 25 a9 74 3d 4d 39 94 3d 71 a0 01 be 11 90 c7 bd
       0.05973162 0.07237492 -0.1265886 -0.09744275
000320 6f 4e 9c bd 38 6d a9 3d cc c2 ee bd 1b 74 69 bd
       -0.076321475 0.08272785 -0.11658248 -0.056995492
000330 c2 24 1b bd 40 d7 37 3d 3a 59 8c 3d 2a 54 8c 3c
       -0.03787685 0.044883013 0.06852956 0.017129976
000340 c1 fb c3 bd f7 44 05 bd 8c 7b 04 3e 80 48 b9 3d
       -0.095695026 -0.032536473 0.12937754 0.090470314
000350 b0 d8 8d bc 01 b6 a5 3d d6 c4 cc 3d 0d ad 22 3d
       -0.017315239 0.08091355 0.09998481 0.039715815
000360 66 bb 54 bc 55 0d 06 be e6 d2 8a bd b7 47 0c bd
       -0.012984132 -0.13091023 -0.06778507 -0.03424808
000370 3a 9e ff bd 19 f6 ce bd d5 5d 26 bd c2 55 64 3d
       -0.12481351 -0.10105533 -0.04061683 0.055745848
000380 54 ca d3 bd ff ba ce 3d 23 ef ba 3c 53 d4 52 3d
       -0.103413254 0.100942604 0.022819107 0.05147202
000390 c5 52 bc 3d d0 14 e6 3d 4b 88 59 bd cc 28 fd 3d
       0.091954745 0.112344384 -0.053108495 0.12361297
0003a0 f7 08 97 3d e6 ba 0e bd 73 10 59 3d dc ba a5 bd
       0.07374757 -0.03484621 0.052994203 -0.08092281
0003b0 78 52 cc bd b2 d4 a0 3d 07 ad fa 3d 01 01 f5 bc
       -0.09976667 0.078530684 0.122400336 -0.029907705
0003c0 c9 ba e4 3c 59 0e a7 bc b6 5e ef bd 21 e6 84 3c
       0.027921097 -0.020392584 -0.116879866 0.016223015
0003d0 d0 0e fe bd df 8f 36 bd a7 18 0f 3d bc fb 4b be
       -0.12405169 -0.0445708 0.03493562 -0.19920248
0003e0 49 86 11 3e 94 85 ce 3d 96 f0 cd 3c 52 35 d0 bd
       0.14211382 0.10084072 0.025139134 -0.1016642
0003f0 41 99 9d bd 63 02 f8 3c b9 25 35 3d 7e ab 02 bd
       -0.076952465 0.030274576 0.04422543 -0.03190183

actor.2.bias f4 [64]
000000 1c cc 9b bc 9c 05 94 bc 4a 39 8d bc 36 77 e6 bd
       -0.019018225 -0.018069081 -0.017239232 -0.112532064
000010 6a 2f 50 3d 78 3b e3 3d cf 03 a7 bc 4f a9 15 bd
       0.050826468 0.11095327 -0.020387558 -0.03653842
000020 2b 74 b5 3d 0e a4 e8 3d 7c c4 c0 3d bf 0c ca bd
       0.08860048 0.11359416 0.094124764 -0.098657124
000030 2f b5 2e bc 89 cb a5 bd a5 82 c0 bd 34 7c a2 b9
       -0.010663315 -0.08095462 -0.093999185 -0.00030991586
000040 e6 dd ba 3d 0c 37 d1 3d 45 31 29 bd e5 3d d2 3d
       0.09124355 0.102155775 -0.041306753 0.10265712
000050 3f 9d bd 3d 20 d8 cd bd 9a 9a 2c bd 6d d5 f4 3d
       0.09258508 -0.10050988 -0.042139627 0.1195477
000060 a5 4f 60 bd 54 e1 e1 3d 8e 2e 25 3d f9 f1 b8 bd
       -0.054763455 0.11029306 0.0403276 -0.090305276
000070 6b c0 73 bc 73 9b fa bd f5 bb 42 bd 79 19 fb 3d
       -0.014877419 -0.12236681 -0.04754253 0.12260718
000080 40 42 8c bd fa 98 92 bd 25 51 33 bd cc a5 5d bd
       -0.06848574 -0.07158084 -0.043778557 -0.054113194
000090 91 0c 06 bd a6 64 8d 3d 07 eb 60 bd 25 83 08 3d
       -0.032726828 0.06903963 -0.05491164 0.033328194
0000a0 30 ae bc bc 7a 5a 57 bd 2c 00 3a bd 7d 47 e3 3d
       -0.023032278 -0.05257652 -0.04541032 0.1109762
0000b0 74 81 9c bd 1a 88 0a 3c c0 ce 30 bb a9 cd af 3d
       -0.07641879 0.008455301 -0.0026978701 0.085841484
0000c0 03 ee e3 bc ce 27 ba bd 81 d4 e5 3b 68 3e d1 3d
       -0.027823454 -0.090896234 0.007013858 0.10216981
0000d0 bc ed d9 3c f2 d6 ee bd d4 59 b8 3c 96 02 ed 3d
       0.026602618 -0.11662091 0.02250377 0.11572759
0000e0 fa 0e eb bb 80 39 ef bd d9 aa 18 bc 79 93 29 bc
       -0.007173416 -0.11680889 -0.009318077 -0.010350102
0000f0 4f 65 b3 bd cb b3 84 3a bc 29 17 bd 56 44 8f 3d
       -0.087595575 0.0010124383 -0.036905035 0.06995456

actor.4.weight f4 [2, 64]
000000 17 9a e7 bd 00 0f 9f bd 68 84 02 3e 23 4a 60 3d
       -0.11308687 -0.07766533 0.12745821 0.054758202
000010 17 60 1b 3e d7 5b bf bd 07 dc a8 3c 8e 4c 9b 3a
       0.15173374 -0.09343689 0.02061273 0.0011848377
000020 70 a2 38 be 0a 7b 0d bd 48 ca 00 bc 7a 96 0f 3e
       -0.18030715 -0.034541167 -0.007860728 0.14022246
000030 37 f7 ff bd 82 a8 08 3d bc 3c 1f be 21 45 6a 3c
       -0.12498324 0.033363827 -0.15550512 0.014298708
000040 dc 90 0f 3e ea 3f 5e 3e 71 21 16 bd ce 88 59 bd
       0.14020103 0.21704069 -0.036652986 -0.053108983
000050 e7 ef e2 3d 5e ee 7b 3e 75 4a 14 be cc 65 cb bd
       0.11080914 0.24602649 -0.14481528 -0.099315256
000060 66 80 29 be 0c 6a 8c 3d 5b cf 8a be 46 04 0d 3e
       -0.16552886 0.06856164 -0.27111325 0.13771161
000070 4d df a0 3c 90 05 c6 bd b0 58 89 bd 50 db e5 bd
       0.019637728 -0.0966903 -0.06706369 -0.11223471
000080 95 ad 2e be 73 52 44 be be f6 39 3d b2 cc 24 be
       -0.17058404 -0.19172077 0.045401327 -0.1609371
000090 d6 6e 02 be ce 64 9f be 05 c4 4a 3e cb 8c 62 3b
       -0.12737593 -0.31131595 0.19801338 0.0034568782
0000a0 d2 92 05 3e ba 91 da bd 69 90 ae 3c a7 f4 d0 bd
       0.13044289 -0.106723264 0.021309095 -0.10202914
0000b0 1a d9 31 3d 09 8e 90 3d b1 11 95 be ef 72 15 be
       0.043419935 0.07058341 -0.2911506 -0.14594625
0000c0 26 32 14 3e 54 b5 40 3c 5c 6d 6b 3d 00 a4 da 3d
       0.14472255 0.011761982 0.05747734 0.10675812
0000d0 14 fe 92 3d e8 b1 f5 bd 1e 7e fd 3c 61 49 f9 3d
       0.07177368 -0.119968235 0.030943926 0.12172199
0000e0 e4 b6 17 3d bb c2 1e 3e 1d 68 bd bd 45 13 0e bd
       0.037039652 0.15503971 -0.09248374 -0.034686346
0000f0 e5 fb db 3d bc 26 04 be 83 f1 8e bd 85 77 e7 3c
       0.107414044 -0.12905401 -0.069796585 0.028255234
000100 55 ee 46 3e ef 85 9c bc 8f bf 93 3b fb 3f 7b be
       0.19426854 -0.019106833 0.0045089195 -0.24536125
000110 96 92 a8 3d 4e 55 d3 3d e2 3b ce bd 04 73 f8 bd
       0.08231084 0.10319005 -0.100700155 -0.121313125
000120 77 53 00 be 30 f5 bb bd 73 2e 73 3e 9a 11 ae 3c
       -0.1253184 -0.09177625 0.23748188 0.021248627
000130 33 9d 04 3e 25 8b 25 be 73 d3 85 bd 2e f1 39 3e
       0.12950592 -0.1616636 -0.06534471 0.18158409
000140 5f f3 24 be 3f 56 04 be d5 2c 88 be 3c 02 98 be
       -0.16108464 -0.12923525 -0.26596704 -0.29689205
000150 e0 4f b1 3d 64 ad fb bd f5 eb ea bd 63 22 6b 3c
       0.08657813 -0.12288931 -0.114707865 0.01435146
000160 00 a1 03 bd 90 34 e6 bd 30 87 ae bd 06 9c 7c 3e
       -0.032135963 -0.11240494 -0.08521879 0.24668893
000170 67 dd 50 be 44 c8 4f 3e d8 d7 c0 bd 72 2d 4c 3e
       -0.20396958 0.20291239 -0.09416169 0.19939211
000180 c0 64 05 3e 0c 60 1d be ed e4 d1 bd 96 97 87 be
       0.13026714 -0.1536867 -0.10248742 -0.26482838
000190 c8 80 b8 bd 8b 33 96 be b4 80 fb 3c d1 b4 89 3d
       -0.09008938 -0.293362 0.030701019 0.06723941
0001a0 ec 58 1a be 32 f0 e2 3d 4f b5 97 bd c2 94 35 3e
       -0.15072984 0.1108097 -0.07407629 0.17732528
0001b0 7e f5 e0 3d 46 f9 5e be 17 cc ec bd 40 55 85 bd
       0.10984324 -0.21774778 -0.115623645 -0.06510401
0001c0 17 05 33 3e 52 cf 89 3d 6b 02 a8 bd 70 58 32 be
       0.1748241 0.06728996 -0.08203586 -0.17416549
0001d0 42 9d 5e 3d b9 6b ea 3c 9d 13 5d 3e d0 11 77 bd
       0.05434919 0.02861582 0.21589513 -0.06031972
0001e0 c5 33 1b 3e e1 79 97 bd f9 2e e7 3d 28 30 77 be
       0.15156467 -0.073962934 0.11288256 -0.24139464
0001f0 9e e0 c9 bd 3f fd 76 3e 25 c2 19 3e d6 a4 8d bc
       -0.098572955 0.24120043 0.15015467 -0.017290514

actor.4.bias f4 [2]
000000 d1 71 f3 3c 27 3f 9d bd
       0.029717358 -0.07678061

critic.0.weight f4 [64, 7]
000000 53 83 d0 bd 6c 1c 01 be c8 92 a6 3e de 20 83 be
       -0.10181298 -0.12608498 0.3253386 -0.25611013
000010 10 e9 59 bd 54 84 5e be a3 f2 b6 3e 70 00 1b 3c
       -0.05320078 -0.21730167 0.35731992 0.0094605535
000020 69 04 4a bd 6e d0 15 be c4 86 e0 3a 58 8a c0 bd
       -0.049320612 -0.14630291 0.0017130007 -0.09401387
000030 8e 09 e6 be 48 bb 74 3e 2e 92 9b 3e 98 08 74 3e
       -0.44929165 0.23899567 0.30384964 0.23831403
000040 2e e9 0c be a1 70 8a be 3d 80 7c bc 91 d8 73 be
       -0.13760826 -0.27039054 -0.015411434 -0.23813082
000050 b6 d8 a7 3e cd bb e4 be 32 bc bc bd d5 85 c3 3d
       0.32782525 -0.4467453 -0.09215583 0.09547011
000060 ea 7a 2f be e2 9f 7a be 25 e8 98 bc 6d 07 9d 3e
       -0.17136732 -0.24475053 -0.018665383 0.30669728
000070 6a 6f 0a bf 6d 70 92 bf eb 36 8b bc f6 05 70 be
       -0.54076254 -1.144056 -0.01699396 -0.23439774
000080 93 38 88 bc 60 35 33 3e b5 48 1b be 77 df 1b 3f
       -0.01662854 0.1750083 -0.15164454 0.60887855
000090 f4 7b f5 be ec 1a ca be 5f 72 96 3e 97 6a a2 3e
       -0.4794613 -0.39473665 0.29384133 0.31721947
0000a0 78 cc 8a be 11 38 1a be 46 9e 00 3f 53 54 b5 3e
       -0.27109122 -0.1506045 0.50241506 0.35415897
0000b0 01 28 0e bd ac 65 8b 3d 10 1c 03 3f 5a 00 57 3e
       -0.03470612 0.06806502 0.51214695 0.20996228
0000c0 f8 6d ee 3e e1 07 e1 bd 99 43 ae be 98 5f 05 be
       0.46568274 -0.10987831 -0.34035948 -0.13024747
0000d0 c9 d4 02 3e 07 70 fe bd f6 31 9a 3e 13 14 9e be
       0.12776484 -0.12423711 0.30116242 -0.3087469
0000e0 87 b6 81 be e3 33 73 3d 97 8a a2 3d 21 c4 ce be
       -0.2533457 0.059375655 0.0793659 -0.4038401
0000f0 33 28 c8 be 66 00 c9 be c1 44 e5 bc ac 4e 11 bf
       -0.3909317 -0.39258116 -0.027986886 -0.5676067
000100 1a 12 9b 3a 66 7b f4 bd 88 bb 51 3d ba 19 ad 3d
       0.0011830956 -0.11937599 0.051204234 0.084521726
000110 a0 f1 0c bd 1a df c5 3e 83 c8 45 3f c5 4a 5d bf
       -0.03441012 0.38646775 0.7725908 -0.86442214
000120 f5 38 06 be 95 05 e0 3d 03 f5 95 bc ff d0 21 3e
       -0.13107665 0.10938565 -0.018305307 0.15802382
000130 c6 2f 8a be 13 a9 31 3c 83 9d 18 bf 9d 94 fb bd
       -0.26989573 0.010843533 -0.59615344 -0.12284205
000140 cf 55 1d be 51 23 e1 3e 33 ce b2 3d b7 da 4a bd
       -0.15364765 0.43972257 0.08730736 -0.04952499
000150 a9 ea 3f 3f dd 56 d4 3e 72 ef 2a be 51 cf a7 bd
       0.7496744 0.4147252 -0.16692904 -0.08193839
000160 84 91 88 3d 68 f1 9d 3e dd 4b 92 3d 26 e8 02 be
       0.0666838 0.3084824 0.07143376 -0.1278387
000170 d9 b8 64 3e 61 c8 8c 3d c1 d5 aa bd 6d b8 a9 3e
       0.22336139 0.06874157 -0.083415516 0.33148518
000180 11 56 65 be a3 b2 84 3e c3 af bd be 7f 99 2e 3e
       -0.22396113 0.2591754 -0.37048158 0.17050742
000190 39 22 44 be 7d 27 98 3e f1 cb ef bd ae e7 a6 3e
       -0.1915368 0.29717627 -0.117088206 0.32598633
0001a0 7c a8 a9 3e d7 9c 05 3c e8 f5 be 3e ac a6 77 3d
       0.33136356 0.008155069 0.37296987 0.060461685
0001b0 a5 5f 48 be a7 cb db be bd 2a 99 3d 3a c1 aa be
       -0.19567735 -0.42928812 0.07478855 -0.33350545
0001c0 9d 88 3b 3c 79 bb f2 3d b5 69 6f 3e bc f6 21 be
       0.011446145 0.11852164 0.23380168 -0.15816778
0001d0 ff b6 b0 be 2d 3f ff be 64 da 6d bd bd 0a 85 3b
       -0.34514615 -0.49852887 -0.0580696 0.004060118
0001e0 dc 48 6d 3e 03 a4 86 be 81 48 b6 3d 40 d4 c4 3b
       0.23172325 -0.26297006 0.08900548 0.0060067475
0001f0 59 94 e1 be 61 3a c3 bd e0 6e 26 3f 82 1b 5d 3f
       -0.44058493 -0.09532619 0.6501293 0.863701
000200 4a 4c 5f 3e 30 e2 0f 3e cf 7d 73 be b6 60 23 be
       0.21806446 0.14051127 -0.23778461 -0.15954861
000210 03 c4 8c be 2c cc 21 be e7 2e 4f 3e ce bb 5a 3e
       -0.27493295 -0.15800542 0.20232736 0.21360704
000220 4a 58 cd bd 22 20 b1 3e 0e d5 46 3e a6 86 37 bd
       -0.100266054 0.34594828 0.19417211 -0.044806145
000230 0f b4 80 3e c1 5b 8e 3e d5 b7 4e 3e 36 8c 01 3e
       0.25137374 0.27804378 0.20187314 0.12651142
000240 76 8e 93 3e 90 2d 15 3e 35 83 f3 be d2 d0 43 be
       0.28819627 0.14568162 -0.4756104 -0.19122627
000250 94 82 e7 3f 62 33 14 3e 39 e1 87 bd 2a e4 aa 3d
       1.8086724 0.14472726 -0.06634755 0.083443
000260 77 65 d9 bc 49 6d 4e bd b1 a9 7b be 54 43 f5 bd
       -0.02653764 -0.05039719 -0.24576451 -0.119757324
000270 98 4f d6 be a3 b5 e0 be d4 28 a4 be 34 6c b4 be
       -0.418576 -0.43888578 -0.320624 -0.35238802
000280 4a 60 01 be 38 42 0a 3f 93 5f 22 3e 65 96 83 be
       -0.12634388 0.5400729 0.15856771 -0.2570068
000290 84 69 38 3d 72 f1 97 3d 0d a8 c6 bd f6 99 b8 3c
       0.045022503 0.07419099 -0.09700022 0.022534352
0002a0 33 4c 34 bf 98 f3 7e 3f 16 8a 95 3d 8e 5c 4c bb
       -0.7042877 0.99590445 0.073017284 -0.0031183097
0002b0 3e df 77 3b 6c 48 57 bb da 53 b6 3d 2b e5 e6 bd
       0.0037822272 -0.0032849563 0.08902712 -0.11274179
0002c0 f0 4e 7a 3e 00 a7 1a be 4d b9 9a be fb df 2c 3c
       0.24444175 -0.15102768 -0.30219498 0.010551448
0002d0 7c 34 d2 be 7c 10 b9 be 3f c1 9c be 56 aa 1e 3c
       -0.41055667 -0.3614539 -0.30616185 0.009684166
0002e0 20 06 c1 3e ca 68 3c 3d 94 48 be 3e 2e 5f f4 3d
       0.37699986 0.045998372 0.37164748 0.119322166
0002f0 9c 76 75 3e 12 5d ff 3d 43 f1 8f be 96 93 87 3e
       0.23971027 0.12468924 -0.28113756 0.26479787
000300 ca 11 ce bc 9c 40 46 3e e1 e6 ad 3e af fc 10 be
       -0.025154967 0.19360584 0.3396521 -0.14158891
000310 47 be c4 bd b6 c5 ca 3d 4f c9 d1 be 52 4b 54 be
       -0.09606605 0.099009916 -0.409739 -0.20731857
000320 47 c4 03 3e d2 e1 74 be e2 71 73 be 99 eb 50 be
       0.12867843 -0.23914269 -0.23773912 -0.20402373
000330 0b 0a 8d 3e d8 c4 9c 3e 39 df ca be b3 32 ca be
       0.27546725 0.3061893 -0.3962343 -0.39491805
000340 39 c1 51 be 00 74 94 3e 0c 12 65 be 49 52 7d 3e
       -0.20483865 0.2899475 -0.22370166 0.2473842
000350 8f 3f 7c be c0 2f 87 bd 3d 69 bb 3d 97 b2 60 be
       -0.2463362 -0.066009045 0.09150932 -0.21943127
000360 20 0f cf 3e d0 fe 09 3f d3 0b 47 bd 29 50 c0 39
       0.40441227 0.5390444 -0.04859526 0.00036680818
000370 52 24 82 3e 1b 2f 8f 3b 93 03 29 be 99 16 3f 3e
       0.25418335 0.004369629 -0.1650527 0.18660964
000380 5a dd ec be eb 4a fc 3d bf 8d 2a be f9 d6 e1 bd
       -0.46262628 0.12318977 -0.16655634 -0.11027331
000390 d6 a5 d9 bd 86 d7 13 be f4 0c 24 3e e4 9e 61 3e
       -0.10627334 -0.14437684 0.16020566 0.22033268
0003a0 b6 6b 5a be d8 e7 08 be 9f d3 c1 3d c5 5b 1a be
       -0.21330151 -0.13369691 0.09464192 -0.1507407
0003b0 d8 3f f2 bd 88 9b 5c 3e 60 51 9c be 85 5a 31 3e
       -0.118285835 0.21543705 -0.30530834 0.17319687
0003c0 17 29 57 3e 88 76 8c be e7 4c 50 be bf 78 7c 3e
       0.21011768 -0.27434182 -0.20341836 0.24655436
0003d0 0d 6f d6 3e 0f 8d 2a 3f 4c 57 36 3f ee 0d f0 bd
       0.418816 0.6662149 0.71226954 -0.11721407
0003e0 03 73 b3 3d 27 6d 6b 3c 4e 88 57 be 32 61 c3 3e
       0.08762171 0.014369286 -0.2104809 0.38160092
0003f0 4d 30 f9 3e a0 a2 d3 3c d8 32 24 3d ba 82 de be
       0.48669663 0.025834382 0.04008755 -0.4345911

critic.0.bias f4 [64]
000000 d4 06 df be 79 1d 9c be b2 92 96 3e 3e 34 79 be
       -0.43559897 -0.30491236 0.29408795 -0.24336335
000010 fd bd 20 3e 76 b5 d2 be 6c 4f ac 3e 17 41 d8 3e
       0.15697475 -0.4115407 0.33654344 0.4223716
000020 aa e2 52 be b0 5d 99 bd b9 07 0a bc e1 62 1c be
       -0.20594278 -0.074885726 -0.008424693 -0.15272094
000030 d9 47 5b 3d 66 19 f7 3e d6 55 53 3d 17 b5 a8 bd
       0.053535316 0.48261565 0.05159553 -0.08237665
000040 27 b4 9c be cb d9 50 3e 48 e1 31 3d 21 17 a4 3e
       -0.30606195 0.20395581 0.043427736 0.32048896
000050 b0 ba bf be a2 41 95 be be 24 84 bc 5c 7a 27 3e
       -0.3744712 -0.29151636 -0.016130801 0.1635527
000060 1e fa cc be b1 c7 b2 3c d9 34 35 be c7 bf 49 be
       -0.40034574 0.021823736 -0.17695941 -0.19702064
000070 fa 9e 1e be 63 b5 a9 be 50 af 21 3c 95 70 4f be
       -0.15490332 -0.331462 0.009868458 -0.2025779
000080 7d cb 9c be b9 0b 39 be 57 dc 18 3e 10 96 90 be
       -0.30624 -0.18070878 0.14927803 -0.2823949
000090 eb 07 c7 be 59 1b 4a 3e 42 5d 40 be 80 5d 26 3f
       -0.38873228 0.19736995 -0.18785575 0.6498642
0000a0 6f 86 0e be 6b e1 d9 3c fe bc 11 3f 17 a6 04 bf
       -0.1391847 0.026596745 0.56929004 -0.51815933
0000b0 71 66 14 3e 34 2b 24 3f 7f b2 bc bd 5b e0 6d 3d
       0.14492203 0.6412842 -0.09213733 0.05807529
0000c0 88 e2 a2 3e dd f8 5d 3e ab 59 ab 3e c9 a8 99 be
       0.31813455 0.21676965 0.3346685 -0.30011585
0000d0 dd 41 30 3e 60 b0 01 3f bd e0 eb 3e be 07 68 be
       0.17212625 0.5065975 0.460699 -0.22659203
0000e0 61 7b c9 3e ed ac c2 be 7d 4c 81 3e c0 65 4e be
       0.39351943 -0.38022557 0.25253668 -0.20156002
0000f0 74 34 ae bd f0 1c e0 3e 9d 97 d3 3d f0 fa 95 bd
       -0.085060984 0.43772078 0.10331652 -0.07323253

critic.2.weight f4 [64, 64]
000000 2f b3 e9 bc e2 d1 9c bd 6b 9f 09 3d 38 c0 80 3d
       -0.028527824 -0.076572195 0.0335993 0.06286663
000010 c4 98 c3 3d cf 47 92 bd c5 52 ec 3d 7f fa bc bd
       0.09550622 -0.07142603 0.115392245 -0.09227466
000020 a6 95 6b bd 57 1e 72 3e c5 9c e5 3d 7a 4e 0a bd
       -0.057515763 0.23644386 0.11211542 -0.033766247
000030 2a f4 38 3d 92 ed 60 bd 8d 66 32 3d 3a 15 ba 3d
       0.045154728 -0.054914065 0.04355483 0.0908608
000040 95 e9 8e 3d 81 76 ba bc 84 d7 a3 bd c4 3a 0f bd
       0.06978146 -0.022761585 -0.08000091 -0.034968153
000050 5c 08 34 bd 53 f2 42 bb 56 67 b7 3d 36 e1 b0 bc
       -0.043953285 -0.0029746487 0.08955257 -0.021591764
000060 54 4a 32 3d 65 bf 8f bd aa 6c 49 bc 24 10 d0 3b
       0.043527916 -0.070189275 -0.012293974 0.0063495804
000070 84 21 10 be 52 24 a9 bd 1c 25 d6 3c 81 31 c0 3d
       -0.14075285 -0.08258881 0.026140742 0.09384442
000080 46 e6 b8 bd 40 97 a3 bd 14 2f 82 3e df 27 2c 3d
       -0.09028296 -0.07987833 0.25426543 0.04203021
000090 c5 13 f2 3d ac fc 99 3d c9 d7 e7 bd 98 cf d1 3d
       0.11820177 0.075188965 -0.113204546 0.102446735
0000a0 43 6a 02 3e f7 49 3d 3e fb e0 b3 bc d1 03 5f 3d
       0.12735848 0.18485247 -0.021957865 0.054447
0000b0 f5 23 75 3d ee 7c fa bd 64 14 a1 3d ba 21 9d 3d
       0.059848744 -0.1223086 0.07865217 0.076724485
0000c0 15 a0 70 3d bb 64 dd 3c b2 fd 3b bd 92 a4 92 3d
       0.058746416 0.027025571 -0.04589624 0.071602955
0000d0 5d d8 0f be 2b 0c 0a bd 60 72 cb bd 45 e9 ff 3d
       -0.1404738 -0.03370301 -0.09933925 0.124956645
0000e0 d0 ab 45 bd d8 fb 89 bc 80 6a 56 3d 37 f4 e4 bb
       -0.048259556 -0.016843721 0.05234766 -0.0069871205
0000f0 f5 1c a7 3d 97 01 ea 3d 7d c8 23 be 14 ca 03 bc
       0.0815982 0.114260845 -0.15994449 -0.008043785
000100 83 30 1c bc f1 87 df 3d 27 96 2b be d9 a8 92 3d
       -0.0095330505 0.10914601 -0.16756497 0.071611114
000110 a0 91 21 3d 63 3c 71 3d 56 41 85 bc ab 59 06 be
       0.03944552 0.05889548 -0.016266506 -0.13120143
000120 3c 18 c5 3c d9 0f 8a 3d cc e5 c9 3c 74 59 d6 bd
       0.024059407 0.06741304 0.024645709 -0.104662806
000130 2e 0f a0 bd 05 9c f2 bd 2b d3 8a bd 3e 40 bc bc
       -0.07815395 -0.118461646 -0.06778558 -0.022979852
000140 f7 6d 7d 3d 6b 52 5f 3c c4 02 04 3c 05 39 95 bd
       0.06187245 0.01363049 0.0080573 -0.07286266
000150 fd 82 33 3d 08 a5 01 3d 3b 9f bc bc 7c f9 3d 3e
       0.043826092 0.031651527 -0.023025146 0.18552202
000160 55 93 a6 3e 8a 35 36 bd 4c 23 21 bd 33 e2 25 be
       0.3253428 -0.044484653 -0.039340302 -0.1619957
000170 f0 a3 9c 3c 4c 7b a9 bd ae 7a d9 3d 8c fd a9 3d
       0.01912114 -0.0827547 0.106191024 0.08300313
000180 d8 74 c3 3d b1 c7 ae bd 3d 94 a1 bb 66 32 d8 3c
       0.095437706 -0.08534182 -0.0049310015 0.02639122
000190 0a 01 83 3d e7 63 17 bd 79 1d 80 3b 0b 9f 07 3d
       0.063966826 -0.03696051 0.0039097634 0.03311066
0001a0 fd 90 e9 bd 38 5d a6 bd 24 39 39 bc 2e 12 91 bd
       -0.114046074 -0.08123249 -0.011305127 -0.070835456
0001b0 6e a3 c6 3d 76 28 01 be 99 17 94 3b b3 57 24 3e
       0.096991405 -0.12613091 0.0045194146 0.1604908
0001c0 c2 63 0f be 12 b7 4e 3d 79 32 da 3c 39 e7 fc bc
       -0.14002898 0.05046756 0.026635395 -0.030871974
0001d0 c6 04 20 3e 6f 40 a3 bd 33 bf 1e bd 72 88 ce bb
       0.15626821 -0.07971274 -0.03875656 -0.0063028866
0001e0 56 8e f0 bd 37 b8 82 bd ce 43 c3 bd 58 63 1f be
       -0.117458984 -0.063827924 -0.09534417 -0.1556524
0001f0 05 b8 bc ba 08 32 92 3d a8 e0 14 be 35 66 30 3b
       -0.0014398104 0.07138449 -0.14538825 0.002691639
000200 49 49 a1 bd 68 0c a9 bd e2 87 11 3d 1a 7a 7e 3d
       -0.07875306 -0.082543194 0.03552998 0.062128164
000210 18 57 20 3d df 14 6b be 5a c9 e2 3d 61 1b f5 3d
       0.03914556 -0.2295718 0.11073561 0.11968113
000220 02 82 cc bc 9b dc be bd 0f fd c1 bd 61 57 c5 3d
       -0.024964336 -0.09319421 -0.09472095 0.09635807
000230 06 35 2f be 31 51 ce 3d 4e cd 80 3b 31 b6 52 3d
       -0.1711007 0.1007408 0.003930724 0.051443283
000240 ef 22 c3 bb 7d 3e 3f be b0 d4 9c 3d 1e d2 a7 bc
       -0.005955092 -0.18676181 0.076577544 -0.020485934
000250 3d 89 44 3d 16 9e c9 3d 62 23 0d be 7e 17 a9 bc
       0.047982443 0.098446056 -0.13783029 -0.020641085
000260 77 d0 c6 3d 7a c7 51 bd 94 8e b6 bc 41 02 2f 3e
       0.0970773 -0.051215626 -0.022284783 0.17090704
000270 b6 65 5c bd c1 07 a3 bd 7b fa 40 be bf 82 a9 bc
       -0.053807937 -0.07960463 -0.1884555 -0.020692227
000280 c9 ed ae 3c 5d e4 f0 3d d9 24 04 3e 6e f2 b3 bc
       0.02135362 0.11762307 0.12904681 -0.021966185
000290 2f c2 0c be 7f dc c7 bd e1 87 13 3e c6 61 fd 3d
       -0.1374595 -0.09758853 0.14407302 0.123721644
0002a0 93 f0 01 3e 89 91 ad 3d 01 45 f2 3d 42 a1 8c bc
       0.12689428 0.08475024 0.11829568 -0.017166737
0002b0 6a 0d a3 bd 68 a3 05 3e fe 27 d8 3d 30 4f b4 3c
       -0.07961543 0.13050616 0.10554503 0.022010416
0002c0 e9 50 a0 3b aa 5f 84 3c 5e 7e 1b bd 72 1f 38 bc
       0.0048924577 0.016158897 -0.03796231 -0.011237966
0002d0 7c 6d 3d be cc e9 f2 3d 19 76 2e 3e 8f 71 11 be
       -0.18498796 0.118609995 0.17037238 -0.14203475
0002e0 8a df 2e 3d 02 30 17 be 96 a9 d8 bd e0 6c b1 3d
       0.042693652 -0.14764407 -0.10579221 0.086633444
0002f0 cd 1b 19 3e 2f 69 fa bc 7c 10 2a 3e 8e 24 04 3e
       0.14952011 -0.030567734 0.16607851 0.1290457
000300 f1 6e 0f 3e 80 d7 dc bd 70 08 06 3e c3 36 14 3e
       0.14007165 -0.10783291 0.13089156 0.14474015
000310 48 9c 1e be 4e bc c5 bd c4 29 28 3b dc ad f5 bd
       -0.15489304 -0.09655057 0.002565966 -0.11996052
000320 47 b4 03 3d 9a 2a 94 3d 10 12 9c bd dd 4c 11 3e
       0.032154348 0.07234688 -0.07620633 0.14189477
000330 bf c2 ba bc 80 74 0c 3e ed 2f 82 bd 96 b3 b8 3c
       -0.02279794 0.13716316 -0.06356797 0.02254657
000340 29 cf 8b 3d f6 38 ca 3c 36 4b 05 be 51 d8 92 3d
       0.06826622 0.024685364 -0.13016972 0.07170165
000350 f8 cf 00 3e 3f 49 6e 3d 05 37 8a 3d 52 b9 a1 bd
       0.12579334 0.05817532 0.067487754 -0.07896675
000360 8a 0b 8f bc 07 e1 52 bd 94 04 ae 3d d4 8e 0d 3e
       -0.017461557 -0.051484134 0.08496967 0.13824016
000370 b9 b3 10 be 3b a8 28 3c 83 40 22 3e 46 e6 79 be
       -0.14131059 0.0102940155 0.15844922 -0.24404249
000380 ab 18 8c 3c 9d 2d 76 bd 23 38 04 3d 55 6a 94 bd
       0.017101606 -0.060102094 0.0322801 -0.07246844
000390 c2 c7 58 3c 60 21 a3 3d af 9a 0a 3e 69 07 b4 bd
       0.01323122 0.0796535 0.1353557 -0.08790476
0003a0 3c c3 b8 3c fe 9c f3 bd f1 3a c5 bb d3 f8 7c bd
       0.022554033 -0.11895178 -0.0060189893 -0.061760735
0003b0 6f da 0b bd 08 e4 a8 bd 04 c3 1a 3e e0 14 9e bb
       -0.03414386 -0.082466185 0.15113455 -0.004824266
0003c0 01 16 1a bd 50 88 32 3e 53 5b c0 3d 3a 7a 92 bd
       -0.03761864 0.17434812 0.09392419 -0.07152219
0003d0 88 6b 80 bc f8 87 c8 3d 24 bd 72 bd dd 85 7d bd
       -0.015676275 0.09791559 -0.05926241 -0.06189524
0003e0 32 bf 4a bd f2 12 e1 bd bd 40 83 bd 0f 1a 91 bc
       -0.049498744 -0.10989942 -0.06408832 -0.017712621
0003f0 63 93 5c bd 70 83 cb 3d 61 82 41 3d 91 6e ea 3d
       -0.053851496 0.09937179 0.04724348 0.1144687

critic.2.bias f4 [64]
000000 3c ef 18 3b e7 3b 0c be f7 50 c6 bc f8 22 98 3d
       0.0023335954 -0.13694726 -0.024208529 0.07428545
000010 7e d3 d8 3d 44 37 96 3d 38 93 ed 3c 6c 09 ed 3d
       0.10587214 0.0733476 0.029000863 0.11574063
000020 3d a0 1e 3e 92 85 ae bc 17 a1 3c 3d df 9c 14 3d
       0.15490814 -0.021303926 0.046052065 0.036282416
000030 33 74 2b bd 3c d3 da bd 02 41 d8 bd f0 3c 34 bd
       -0.041858863 -0.10684821 -0.10559274 -0.044003427
000040 c1 4d 4e bd 1b 1f 14 3d 72 aa 1a be 8b 6c 8a 3d
       -0.05036712 0.036162477 -0.15104082 0.06758984
000050 50 bc 1b bd cf da 0c bc 7f ed c5 3d 2c bd d9 bc
       -0.038021386 -0.00859709 0.096644394 -0.026579462
000060 58 37 22 bd 12 3b 56 3c 40 04 b3 3d bc 11 04 be
       -0.03960356 0.013075607 0.08741045 -0.1289739
000070 7f 7e 52 bc 1b a4 4c bd 4b d7 35 3d 18 11 7b 3d
       -0.012847542 -0.04996119 0.044394772 0.0612956
000080 62 47 bf 3d fb b8 13 3c d5 44 bc bc 77 fd 22 be
       0.09339787 0.009016271 -0.02298204 -0.15917002
000090 f5 1e ae bd 23 d9 17 bd a1 1c 90 3d 32 65 bb bd
       -0.08501998 -0.037072312 0.070367105 -0.09150161
0000a0 70 1f 0a 3e 92 a8 38 bd 86 bb 05 bd 48 54 7b 3b
       0.13488555 -0.045082636 -0.03264954 0.0038349796
0000b0 09 34 be 3c df df 2d 3d 6d a9 5f bd 89 e7 a6 bd
       0.023218172 0.04244983 -0.054604936 -0.081496306
0000c0 70 f4 c5 3b 27 b4 f0 3d 11 6d 03 3e 9c cc a1 bd
       0.006041102 0.11753111 0.12834574 -0.07900354
0000d0 6d 19 b4 bb 9d 24 97 bd 24 91 36 3c 26 30 92 3d
       -0.005496195 -0.0738003 0.011143003 0.0713809
0000e0 5a ad eb bc 94 64 a8 bd 4f 36 d7 3d a4 9b a3 3d
       -0.028769184 -0.08222309 0.105084054 0.079886705
0000f0 09 a3 fb 3d 4d 92 fb bd 2c 82 a1 bd 3f 7e bb 3d
       0.12286956 -0.12283764 -0.078861564 0.09154939

critic.4.weight f4 [1, 64]
000000 09 c4 42 bd 3a 81 d8 3d 92 92 e3 bd 41 53 80 bd
       -0.047550235 0.10571523 -0.111119404 -0.062658794
000010 10 b9 93 bd ef f7 08 3e 46 b1 35 be 7b 7a e8 3d
       -0.07213032 0.13375829 -0.17743406 0.11351486
000020 08 6c 01 be b6 38 18 be 9e 86 22 3e 20 96 71 be
       -0.12638867 -0.14865384 0.15871665 -0.23592424
000030 7a 02 04 3e f9 bc 92 bd be f9 b5 bc bc 80 ae 3d
       0.1289157 -0.0716495 -0.022213813 0.08520648
000040 b9 18 72 be 3f 4a 46 3e 90 95 84 be d2 07 6b 3d
       -0.23642243 0.1936426 -0.25895357 0.057380505
000050 13 6b ed bd 08 06 60 3d 6a fe 06 3e a0 9e 39 3e
       -0.115926884 0.05469325 0.13182989 0.18126917
000060 45 c5 1d 3d 3f f2 1a be a8 55 08 be d7 7c bf 3d
       0.03851821 -0.15131472 -0.13313925 0.09349983
000070 4e df e7 3d 0e 00 35 bd e6 1f 9b bd 71 8b 3d 3e
       0.11321889 -0.044189505 -0.075744435 0.18510224
000080 ba d5 49 3e dc 10 2c 3d 9e 8e a0 3d f5 45 0b 3e
       0.19710436 0.042008266 0.07839702 0.13600905
000090 ce e4 09 be 1c 47 12 3e 83 d0 07 bd fd 6b e2 bd
       -0.13466188 0.14284939 -0.033157837 -0.110557534
0000a0 9d d0 de bd f4 38 17 3e 90 dc 63 be 51 e9 6e 3e
       -0.108796336 0.1476782 -0.22252107 0.2333119
0000b0 d6 01 81 be db 67 ec 3d 8a f6 15 3e c3 2e 41 3e
       -0.25196713 0.11543246 0.14644828 0.18865494
0000c0 4b d7 d2 3d 65 c6 2e 3e 8b bf d8 bd 15 11 7e be
       0.1029497 0.17067869 -0.10583409 -0.24811204
0000d0 77 9a 10 3e 9b 88 b2 3d 8d 52 27 3e c3 43 d1 bd
       0.14121424 0.08717462 0.16340084 -0.10218003
0000e0 7d ae 03 3e 30 dc 8f 3d 1c 6d 42 bd ca 9e f4 3c
       0.12859531 0.07024419 -0.047467336 0.029860873
0000f0 a0 e9 f5 bd 54 d1 db 3d 38 e4 dc 3d cb b8 28 be
       -0.12007451 0.107332855 0.10785717 -0.16476743
